cyberbach_models/lstm/results/model_checkpoint.pt (torch, 341155 bytes, 6 tensors)

output_weights.weight f4 [88, 100]
000000 f4 d2 8d be b8 50 84 3e 09 96 df 3e a6 b5 03 3f
       -0.27700007 0.25842834 0.43669155 0.5144905
000010 66 92 8a be 5c 4b 03 bf 9a 34 fa 3e b5 c2 c3 bd
       -0.27064818 -0.51286864 0.48868257 -0.09558622
000020 64 81 4c bc e3 02 7d be 26 aa c2 3e ce 19 af be
       -0.012482021 -0.24708132 0.38020438 -0.34199375
000030 1b 5b d5 3e 0c df db be 0c c1 9f be a4 2d 0c 3f
       0.4167107 -0.4294361 -0.3120197 0.5475714
000040 e0 60 c4 3e 9f c5 88 3e d0 69 6d be a1 90 f1 3d
       0.3835516 0.26713273 -0.23184896 0.11795164
000050 2c 63 c0 bd fc 35 a4 3e 7a 77 30 3e 91 af c3 3e
       -0.093939155 0.32072437 0.17233077 0.38219884
000060 fe c2 63 3e 5d 69 da bc d1 cc 92 3e 2f d8 80 be
       0.22242352 -0.02666157 0.28671888 -0.25164935
000070 70 88 a0 be b4 ad d9 be 8a 1f 24 be 33 85 73 be
       -0.31354094 -0.42515337 -0.16027656 -0.2378128
000080 51 a0 34 3e 66 73 5e bd 2d f3 c8 be 32 86 1b be
       0.17639281 -0.05430927 -0.39248028 -0.1518791
000090 43 fc 0d 3f d1 47 af 3e fe 19 29 3d d2 21 aa 3e
       0.55463046 0.3423448 0.041284554 0.33228928
0000a0 16 68 7b be 7a fd c1 be fb 84 0e 3f 36 a9 e1 be
       -0.24551424 -0.378887 0.5567166 -0.4407441
0000b0 d5 2b f3 3d 4e 45 ca be 9d b4 6d 3d e0 d2 ce 3e
       0.11873595 -0.39506 0.058033574 0.4039526
0000c0 06 cd c8 bd 16 bd ef 3e f9 97 c2 3b 9f 1e c9 be
       -0.0980473 0.4682395 0.0059385267 -0.39281175
0000d0 87 e1 eb 3e ab b6 8f be b7 b3 c1 3e 16 ff 8a bd
       0.460705 -0.28069052 0.37832424 -0.06786935
0000e0 b5 28 29 3e 5e 37 37 3e 2a 9b 73 3e 72 06 01 3f
       0.16519435 0.17892215 0.23789659 0.5040046
0000f0 1f 16 c4 3e 65 4f d6 3e 39 e8 84 3c 28 8a 84 3d
       0.38298127 0.41857448 0.016224014 0.06471664
000100 d1 d5 8f 3e 2d 7a 2c 3e 6c 6c dc 3d 5a 3c a7 bd
       0.28092816 0.16843481 0.10762867 -0.08165808
000110 3f 42 51 be cf ba 52 3e a3 d6 c4 3e 02 91 22 3f
       -0.20435427 0.20579074 0.38445005 0.63502514
000120 e6 a7 9a be 00 d0 e1 3c 89 31 07 bf 41 70 b3 3e
       -0.3020622 0.027565002 -0.5280996 0.3504658
000130 cb 75 7f 3e b8 c1 76 be 85 85 93 bd c9 cb b8 be
       0.24947278 -0.24097335 -0.07203201 -0.36092976
000140 31 a7 04 3e b2 a7 7c be 91 a5 ec 3e f8 92 1a be
       0.12954403 -0.24673346 0.46220067 -0.15095127
000150 ac 24 95 be 9f 6e 50 bd 17 f0 bb be 87 81 21 3e
       -0.2912954 -0.050886746 -0.36706612 0.15772067
000160 f0 14 70 3d 0e 1b f3 3e 72 84 d7 be c0 7e 3b 3e
       0.058613718 0.4748158 -0.42093235 0.1831007
000170 1e b9 6d be 71 56 14 3f 27 ea 96 3e 22 e0 53 be
       -0.23215148 0.579444 0.2947552 -0.20690969
000180 6e 7d e5 3e 25 d6 a7 be 8b 07 8f 3e 89 a8 d9 3e
       0.44822258 -0.32780567 0.27935442 0.42511395
000190 f5 d2 8d be b6 50 84 3e 08 96 df 3e a6 b5 03 3f
       -0.2770001 0.25842828 0.43669152 0.5144905
0001a0 66 92 8a be 5b 4b 03 bf 9a 34 fa 3e b6 c2 c3 bd
       -0.27064818 -0.5128686 0.48868257 -0.095586225
0001b0 68 81 4c bc e3 02 7d be 25 aa c2 3e cf 19 af be
       -0.012482025 -0.24708132 0.38020435 -0.34199378
0001c0 1b 5b d5 3e 0c df db be 0c c1 9f be a6 2d 0c 3f
       0.4167107 -0.4294361 -0.3120197 0.54757154
0001d0 e0 60 c4 3e 9e c5 88 3e cf 69 6d be a1 90 f1 3d
       0.3835516 0.2671327 -0.23184894 0.11795164
0001e0 2e 63 c0 bd fd 35 a4 3e 7a 77 30 3e 91 af c3 3e
       -0.09393917 0.3207244 0.17233077 0.38219884
0001f0 ff c2 63 3e 5b 69 da bc d2 cc 92 3e 2f d8 80 be
       0.22242354 -0.026661566 0.2867189 -0.25164935
000200 71 88 a0 be b4 ad d9 be 89 1f 24 be 31 85 73 be
       -0.31354097 -0.42515337 -0.16027655 -0.23781277
000210 51 a0 34 3e 67 73 5e bd 2d f3 c8 be 32 86 1b be
       0.17639281 -0.054309275 -0.39248028 -0.1518791
000220 43 fc 0d 3f d0 47 af 3e f9 19 29 3d d0 21 aa 3e
       0.55463046 0.34234476 0.041284535 0.33228922
000230 14 68 7b be 7b fd c1 be fa 84 0e 3f 35 a9 e1 be
       -0.24551421 -0.37888703 0.55671656 -0.44074407
000240 d6 2b f3 3d 4d 45 ca be 9b b4 6d 3d df d2 ce 3e
       0.118735954 -0.39505997 0.058033567 0.40395257
000250 04 cd c8 bd 16 bd ef 3e ea 97 c2 3b 9e 1e c9 be
       -0.098047286 0.4682395 0.0059385197 -0.39281172
000260 87 e1 eb 3e ab b6 8f be b7 b3 c1 3e 18 ff 8a bd
       0.460705 -0.28069052 0.37832424 -0.067869365
000270 b5 28 29 3e 5d 37 37 3e 28 9b 73 3e 73 06 01 3f
       0.16519435 0.17892213 0.23789656 0.50400466
000280 1f 16 c4 3e 65 4f d6 3e 3a e8 84 3c 26 8a 84 3d
       0.38298127 0.41857448 0.016224016 0.06471662
000290 d1 d5 8f 3e 2f 7a 2c 3e 6a 6c dc 3d 5a 3c a7 bd
       0.28092816 0.16843484 0.10762866 -0.08165808
0002a0 3e 42 51 be cf ba 52 3e a3 d6 c4 3e 03 91 22 3f
       -0.20435426 0.20579074 0.38445005 0.6350252
0002b0 e5 a7 9a be 02 d0 e1 3c 8a 31 07 bf 41 70 b3 3e
       -0.30206218 0.027565006 -0.52809966 0.3504658
0002c0 cb 75 7f 3e b8 c1 76 be 85 85 93 bd c9 cb b8 be
       0.24947278 -0.24097335 -0.07203201 -0.36092976
0002d0 31 a7 04 3e b2 a7 7c be 90 a5 ec 3e f7 92 1a be
       0.12954403 -0.24673346 0.46220064 -0.15095125
0002e0 ab 24 95 be 9e 6e 50 bd 18 f0 bb be 87 81 21 3e
       -0.29129538 -0.050886743 -0.36706614 0.15772067
0002f0 f2 14 70 3d 0e 1b f3 3e 72 84 d7 be bf 7e 3b 3e
       0.058613725 0.4748158 -0.42093235 0.18310069
000300 1f b9 6d be 71 56 14 3f 29 ea 96 3e 24 e0 53 be
       -0.2321515 0.579444 0.29475525 -0.20690972
000310 6e 7d e5 3e 24 d6 a7 be 8b 07 8f 3e 89 a8 d9 3e
       0.44822258 -0.32780564 0.27935442 0.42511395
000320 f5 d2 8d be b7 50 84 3e 09 96 df 3e a6 b5 03 3f
       -0.2770001 0.2584283 0.43669155 0.5144905
000330 66 92 8a be 5b 4b 03 bf 9a 34 fa 3e b6 c2 c3 bd
       -0.27064818 -0.5128686 0.48868257 -0.095586225
000340 67 81 4c bc e3 02 7d be 26 aa c2 3e ce 19 af be
       -0.012482024 -0.24708132 0.38020438 -0.34199375
000350 1c 5b d5 3e 0c df db be 0d c1 9f be a5 2d 0c 3f
       0.41671073 -0.4294361 -0.31201974 0.5475715
000360 df 60 c4 3e 9e c5 88 3e d0 69 6d be a2 90 f1 3d
       0.38355157 0.2671327 -0.23184896 0.11795165
000370 2d 63 c0 bd fc 35 a4 3e 79 77 30 3e 91 af c3 3e
       -0.09393916 0.32072437 0.17233075 0.38219884
000380 ff c2 63 3e 5f 69 da bc d1 cc 92 3e 2f d8 80 be
       0.22242354 -0.026661573 0.28671888 -0.25164935
000390 70 88 a0 be b4 ad d9 be 88 1f 24 be 32 85 73 be
       -0.31354094 -0.42515337 -0.16027653 -0.23781279
0003a0 52 a0 34 3e 66 73 5e bd 2d f3 c8 be 30 86 1b be
       0.17639282 -0.05430927 -0.39248028 -0.15187907
0003b0 43 fc 0d 3f d0 47 af 3e fd 19 29 3d d1 21 aa 3e
       0.55463046 0.34234476 0.04128455 0.33228925
0003c0 16 68 7b be 7b fd c1 be fa 84 0e 3f 36 a9 e1 be
       -0.24551424 -0.37888703 0.55671656 -0.4407441
0003d0 d5 2b f3 3d 4e 45 ca be 9c b4 6d 3d e0 d2 ce 3e
       0.11873595 -0.39506 0.05803357 0.4039526
0003e0 05 cd c8 bd 15 bd ef 3e ed 97 c2 3b 9f 1e c9 be
       -0.09804729 0.46823946 0.005938521 -0.39281175
0003f0 86 e1 eb 3e ab b6 8f be b7 b3 c1 3e 19 ff 8a bd
       0.46070498 -0.28069052 0.37832424 -0.06786937

output_weights.bias f4 [88]
000000 c1 60 78 bd c2 60 78 bd c1 60 78 bd c1 60 78 bd
       -0.060639147 -0.06063915 -0.060639147 -0.060639147
000010 c1 60 78 bd c3 60 78 bd c1 60 78 bd c1 60 78 bd
       -0.060639147 -0.060639154 -0.060639147 -0.060639147
000020 c1 60 78 bd c1 60 78 bd c1 60 78 bd c1 60 78 bd
       -0.060639147 -0.060639147 -0.060639147 -0.060639147
000030 c2 60 78 bd c1 60 78 bd c1 60 78 bd c2 60 78 bd
       -0.06063915 -0.060639147 -0.060639147 -0.06063915
000040 c2 60 78 bd c2 60 78 bd c1 60 78 bd c1 60 78 bd
       -0.06063915 -0.06063915 -0.060639147 -0.060639147
000050 c2 60 78 bd c2 60 78 bd 1e 32 c3 bd c2 60 78 bd
       -0.06063915 -0.06063915 -0.095310435 -0.06063915
000060 c1 60 78 bd 0c c2 05 be c1 60 78 bd df b5 c4 be
       -0.060639147 -0.13062304 -0.060639147 -0.38420007
000070 f8 3f f6 bd 74 d3 e7 be 1c 94 3e bd 7d 06 37 be
       -0.1202392 -0.45278513 -0.046527967 -0.17873569
000080 64 76 f2 be 0d 00 23 bf 95 76 4a be d9 c0 1a bd
       -0.4735595 -0.6367195 -0.19771798 -0.03778157
000090 19 e2 4e be 7e 04 f3 bd 8c 12 06 bf 5f e5 9a bd
       -0.20203437 -0.11866091 -0.5237205 -0.0756328
0000a0 fb db b9 be 90 e3 d6 bd fa ac 0f 3c c0 d6 ab be
       -0.36300644 -0.10492623 0.008769268 -0.3356228
0000b0 d1 30 39 3e 02 4d dc be cc e0 82 3e 26 2d 6f 3e
       0.18085028 -0.43027502 0.2556213 0.23357067
0000c0 86 8b 0b 3e c5 26 e2 3c 64 77 36 be b8 40 9f 3e
       0.13627443 0.027606377 -0.17818981 0.31104064
0000d0 be bb b1 3d 08 29 42 3e 1c b4 86 3e 22 e5 62 bd
       0.08678387 0.18960965 0.26309288 -0.0553943
0000e0 e3 c2 aa 3e 9f 14 e6 bd 76 8c 70 3e e1 41 1d be
       0.33351812 -0.11234402 0.23491082 -0.15357162
0000f0 58 40 a6 3d 87 a5 35 3e c0 98 53 be 73 f3 b2 3e
       0.08117741 0.17738925 -0.20663738 0.34951362
000100 2e 16 b4 be 76 89 4b be 3a 17 9b be 6f 9e 93 be
       -0.35173172 -0.19876656 -0.30291158 -0.28831813
000110 ff 71 2c be 24 9a 7e be 1d 74 9f bd 91 85 3a be
       -0.16840361 -0.24863487 -0.07785819 -0.18215014
000120 46 e5 73 bd 45 2f 40 be 6a d2 85 be 35 23 6f be
       -0.059544824 -0.18768032 -0.26137096 -0.23353274
000130 c1 60 78 bd c1 60 78 bd c2 60 78 bd c2 60 78 bd
       -0.060639147 -0.060639147 -0.06063915 -0.06063915
000140 c1 60 78 bd c1 60 78 bd c2 60 78 bd c1 60 78 bd
       -0.060639147 -0.060639147 -0.06063915 -0.060639147
000150 c1 60 78 bd c1 60 78 bd c2 60 78 bd c2 60 78 bd
       -0.060639147 -0.060639147 -0.06063915 -0.06063915

rnn.weight_ih_l0 f4 [400, 88]
000000 a3 c9 01 80 8d 8f 00 00 f5 be 01 80 4e f4 00 00
       -1.64169e-40 5.1496e-41 -1.60338e-40 8.764e-41
000010 13 4d 01 00 de 54 01 80 e9 a7 01 80 5b f4 01 80
       1.19485e-40 -1.2228e-40 -1.5207e-40 -1.79494e-40
000020 a3 29 00 00 38 b1 01 00 d3 09 02 80 09 2c 01 80
       1.4936e-41 1.5541e-40 -1.87195e-40 -1.07632e-40
000030 2b c1 01 00 f6 86 00 80 f9 f2 01 00 58 c8 01 00
       1.61131e-40 -4.8415e-41 1.78998e-40 1.63705e-40
000040 77 f1 01 80 4f 25 02 80 cd a5 01 80 e3 6e 01 00
       -1.78457e-40 -1.97055e-40 -1.51314e-40 1.31614e-40
000050 0d 65 01 00 12 ad 01 00 cc ff ba be 6d 92 01 00
       1.28086e-40 1.53921e-40 -0.36523283 1.44363e-40
000060 3d c5 01 80 e7 21 61 3c 8f 98 01 00 19 90 4b be
       -1.62591e-40 0.013740993 1.46563e-40 -0.19879188
000070 c8 97 d7 3d c8 06 86 3f a2 0d 0d 3f 8e 68 79 3f
       0.10526997 1.047082 0.5509893 0.9742516
000080 67 86 38 3e f1 7c 34 3f 90 6d c1 3e 90 a0 f8 3f
       0.1802002 0.70503145 0.37778902 1.9424
000090 1b ef 96 bf 2f c3 2b 3f 96 0d c7 be b9 78 5a bd
       -1.1791719 0.670947 -0.38877553 -0.053337786
0000a0 e2 3c 05 bf 0a e4 a7 3f 35 6b 2b 3f 3d ac d0 bd
       -0.52046025 1.3116467 0.6696046 -0.10189102
0000b0 7c 12 54 3d d2 d0 40 bf 30 9c 2a bf f5 c3 ee 3e
       0.05177544 -0.75318635 -0.66644573 0.46633878
0000c0 bc 98 97 be 40 68 aa 3e 17 59 46 3e 47 ac 25 bf
       -0.29608715 0.3328266 0.19369923 -0.64716
0000d0 18 5c 91 3f 6f 24 98 3e a1 a2 a2 3e 19 ae 0c 3f
       1.135623 0.29715297 0.317647 0.5495315
0000e0 4a 8d 83 3e 29 a7 d5 3e 56 f3 aa bd 72 cd 0c bf
       0.25693733 0.41729096 -0.08347194 -0.55000985
0000f0 aa 8d 1b 3e 82 f6 f7 3e ac 4b 5b 3f 2f 53 38 3f
       0.1519076 0.48430258 0.8566234 0.7200193
000100 83 11 9a 3f 01 e3 22 3f e8 90 87 be 17 5d ee 3e
       1.2036594 0.6362763 -0.26477742 0.46555397
000110 42 a7 64 bd b9 4b 19 bf 91 d4 78 3e 00 5a 5f bf
       -0.055823572 -0.5988117 0.24299838 -0.87246704
000120 c5 47 73 3f 40 9b d3 3e f8 4f 47 bf f3 2e 19 3e
       0.95031387 0.41329384 -0.778564 0.14959316
000130 d7 88 02 00 97 4c 01 00 ea 3f 01 80 76 a8 01 80
       2.3276e-40 1.19311e-40 -1.14764e-40 -1.52268e-40
000140 12 52 01 80 b5 20 02 00 49 c1 01 00 87 9f 00 00
       -1.21277e-40 1.95404e-40 1.61173e-40 5.7228e-41
000150 9d cd 01 80 5f 83 01 80 4b 35 02 00 39 98 01 80
       -1.65596e-40 -1.38963e-40 2.02789e-40 -1.46443e-40
000160 29 da 00 80 d4 18 02 80 09 05 01 00 4a a6 02 80
       -7.8261e-41 -1.92578e-40 9.3642e-41 -2.43324e-40
000170 7a 74 01 00 a8 4a 02 80 82 ae 01 00 ea 36 01 80
       1.3362e-40 -2.10453e-40 1.54437e-40 -1.11535e-40
000180 af f9 00 00 de e2 01 80 fb 86 01 80 dd a3 01 00
       8.957e-41 -1.7322e-40 -1.40257e-40 1.50619e-40
000190 86 08 02 00 08 f8 01 00 9d 11 02 80 3d a5 01 00
       1.86729e-40 1.80812e-40 -1.8999e-40 1.51112e-40
0001a0 a7 ce 00 80 bd a0 01 00 1d dd 01 00 95 fc 01 00
       -7.4133e-41 1.49498e-40 1.71156e-40 1.82445e-40
0001b0 2f e9 00 00 50 62 02 00 62 50 95 3e 57 40 00 80
       8.365e-41 2.18939e-40 0.2916289 -2.3081e-41
0001c0 11 b5 01 80 47 15 02 3f b1 76 01 00 73 a8 88 3f
       -1.5679e-40 0.50813717 1.34414e-40 1.0676407
0001d0 6c 0c 04 be 9e c0 8e 3f 15 d8 c4 3f 5f 0c 63 3f
       -0.12895364 1.1152532 1.5378443 0.8869075
0001e0 c2 de 1e 40 10 d8 9e 3f e7 14 ab bf a6 26 0b 3e
       2.482346 1.2409687 -1.3365754 0.13588962
0001f0 0f 9b a1 be 18 6a a8 bf 80 ea c3 3c 97 e4 04 3f
       -0.31563613 -1.3157377 0.02391553 0.519113
000200 97 a7 5f be 44 01 95 bf 8c a8 82 3f ab 3b cc be
       -0.21841274 -1.1641011 1.0207686 -0.39889273
000210 a8 c1 ba bd 82 47 0f 3e c4 86 81 3f 86 de 9d 3e
       -0.09118968 0.13992122 1.0119252 0.30833834
000220 dd a2 93 bf cc e9 02 bf b0 0a 93 3e 12 52 6b bd
       -1.1534077 -0.51137996 0.2871909 -0.057451315
000230 cd f2 b3 3f 1c df 62 be ce 54 2c 3e 93 a9 af be
       1.4058472 -0.22155422 0.16829225 -0.34309062
000240 d4 b6 b0 bf 65 81 24 3f 5c 08 e7 3e f2 e5 16 bf
       -1.3805795 0.6425994 0.45123565 -0.5894462
000250 fd 64 ad 3e 6b ea 6b bf 57 62 6b 3c 9c cd f5 be
       0.3386611 -0.9215457 0.014366708 -0.4800843
000260 28 72 d7 3f 94 5f af 3f 9e 51 0f 40 9b 55 4c 3f
       1.6831713 1.3701043 2.2393565 0.79818124
000270 b8 74 2b 3c a3 47 26 bf a9 d7 1e be f8 91 e2 3f
       0.01046484 -0.6495306 -0.15511955 1.7700796
000280 7b 92 22 bf f8 22 a7 be f5 50 1f bc d0 d3 40 3f
       -0.6350476 -0.32643867 -0.0097238915 0.753232
000290 b9 8a 01 00 8e 36 02 00 b0 99 01 80 67 94 01 80
       1.416e-40 2.03242e-40 -1.46968e-40 -1.45072e-40
0002a0 39 eb 01 00 42 52 02 00 0c 33 01 00 7b 52 01 80
       1.76217e-40 2.1318e-40 1.10148e-40 -1.21424e-40
0002b0 7f b5 01 00 64 83 02 00 73 78 01 80 21 b6 01 00
       1.56944e-40 2.30805e-40 -1.35045e-40 1.57171e-40
0002c0 f4 3d 02 80 30 97 01 00 49 b5 01 00 4e 7f 00 80
       -2.05896e-40 1.46071e-40 1.56868e-40 -4.5668e-41
0002d0 19 08 01 80 b1 76 00 00 81 98 00 80 a8 c4 00 80
       -9.474e-41 4.2578e-41 -5.4708e-41 -7.0547e-41
0002e0 ce 63 00 00 2e d3 01 80 80 c6 00 80 60 66 01 80
       3.5803e-41 -1.67592e-40 -7.1208e-41 -1.28561e-40
0002f0 94 85 02 00 be 1e 01 80 19 19 00 80 df 2f 01 80
       2.3159e-40 -1.02864e-40 -9.003e-42 -1.09008e-40
000300 ae d0 01 00 4a 07 00 00 f3 5f 01 80 d2 42 01 00
       1.66696e-40 2.615e-42 -1.26256e-40 1.15806e-40
000310 17 58 00 00 f9 73 02 00 b7 93 c4 35 f4 d2 01 00
       3.16e-41 2.25274e-40 1.4646129e-06 1.67511e-40
000320 4a 5d 01 80 8b 62 ef bc a1 7f 02 80 77 39 04 40
       -1.25301e-40 -0.029221794 -2.29456e-40 2.0660074
000330 e1 10 4c 3d 91 04 c2 3b 6e 7a be 3e 22 1d bc bc
       0.049820784 0.0059209545 0.3720278 -0.02296311
000340 e1 e6 2f 3f 2a e8 1e 3e b6 59 be 3e 48 18 8f 3e
       0.6871167 0.15518251 0.3717782 0.27948213
000350 56 d6 87 3e 10 1f 04 3f e2 68 28 3f e5 ca 8d 3e
       0.26530713 0.516099 0.6578504 0.2769386
000360 79 4d 21 3f d9 a7 a7 bc 4c d4 2a 3f 3a 40 55 3d
       0.6300884 -0.020465778 0.6673019 0.052063204
000370 7f 10 6d be 3a 4a 11 3f 1d c0 f5 3e 54 e8 dc 3e
       -0.23150824 0.56753886 0.47998133 0.43146002
000380 2f cb 8d 3c b1 8c 27 3f 67 01 f9 be c4 fb 56 3f
       0.0173088 0.65449053 -0.48633882 0.83977914
000390 cf eb 47 3f dd 09 19 3f c7 f0 ef be 46 be 22 bd
       0.7809419 0.59780675 -0.46863386 -0.03973224
0003a0 13 8a 3d 3f e7 58 59 bf 7c 6e 8b 3e e6 ad 07 be
       0.7403881 -0.8490128 0.2723273 -0.1324993
0003b0 87 a4 68 3f 0e 6b 99 bd ac c1 30 bf b6 50 14 bf
       0.9087605 -0.07491122 -0.6904552 -0.57935655
0003c0 a2 67 60 3f 55 1b f7 be e4 36 77 3f a8 3d 02 3f
       0.8765813 -0.4826304 0.9656813 0.5087533
0003d0 b8 43 dd 3e 0c 37 67 3d f5 d4 a7 bf 49 51 e6 3e
       0.43215728 0.05644898 -1.3111864 0.4498389
0003e0 60 7b 93 3e 0d 11 72 3f e9 27 90 bd 28 28 6c 3f
       0.28805065 0.9455727 -0.07038862 0.92248774
0003f0 f7 fc 01 00 4a 6d 01 80 a1 f2 01 00 20 e6 00 80
       1.82582e-40 -1.31041e-40 1.78874e-40 -8.2553e-41

rnn.weight_hh_l0 f4 [400, 100]
000000 e3 c7 11 bf 52 57 4b be dd 76 d1 be 94 b8 0d 3f
       -0.5694563 -0.19857529 -0.40910998 0.5535977
000010 8e 3b 8f bd a6 18 e9 3d 5c f6 0e be 30 f8 08 3e
       -0.06993781 0.113816544 -0.13961166 0.13375926
000020 77 61 5c be c0 30 9a be 7d 3a 4e 3e c0 26 84 bd
       -0.21521555 -0.30115318 0.20139499 -0.064527035
000030 53 0f 49 be 15 df eb bd 36 6d ab 3e 9f fb 18 bc
       -0.19634752 -0.11517159 0.3348176 -0.009337335
000040 9d e2 c9 3e 86 b5 c2 3e ea 64 4b be 38 79 e6 be
       0.39430705 0.38029116 -0.19862714 -0.45014358
000050 69 8c b4 be 63 f3 1a 3f 4f 74 01 3e 49 7c e4 bd
       -0.35263374 0.6052763 0.12642024 -0.11156518
000060 a0 64 b5 3e 87 4d 3d 3d 79 8c 36 3e 90 8b b8 3c
       0.35428333 0.046216514 0.17827024 0.022527486
000070 f1 05 56 be 3b a6 06 3e bd e2 08 3e d4 55 4a bf
       -0.20900704 0.1314935 0.13367744 -0.79037213
000080 b8 d8 8d bf 6b 48 ad bc a6 e8 90 3e 51 fd 36 3d
       -1.1081762 -0.021152696 0.28302497 0.044675175
000090 53 8b 0a bd f5 10 e5 be c0 40 58 bd 4a 5a c7 3e
       -0.033824276 -0.447395 -0.052796125 0.38936073
0000a0 fe 62 54 3c 52 0e ae be 15 eb df 3d ce 8b 07 3f
       0.012963055 -0.339953 0.1093351 0.529477
0000b0 0e 11 59 3e 6c 20 ad 3d b6 8c 60 be 3f 69 81 3d
       0.21197912 0.084534496 -0.21928677 0.06318902
0000c0 c9 e8 8e 3e 19 5d 2f 3d 72 01 0e 3e 2c 0f ed be
       0.27911976 0.042813394 0.13867739 -0.46300638
0000d0 d9 32 aa 3b bf 4e 9d 3e 46 93 6f bc e3 26 5d 3c
       0.00519405 0.3072414 -0.014622515 0.013498041
0000e0 60 66 d8 be 8a 43 8c bf 2d c3 94 be 90 00 78 3e
       -0.42265606 -1.0958111 -0.29055157 0.24218965
0000f0 ce c0 f7 3e ed 13 90 be 5e f5 84 be 09 c5 09 bf
       0.48389286 -0.28140202 -0.2596845 -0.53816277
000100 c0 e4 9e 3e 1d eb 14 bf 63 9a ac be 9a 1f f7 bd
       0.31033897 -0.58171254 -0.33711538 -0.120665744
000110 d9 e1 28 be 39 5e 00 3d 51 90 52 be e5 4a 57 3d
       -0.16492404 0.031339858 -0.20562865 0.05256166
000120 d5 8c ab 3c 1a cc b6 3e 37 10 ac be ba 50 82 bc
       0.020941177 0.35702592 -0.3360612 -0.015907634
000130 c8 26 ee 3d a9 63 80 bd e7 b4 19 3d 04 02 1a 3e
       0.11628491 -0.06269009 0.037526038 0.15039831
000140 47 bf 9b be 21 64 eb bd 99 f6 00 3f 7c 3c 1c be
       -0.3041937 -0.114937074 0.5037628 -0.15257448
000150 92 17 a8 be d2 d2 3e bf a2 8f 42 3e 59 2b 70 3d
       -0.32830483 -0.74540436 0.19000104 0.05863509
000160 0c 13 7a 3e e9 31 3a 3e 61 48 52 3c 77 14 99 be
       0.24421328 0.18183102 0.012834639 -0.29898426
000170 fb 07 3a bc f6 f4 c1 3d a2 2a 1b 39 0b 12 b9 be
       -0.011354442 0.09470551 0.00014797834 -0.36146578
000180 fa 71 ab 3c b5 ab 2b bf 1f 6d f6 be 3d 64 2d bd
       0.020928372 -0.6705888 -0.48130128 -0.042331923
000190 91 45 a6 be a1 38 ac be d7 f8 db be c1 36 32 bd
       -0.3247495 -0.33636954 -0.42963287 -0.04350925
0001a0 0a 17 b9 3c 66 b2 0c be 15 f4 a6 3d 8d f1 f1 3e
       0.022593994 -0.13739929 0.08152024 0.472546
0001b0 57 b4 6c be 47 af a5 bd 4d f9 6e be 43 04 68 be
       -0.23115669 -0.08090072 -0.23337288 -0.22657876
0001c0 97 78 6a bc 24 a2 fe bd 53 2f 45 3e 92 5d c7 bd
       -0.014310977 -0.124332696 0.19256334 -0.09734644
0001d0 c8 85 70 bd 18 6a 31 3d 32 14 a4 3e 84 70 4d be
       -0.058721334 0.04331407 0.32046658 -0.20062453
0001e0 e1 b4 aa bd 6d cb 1f 3e 65 93 d7 3c cf c7 ec bd
       -0.08335281 0.15604945 0.0263154 -0.11561548
0001f0 88 74 91 3e ee 4b 29 be a5 2c 82 be f3 c7 e4 bd
       0.2840922 -0.16532871 -0.25424686 -0.1117095
000200 a0 d1 f4 be 91 07 2e be aa 03 c5 bd 1b f1 29 be
       -0.4781618 -0.16995074 -0.096198395 -0.1659588
000210 82 e0 70 3e a5 8f fa 3e 33 6f 75 3e 30 67 ac 3f
       0.23523143 0.48937717 0.239682 1.346899
000220 b5 91 f4 3d bb 2d e9 3c b2 2f e0 3e 67 4b 87 bd
       0.11941854 0.028464189 0.4378639 -0.06606179
000230 2b 8b ce bd 65 9f 58 3e bd 3d 0f bf 0f 3a 81 bd
       -0.10085138 0.21154554 -0.5595358 -0.06309902
000240 84 a3 76 be f8 1b 2f 3d ec 2f 34 be 22 f4 09 3e
       -0.24085814 0.042751282 -0.17596406 0.13472036
000250 c3 c9 d7 3e 93 0e 30 bf 8a 39 0d 3d 2a 5f 6f be
       0.4214612 -0.6877224 0.0344787 -0.23376146
000260 fe d9 1e bf b3 38 6f be dc a2 21 bd 20 0c a5 be
       -0.6205138 -0.23361473 -0.039461955 -0.32235813
000270 90 6d ab 3e 0d 32 99 be b7 1c 71 be d0 a0 06 bd
       0.33482027 -0.29920998 -0.2354611 -0.032868207
000280 5f f5 6d be 5b dc 8b bd 5c ce 2c 3d 2d 0b 5d be
       -0.23238133 -0.06829139 0.042188987 -0.21586294
000290 70 81 47 3e 9f 57 e4 bd 6b 77 c5 3e 2a 03 9c 3e
       0.1948297 -0.11149525 0.3856767 0.30471164
0002a0 e2 50 37 3f c8 64 78 3c e3 d3 09 bc 14 59 fa be
       0.7160779 0.015160747 -0.008412334 -0.48896086
0002b0 ef ab 65 3e e2 ca 3c 3e 53 2e d1 3e e4 6c 14 bc
       0.22428869 0.18436769 0.40855655 -0.009059165
0002c0 8c 9d 9d be bc 4b a4 3e 32 f5 48 3f 5d 11 3c 3f
       -0.3078426 0.3208903 0.7849914 0.73463994
0002d0 81 36 1e be 11 31 05 bf b3 b8 22 bd d0 e8 19 3f
       -0.15450479 -0.52027994 -0.039726924 0.6012087
0002e0 68 5a 12 3e 4a 8f cd 3e 83 2f e5 3d 8d a0 9c 3e
       0.142923 0.40148383 0.11190703 0.3059124
0002f0 04 f6 01 3e 21 00 fb be 0a da 0a be d6 e8 66 bf
       0.12691504 -0.49023536 -0.13559738 -0.9019903
000300 15 32 87 3e 0f 7a 3e be 52 f7 0a 3f ab c2 90 be
       0.26405397 -0.18601249 0.5428363 -0.2827352
000310 03 85 9e 3d cb 76 9f be c7 60 0c 3f a0 94 a4 bd
       0.07740214 -0.3114532 0.5483517 -0.080361605
000320 f3 43 9f 3e 81 d9 cf 39 bc 26 9c 3d 06 64 25 be
       0.3110653 0.0003964417 0.076245755 -0.16151437
000330 4a 16 a9 3f d5 27 b1 3d b5 e8 ef bc 32 b5 90 be
       1.3209927 0.086501755 -0.029285768 -0.2826324
000340 3d ff 14 bf bb ca 1b 3f ea 88 f0 be c4 80 ca bd
       -0.5820196 0.6085622 -0.46979457 -0.09887841
000350 25 74 fc bd a1 e6 b3 bd 92 76 8e 3d 10 5e 2e be
       -0.1232684 -0.08784223 0.06956209 -0.1702807
000360 eb d5 d6 3c f2 e5 37 bd 64 4f 85 39 d4 32 48 3f
       0.02622505 -0.044897027 0.00025426887 0.7820256
000370 f2 1b 52 3d 8a 4e 80 be 5c 30 1c be ce f9 18 be
       0.051296182 -0.2505992 -0.15252823 -0.14939043
000380 e6 58 9b be 74 77 50 be 59 68 e6 3d b6 2b 2c be
       -0.30341262 -0.20358068 0.112503715 -0.1681355
000390 d7 21 0b 3d 3d a0 b7 bd 34 83 6f 3d 2e 91 0e 3f
       0.03396782 -0.0896611 0.058474734 0.55690277
0003a0 cc ec e9 3d fa ed ad 3e 56 0e 04 be aa 05 29 3e
       0.114221185 0.33970624 -0.12896094 0.16506067
0003b0 cf 28 05 3f b4 56 69 bd e4 74 49 be 76 0c 87 bd
       0.52015394 -0.056967452 -0.19673496 -0.065941736
0003c0 09 63 b5 3d a6 a8 f4 3e 34 d6 20 be f4 7f 03 3f
       0.0885678 0.4778492 -0.15706712 0.51367116
0003d0 91 8e c8 be c0 98 25 3f c2 d6 62 be f4 2b c4 bd
       -0.3917127 0.64686203 -0.22152236 -0.09578696
0003e0 52 b4 2e be f8 f6 01 bd f1 7b f2 be 47 8f f3 3e
       -0.17060974 -0.03172967 -0.47360185 0.4757025
0003f0 67 9a 30 3e 33 45 20 3c 60 0a 0d be 13 7c 7f 3f
       0.172464 0.009782123 -0.13773489 0.997987

rnn.bias_ih_l0 f4 [400]
000000 9c 63 3c 3e 27 97 4d 3c 85 6d 45 3d 65 3d 6e 3e
       0.18397373 0.012548245 0.04820015 0.23265608
000010 be 0d 0b 3e fe 95 a8 3d 51 f1 a5 3d f1 6d fc 3e
       0.13579461 0.08231734 0.08102668 0.4930263
000020 59 e4 be 3e 44 68 6e bc 19 c5 35 3e f7 ac 34 3e
       0.3728359 -0.014551226 0.17750968 0.17644106
000030 f6 b4 1f 3e 2e 01 0a 3e 90 ad 22 be c1 6f be 3d
       0.15596375 0.13477013 -0.15886521 0.09298659
000040 b9 fe 27 be 95 1c 37 3e 8c 46 20 3d 5d a6 50 3e
       -0.16405763 0.17881997 0.03912978 0.20375963
000050 61 a5 93 3c b2 28 90 3e 81 03 d0 3d 4e a4 4c bd
       0.018023195 0.28156048 0.10156918 -0.04996138
000060 e0 ab 47 3e 3e 4f a2 3e c9 83 2b 3e db 58 83 3d
       0.19499159 0.31701082 0.16749491 0.06413432
000070 09 47 7f be c4 16 1b be d8 75 6a 3e 9b ff 8d be
       -0.24929442 -0.15145403 0.22896516 -0.27734074
000080 36 ee d4 bd 09 bb b3 3e c8 5f e4 bd 66 75 5b b9
       -0.10396998 0.35103634 -0.11151081 -0.00020929202
000090 98 cf 10 3e 71 4a 43 bd 37 49 37 3e 30 21 c3 bd
       0.1414169 -0.047678415 0.17899023 -0.095278144
0000a0 bd a8 db be 9d 70 9f bc 40 fb 01 3d 7d 7d 58 3e
       -0.42902175 -0.019462878 0.03173375 0.2114162
0000b0 7e 65 07 3e d7 30 97 3d de 2a f5 3d b5 0b 3f 3e
       0.1322231 0.07382362 0.11971067 0.1865681
0000c0 b9 d3 8d be 72 82 02 3e 0a 9d 0e 3e 71 8b f5 3b
       -0.27700594 0.12745073 0.13927093 0.0074934294
0000d0 e7 ac 56 be 42 55 98 bb 5b 9a 4a 3d f6 d8 58 bc
       -0.20964395 -0.0046488354 0.04946361 -0.013235321
0000e0 33 64 1c 3d c3 ac b5 3e 94 32 8f 3e dc 5f 73 3e
       0.038181495 0.3548337 0.27968276 0.23767036
0000f0 02 96 ae 3e 26 f4 0a 3e 3b 07 36 3e 17 f6 33 3e
       0.34098822 0.13569698 0.17776196 0.17574345
000100 2b 4b fc 3d 67 69 f3 3e 5c 55 ba 3e d9 dc 6c 3e
       0.12319025 0.47541353 0.3639325 0.23131122
000110 d7 71 b2 3d e1 31 a0 be 7d 88 c3 3e 9a b7 b6 3e
       0.087131195 -0.31288055 0.3819007 0.35686952
000120 d8 5b 6d 3d f6 86 c8 3d 2a 92 4a 3e b3 ea d1 3d
       0.057948917 0.09791367 0.1978232 0.102498434
000130 d4 80 ab bd f7 70 58 bd f5 3f 92 be f2 ea 06 be
       -0.083741814 -0.052842107 -0.2856442 -0.13175562
000140 49 c0 9b 3e e0 ea 1c be 3e a5 19 3e 0e d6 1b 3e
       0.3042014 -0.15323973 0.15004441 0.15218374
000150 94 3f 6d 3d 99 dd d2 bb c1 59 2b be 44 8a 85 3d
       0.05792196 -0.006435108 -0.16733457 0.06520513
000160 5b a1 56 3d 85 d1 ae 3e 6d 4f f5 3d 52 ec 00 3e
       0.052399974 0.34144226 0.1197804 0.12590149
000170 5f 99 8e 3d 16 11 a5 bd ea c1 f3 3d 9d 14 f3 3d
       0.06962847 -0.080598995 0.119022205 0.11869166
000180 c8 fe 42 bd 84 4a c7 3d 19 85 8b bd a6 94 4b 3e
       -0.04760626 0.097310096 -0.06812496 0.19880924
000190 fd 0d 09 3e e2 ba 2f 3a 92 ec e8 3d 7a 4c 89 3c
       0.13384242 0.0006703568 0.11373247 0.0167601
0001a0 96 4e 44 3e cb 1f e7 3c ca 9d 82 3d 2c 4b 0c 3e
       0.19170603 0.028213402 0.06377752 0.13700551
0001b0 62 55 a9 3d 0f bd 18 3e 71 8d b4 3c 70 93 6d 3d
       0.082682386 0.1491587 0.0220401 0.058001935
0001c0 74 37 92 3d 1e bc 7e 3d dc 92 1c 3e 1b 7c 8d 3d
       0.07139483 0.06219112 0.15290397 0.06908437
0001d0 05 41 44 3d ed 95 3d 3d d7 43 27 3d bc d1 12 3e
       0.04791357 0.04628556 0.04083618 0.1433782
0001e0 3b 2f fb 3d 20 91 d7 3d 8c 81 1b 3a 6d 72 20 3e
       0.12264868 0.10525727 0.0005932085 0.1566865
0001f0 f1 dd 85 3d 43 eb fd 3d 77 67 e8 3d 73 e9 70 bd
       0.065364726 0.12398388 0.11347859 -0.058816385
000200 aa dd 1a 3d 10 83 96 3d 8b 64 c2 3d 13 83 3e 3d
       0.03780905 0.07349217 0.09491833 0.04651172
000210 04 b7 94 3d 03 db e9 3d 05 8c 49 3d 73 1c 9d 3d
       0.0726147 0.11418726 0.0492058 0.07671442
000220 78 32 a2 3c 9b 68 e2 3c 1b 70 00 bc 6c 0f a0 3d
       0.019799456 0.02763777 -0.007839228 0.078154415
000230 cc cc f7 3c 9e ef 5a 3d 12 2c b2 3d 76 4c 93 3d
       0.030249022 0.053451173 0.08699812 0.07192318
000240 b7 b3 95 3b a9 58 d2 3d c9 8b 1d bd b3 58 5c 3d
       0.004568543 0.10270817 -0.038463388 0.053795528
000250 95 42 1e bc de ff ad ba 6d a9 cc 3d 73 da c0 3d
       -0.009659429 -0.0013275107 0.09993253 0.09416666
000260 0e 45 bb 3c a1 78 93 3d 45 d1 0c 3e e7 84 f5 3c
       0.022860076 0.072007425 0.13751705 0.0299706
000270 71 51 06 3e d5 85 b3 3d c8 c1 2a ba 9d a9 bd 3a
       0.13117005 0.08765761 -0.0006513861 0.0014470104
000280 ed 17 db 3c 42 8e d6 bc 08 ad df 3d d7 39 ea bc
       0.026744807 -0.02619088 0.10921675 -0.028592033
000290 81 86 a9 3d 4e 80 cd 3b c6 7c f1 3d 00 9b f4 3d
       0.08277608 0.0062713986 0.11791377 0.119436264
0002a0 ed f9 12 3e 68 f2 72 3c ed f3 01 3d c3 37 e5 3b
       0.14353152 0.014828302 0.031726766 0.0069951727
0002b0 cf 35 e6 3d e9 f3 1a 3b fd ab 17 3b 50 f0 c8 3d
       0.11240732 0.0023643917 0.0023143284 0.09811461
0002c0 64 49 57 3d a7 83 66 bd 32 78 20 3d b9 e2 58 3b
       0.052560225 -0.056277897 0.039177127 0.0033094122
0002d0 22 58 77 3e f2 1c 9f 3d 3f c7 bc 3c 33 a6 a4 3d
       0.24154714 0.07769193 0.023044227 0.080395125
0002e0 0c e7 5a bb 0e 6e 95 3d f6 87 ca 3c ae f5 0f 3e
       -0.0033401875 0.07296382 0.024723034 0.14058563
0002f0 b1 9d a5 bd 52 4e 9d bb af 12 05 3d 4a a3 a0 3d
       -0.08086718 -0.0048005963 0.03248852 0.07843645
000300 fb 8e 6b 3d f1 63 76 3d 33 ea d8 3d 8f 4c 1e 3d
       0.057509404 0.060153905 0.10591545 0.03864723
000310 d9 21 1d 3d dc 1c 09 3d d1 fa 60 3d 56 74 b5 3c
       0.038362358 0.033474788 0.054926697 0.0221502
000320 b5 6d 45 bd 63 cf c1 bd 23 66 0a be cf db 64 be
       -0.048200328 -0.09463384 -0.13515525 -0.22349475
000330 4a bd 1c 3d 52 9a 3b 3e be 66 c8 bd f4 fb 2c 3d
       0.038266458 0.18320587 -0.097852215 0.04223247
000340 e6 92 5e bd a9 a5 4b 3e e0 dd d6 bd 2c 04 c9 3d
       -0.054339312 0.19887413 -0.10491538 0.09815249
000350 e9 9a cc bd a9 67 c7 3d d6 82 48 3d c3 f8 1e be
       -0.09990484 0.097365685 0.0489529 -0.15524583
000360 ef 94 33 3d e6 c1 9e bd fd 3c b4 3c 33 18 f0 3c
       0.043843206 -0.07751827 0.022001738 0.029308414
000370 27 b7 00 bb b2 67 2c bd 39 06 ad bd ce 3d 15 be
       -0.0019640417 -0.04209108 -0.084484525 -0.14574358
000380 14 c5 d3 bd df 3e 7c 3d 83 23 26 be b0 40 1f 3d
       -0.10340324 0.061583396 -0.16224484 0.03888005
000390 34 84 36 3e 41 5d 27 3e df 71 ac bc e1 f4 b9 3d
       0.17823869 0.16344167 -0.021050392 0.0907991
0003a0 73 f8 b0 3b f8 4e 9d bd b5 28 71 3d 44 54 c8 3d
       0.005400711 -0.07681078 0.058876712 0.097816974
0003b0 0d 52 1d be ff 07 08 be 90 7e ba bd 77 8b 62 be
       -0.15363331 -0.132843 -0.09106171 -0.22123514
0003c0 54 00 a2 3d 7e 8f 03 3e c3 8d f2 bd 5a 0a fe 3d
       0.07910219 0.12847707 -0.11843445 0.12404318
0003d0 d7 1e 07 be 16 ab 8b 3d 44 ba a7 bc f8 32 13 bd
       -0.13195358 0.068197414 -0.02047456 -0.03593728
0003e0 0e da b5 3d 29 c7 19 be d9 28 8f 3d 2e 4b 0d 3e
       0.08879481 -0.1501738 0.06990213 0.1379821
0003f0 6c 8f 46 be b7 7a 80 bd bd 72 42 be 90 5f cf 3c
       -0.19390649 -0.06273406 -0.18989082 0.025314122

rnn.bias_hh_l0 f4 [400]
000000 d4 c1 97 3e a1 0a 1e 3e 60 34 1d 3c 28 a7 12 3e
       0.29640067 0.15433742 0.009595007 0.14321578
000010 20 ec 86 3e a8 bc be 3d d3 58 36 3c f2 1c db 3e
       0.26352024 0.09313327 0.011129576 0.4279552
000020 9e bc bf 3e a8 ff 6b bd d9 f3 d7 3d 27 23 9d 3d
       0.3744859 -0.05761686 0.10544557 0.076727204
000030 fa 57 48 3e 95 5c 1c 3e bf 93 d8 bd 78 fb ea 3d
       0.1956481 0.15269692 -0.10575055 0.11473745
000040 1a a3 1b be 55 e2 83 3e b5 1b 1e 3d 90 ad 82 3e
       -0.15198937 0.25758615 0.038600642 0.25523043
000050 a8 e7 7e 3d 5d 31 65 3e f0 da 09 3e 37 a9 04 be
       0.062232643 0.22382112 0.13462424 -0.12955175
000060 7f 30 ce 3d fb 47 c2 3e 08 33 e7 3d 52 ab 99 3d
       0.10067844 0.37945542 0.1128903 0.0750338
000070 f8 40 7d be e5 9a 1c be b1 a6 0e 3e b0 2e 40 be
       -0.24731815 -0.15293463 0.13930775 -0.1876781
000080 95 f6 e8 bd 2c f8 d3 3e 78 ec 2a be e4 e8 b9 3d
       -0.11375157 0.41400278 -0.16691768 0.090776235
000090 ca c5 49 3e 95 a9 d6 bc 09 2d aa 3e 23 4b e0 bd
       0.19704357 -0.02620391 0.33237484 -0.10951831
0000a0 c5 b4 af be ad e3 cf bb 81 2c 9b bb 2f 3d a6 3d
       -0.34317604 -0.0063442797 -0.00473553 0.081171386
0000b0 ae 70 12 3e 26 e4 8e 3c 3c 59 03 3e 17 1b 42 3e
       0.14300796 0.017442774 0.12827009 0.18955646
0000c0 4b f5 29 be ca fc 82 3c 90 93 4e 3e 33 06 be 3c
       -0.16597478 0.01598968 0.20173478 0.023196315
0000d0 a9 3d 28 be de ca 7c 3d 6c ba ba 3d a9 0d 35 bc
       -0.16429771 0.061716907 0.091175884 -0.01105062
0000e0 b7 19 03 3e d0 21 bb 3e 3e f6 c5 3e 86 da 87 3e
       0.12802778 0.36549234 0.3866443 0.26533908
0000f0 3e d2 c1 3e 00 26 6b 3e 12 57 b3 3d b0 a2 8d 3e
       0.37855715 0.22963715 0.08756842 0.27663183
000100 90 7b 0c 3e cb 1a ef 3e e3 42 d6 3e 40 d2 a1 3e
       0.1371901 0.4670013 0.41847906 0.3160572
000110 65 9e d2 3c 16 62 8e be 49 49 dc 3e 20 09 b2 3e
       0.025710294 -0.2780921 0.43024662 0.34772587
000120 9b 3a e2 3c 49 cb 4c 3e 1a 29 52 3e 4a 06 93 3d
       0.027615836 0.19999422 0.20523492 0.07178934
000130 9f 1d fb bd 55 0c 83 3d e7 4d a7 be 5b 5b 26 be
       -0.12261509 0.063988365 -0.32676622 -0.16245787
000140 47 69 84 3e 34 b5 bd bc b9 00 15 3e d7 77 11 3e
       0.2586157 -0.023157693 0.14551057 0.14205872
000150 ee 5d c7 3d ec 90 4c bc 82 ed 37 be b6 a1 8f 3c
       0.097347125 -0.012485724 -0.17961696 0.017533164
000160 a3 89 40 3d e1 6a 9f 3e dc bc e5 3d c1 e4 b5 3d
       0.04700626 0.3113623 0.11217663 0.08881522
000170 cc 0f 8a 3d e0 0a 92 bd b1 b1 72 3e 6e 87 c1 3c
       0.06741294 -0.071309805 0.23700596 0.023624148
000180 58 c6 75 bd 8a da 12 3e 62 dc ed bd 65 ab 2c 3e
       -0.06000361 0.14341179 -0.116143 0.16862257
000190 dc fe 0c 3c 21 1d b8 3d 8c 8a 7d 3d 5d a3 98 3d
       0.008605685 0.08989931 0.061899707 0.07453034
0001a0 c0 f3 91 3d d2 3a 08 3e 31 21 12 3e 75 ee 12 3e
       0.0712657 0.13303688 0.14270474 0.14348777
0001b0 3a 68 39 3d 21 5a 1e 3d 3a a7 d8 3d 34 8f 03 3e
       0.045265414 0.038660172 0.10578771 0.12847596
0001c0 41 8d ad 3c 27 d6 ee 3c 19 07 24 3e 7d 60 cd 3d
       0.02118552 0.02915485 0.16018333 0.10028169
0001d0 7c a3 a0 3d ce f3 99 3d 8c 46 db 3c 08 f5 5d 3c
       0.07843682 0.07517205 0.026767038 0.0135471895
0001e0 bc 31 81 3d 61 15 7b 3d e9 6c dd 3d cb ba 3f 3e
       0.06308314 0.061299685 0.108117886 0.187236
0001f0 71 6e 17 3d 30 9f 55 3d 07 eb 95 3d 2d c8 9d bd
       0.03697056 0.052153766 0.073202185 -0.07704196
000200 65 56 67 3d 03 e2 14 3e cf cb eb bb ef 92 28 bd
       0.056478877 0.14539342 -0.0071959267 -0.04115575
000210 ad 92 a1 3d c7 b9 9d 3c f9 43 d9 3d 86 13 b9 bd
       0.07889304 0.019253625 0.10608668 -0.09036927
000220 d1 f2 81 bd 3d 7e c4 3d 1a 59 4e 3d 99 0b 01 3e
       -0.06345142 0.095943905 0.050377943 0.1260208
000230 8f bc fd 3c 3c 48 18 3e d6 f0 ac 3d e6 88 c2 bc
       0.0309737 0.14871305 0.08444373 -0.023746919
000240 3d b6 92 3d 14 5c f9 3d 04 d4 b3 3d fd 11 35 3c
       0.071636654 0.12175766 0.08780673 0.011051652
000250 8f 2d e9 bc dc 12 ae 3d 65 4a 03 3e 31 ea 1b 3d
       -0.028464107 0.08499691 0.12821348 0.03806514
000260 63 22 93 3d 66 fd 07 3e 7e b1 0e 3e c8 e1 56 3d
       0.07184293 0.13280258 0.13934895 0.052461416
000270 14 10 d9 3d dd 89 e2 3d 6b 65 e4 bc bb 5d 06 3d
       0.1059877 0.110614516 -0.027880391 0.032804232
000280 ec 57 02 3e 78 05 10 bd 2d 72 b5 3d 38 6f cc 3d
       0.12728852 -0.035161465 0.08859668 0.09982151
000290 a8 4d be 3d 54 ed 9f 3d c5 e2 6d 3d 6c 66 78 3d
       0.092921555 0.078089386 0.058077592 0.060644552
0002a0 87 3d 73 3c 23 10 96 3d 83 a6 17 3e 6a 45 8a ba
       0.014846212 0.073272966 0.14809613 -0.0010549251
0002b0 ac ed 1e 3e de e4 04 bd fc bb fa 3c 20 c6 39 3d
       0.15520352 -0.032444827 0.030607216 0.045354962
0002c0 0b 9f 64 3c 92 0e a5 3d 97 2b 20 3e 94 80 31 3d
       0.013953934 0.0805942 0.15641628 0.043335512
0002d0 d0 35 87 3e e4 8a b5 bb 41 a3 1e 3e bf fa 13 3e
       0.26408243 -0.0055402387 0.15491964 0.14451121
0002e0 16 a2 fb bc 1b 9f 91 3d 6a 36 33 3d 6f 90 10 3e
       -0.030716937 0.07110425 0.043753065 0.14117597
0002f0 37 c6 aa bc 66 47 63 bd 64 c8 d1 3d d2 ea 8f 3d
       -0.02084647 -0.055488013 0.102432996 0.0702721
000300 91 21 b8 3c 5c f4 bb 3d 7b 05 0d 3e 0c 51 66 bd
       0.022476943 0.09177467 0.13771622 -0.056229636
000310 f7 6f 49 3b 2e bb 0f 3e 20 28 b1 3d 41 dc 0f 3e
       0.0030736902 0.14036247 0.08650231 0.14048864
000320 cf 6f e3 3d 79 78 b9 bd 0d a8 ad bd fe 84 ef bd
       0.1110531 -0.090561815 -0.08479319 -0.11695288
000330 ac 03 83 3d 7c 02 3b 3e 6a a4 32 be 4e 1c b1 3d
       0.06397185 0.18262666 -0.17445531 0.08647977
000340 a5 d3 01 3e fa 05 b5 3c 20 36 33 be 38 2c 04 3d
       0.12678392 0.022097576 -0.17501116 0.032268733
000350 b9 0e d7 bd 94 bf e7 3d 1b 9b 6f 3d 16 32 9c bd
       -0.10500855 0.113158375 0.05849753 -0.07626741
000360 56 eb 3a bd cc e2 99 bd ba 63 27 3e 26 f8 b7 bc
       -0.04563459 -0.07513961 0.16346636 -0.022457194
000370 8e 7d 6d bd 92 30 08 be c7 46 83 3b 83 67 44 be
       -0.057981066 -0.13299778 0.00400624 -0.19180112
000380 f2 6a 8d bd 10 86 1f 3e 18 b9 d9 bd 36 07 a3 3d
       -0.06905164 0.15578485 -0.10631007 0.0796036
000390 dd 3c 49 3e 7e 58 3f 3e 24 c9 f8 3c 73 4e 30 3c
       0.19652124 0.18686101 0.030369349 0.010760891
0003a0 ad 1e d0 3b 80 ad 3a 3c aa 20 33 3e 39 ce c5 3d
       0.006351313 0.011393905 0.17492929 0.096584745
0003b0 c2 0a aa bc ad 1e c8 bd a2 6b 37 bd a3 4f 12 be
       -0.020757083 -0.09771476 -0.04478038 -0.14288191
0003c0 a6 ec 97 3d 41 3f 20 3e 1f 4e 52 be 97 40 fb 3d
       0.07418184 0.1564913 -0.20537613 0.12268179
0003d0 5b 6b 0e be 73 b5 03 3e 22 7c 0a bc 44 e9 0d bd
       -0.1390814 0.12862186 -0.008452447 -0.034646288
0003e0 53 3a fd bc fa 19 ec bb ba f0 b6 bd 12 2b 1e 3e
       -0.0309116 -0.007205245 -0.08932634 0.15446118
0003f0 94 db 5d be bb b8 64 3d 7e 27 5c be 00 1d 63 bd
       -0.21665794 0.055840235 -0.2149944 -0.05544758
