cyberbach_models/tanh/results/model_checkpoint.pt (torch, 926755 bytes, 6 tensors)

output_weights.weight f4 [88, 400]
00000000: abbc 9e3d 2af9 adbc 4b49 e0bc 82ee 81bd
00000010: cc52 503d 817c 853d 3199 70bc 6e53 f03d
00000020: 9dd9 a83d f6b4 c7bc 49b2 123c 4ae6 973c
00000030: d08a eb3d a2a5 243d 0770 01be e4bf f5bc
00000040: 0223 8c3b b92b 163e 3551 a43c 64b5 0a3e
00000050: 402a 33be c89d fabc 0bc0 aebc 99a6 18be
00000060: 13fd 24bb 7f35 d13d c600 35bd 0107 f0bd
00000070: 9ac6 6fbc 02f8 303a b38d 643d a929 633d
00000080: d806 3a3e 2377 2fbd 185a 913c fce9 12be
00000090: ee34 213d 87a3 e23c cf72 dc3b ccb8 91bc
000000a0: c2dd 56bd 10c9 3cbd f74b e43c afac c43d
000000b0: feb5 f6bc 3efe dcbb 2c80 6a3d 16a2 e4bc
000000c0: 3d7a 13bc 154a 0abd d1f1 90bc faad b63d
000000d0: d2e2 a8bd c580 47bc 06d7 4fbd 6f13 34bc
000000e0: 625f 823c 4c35 653c b4c2 f43c 5cc7 293c
000000f0: c3ce c3bb 1c14 a43c dffa d5bd 01db 64bc
00000100: 3879 593d 0c37 133b dbbe 15bd e3c5 dcbb
00000110: 9596 0a3d dada c2bc 1400 0e3d 4b23 163d
00000120: f59a eabc bd88 f03c 4515 46bc bdb6 ac3c
00000130: 0b11 3e3c e825 f33c b8bc 06bd e5ea e1bc
00000140: 3753 5dbc 8f52 8fbc 6efb c6bb d362 a8bd
00000150: 1c8f a8bc 81e6 fbbc c59d 693b 008a fe3c
00000160: 95c2 e33c 7e4d 043c feae d03d 71a4 57bd
00000170: 746a 05bc 0440 9ebd fc0a a13d 56e2 f13c
00000180: 306d 403d a010 b73d 4b91 51bd 35dc b5bb
00000190: 8cdb d93d cc94 5cbd d029 a0bc 285e ef3c
000001a0: a220 243d d9a9 673d 1897 f93b d2bd 8f3c
000001b0: d118 f3bd 0b22 933c d64b 19bd 7758 bdbb
000001c0: 8c7a 073d 3d3d c1bc f02a 04bd 6ba8 e03d
000001d0: 73a7 dc3d 000d a93a 2da4 213e 0a61 bcbc
000001e0: 7b66 9cbc cacf c23c 2b99 a1bc c394 c33d
000001f0: 1e7d 823c ee0e 46bb 2bee 1c3d f675 b2bd
00000200: 6354 fdbd 0c2b 1ebe a185 02be 7e0c d3bc
00000210: dd2f 82bb 3ba0 96ba 8674 07bd 2c06 3abc
00000220: 2127 f1bc 45e5 fb3b d915 493d 2641 82bd
00000230: 283b 27bd 203c 08bc 28cd 043e 0506 133d
00000240: 8bcc e43c 8e60 87bc 152d d93c 8c95 5f3d
00000250: 7175 0dbd 894b f83d 9247 1c3e d2ab ea3c
00000260: c6d4 c7bd f3e8 0bbd 869f 093d 0fa5 dc3b
00000270: 4754 3ebd 0cbe 083d afd4 83bc 5674 7abc
00000280: 2bcb 5abd 4b26 b0bd 3259 0abe d390 5abc
00000290: 98e0 223d 4691 46bd 9bbf 1b3d 207d e5bd
000002a0: 1ce4 e3bc ba58 ddbd 711d cfbb ea77 21bd
000002b0: ec10 643d 5533 c13d f1b4 0ebb 5732 b33c
000002c0: 41e6 8b3d 13f3 4abe a50a 8dba 6800 093d
000002d0: a088 b9bc 23cb 7dbc 49a7 c1bc 7133 b7bb
000002e0: ed29 573c d7ff 913c e17e 64be 48ca 15be
000002f0: f349 4dbd c2e7 eb3d bd83 c53c eead e8bd
00000300: 8830 12bd a028 78bd 8819 92bd 4725 823d
00000310: b8ae c1bc c5bd d9bd 3c2b 33bd b40f 853c
00000320: 5144 973d fa47 f03c 2a21 af3d 1c35 26bd
00000330: be8d eabd 9883 f13c 3ff5 b8bd 2205 3a3d
00000340: 1e88 1bbc 83dc d1bd 77de f6bc 0910 46bd
00000350: 5f17 bebd abae 4abb 366a f7bc 97eb 033d
00000360: 2cd5 febb 9cf9 b1bc b0c3 9f3c 6043 ff3c
00000370: c513 9abc c284 103c ac9a a9bd 0702 a73c
00000380: 1056 873c b8f3 7ebc 5cb6 14b9 e231 1a3d
00000390: 6e3f 1ebd 500f c7bd 7777 d83b f9f8 fe3d
000003a0: 264a 3c3d 0bec 033d bd76 08bd 09a2 743c
000003b0: 0c77 fabd 1bb5 053c d221 27bd bd69 08be
000003c0: e281 013c 6967 89bd 5230 e8bc b2c3 2b3d
000003d0: 2d97 fb3c 5103 49bd e417 abbc 5fd9 cabc
000003e0: bc1b b2bc 3ffa 863d 122e b63d a88c 6cbc
000003f0: d291 7c3d 1fcb 3e3d 9901 cabc 868c dbbc
0.07750829 -0.021236975 -0.027378699 -0.0634432 0.05086021 0.06517888 -0.014684961 0.11734663
0.082446314 -0.024378281 0.008953639 0.018542428 0.11501086 0.040197022 -0.12640391 -0.029998727
0.004276634 0.14665116 0.020058254 0.13545758 -0.17496586 -0.030592814 -0.021331808 -0.14907302
-0.0025175258 0.10215282 -0.04419019 -0.11720086 -0.014634753 0.0006750823 0.055799197 0.055459652
0.18166673 -0.042838227 0.017743155 -0.1434707 0.03935712 0.027665867 0.0067275534 -0.017788313
-0.05245758 -0.046090186 0.027868254 0.09603249 -0.030116078 -0.006744175 0.05725114 -0.02790932
-0.009001312 -0.033762056 -0.017693432 0.08919902 -0.082463875 -0.012176697 -0.05074217 -0.010990961
0.015914623 0.013989758 0.029877998 0.010362472 -0.0059755757 0.02002912 -0.104482405 -0.01396823
0.05309412 0.002246323 -0.036558967 -0.006737457 0.033835012 -0.023785997 0.034668043 0.03665475
-0.028638342 0.029362077 -0.012090032 0.02108323 0.011600743 0.029681161 -0.03289482 -0.027577827
-0.0135086095 -0.017495422 -0.006072453 -0.08221974 -0.020576052 -0.030749561 0.0035647016 0.031071663
0.027802745 0.008075116 0.10189627 -0.052647058 -0.008143056 -0.07727054 0.07863423 0.02952687
0.04697913 0.08938718 -0.051163953 -0.0055499324 0.10637578 -0.05385284 -0.019551188 0.029219702
0.040070184 0.056558464 0.0076168887 0.017546568 -0.11869968 0.017960569 -0.03742584 -0.005778368
0.033075854 -0.023588771 -0.03226751 0.10969623 0.10774126 0.0012897551 0.15785284 -0.02299549
-0.019091835 0.023780722 -0.019726356 0.095498584 0.015928801 -0.00302213 0.038313072 -0.087139055
-0.12369611 -0.15446109 -0.12746288 -0.025762793 -0.003972991 -0.0011491844 -0.03307011 -0.011354011
-0.029437603 0.007687243 0.0490931 -0.06360082 -0.0408279 -0.008315116 0.12968886 0.035894413
0.027929565 -0.016525533 0.026510755 0.05458598 -0.03453583 0.12123782 0.15261677 0.028646383
-0.0975738 -0.034157705 0.0335994 0.0067335437 -0.046467092 0.033384368 -0.016092626 -0.015286526
-0.053416412 -0.08601054 -0.13510588 -0.013340193 0.03976497 -0.048478387 0.038024526 -0.11205506
-0.027818732 -0.10807939 -0.0063206484 -0.039421 0.0556802 0.09433619 -0.002177533 0.02187459
0.06831027 -0.19819288 -0.0010760619 0.033447653 -0.022648156 -0.015490326 -0.023639338 -0.005590849
0.0131325545 0.01782219 -0.22314025 -0.14627945 -0.05011935 0.11518814 0.02411067 -0.113612995
-0.035690814 -0.060585618 -0.07133776 0.06354766 -0.023642883 -0.10631899 -0.043742403 0.01624284
0.07386077 0.029331196 0.085512474 -0.040577993 -0.114528164 0.029481694 -0.09031152 0.04541505
-0.009492902 -0.102471374 -0.030135376 -0.048355136 -0.092818014 -0.0030926864 -0.030202013 0.032207098
-0.007776877 -0.021725468 0.01950249 0.031160057 -0.018808255 0.008820714 -0.082814544 0.020386709
0.01652053 -0.015561037 -0.00014182314 0.03764523 -0.03863471 -0.097197175 0.006606038 0.124498315
0.04596915 0.03220753 -0.033316363 0.01493121 -0.12229738 0.008160855 -0.040803738 -0.13321586
0.007904502 -0.06709177 -0.028343353 0.041934676 0.030711735 -0.04907543 -0.020885415 -0.024761854
-0.02174174 0.065906994 0.08895506 -0.014437832 0.061662503 0.04658043 -0.024658965 -0.026800405

output_weights.bias f4 [88]
00000000: 4602 a1bb 4602 a1bb 4602 a1bb 4402 a1bb
00000010: 4502 a1bb 4402 a1bb 4602 a1bb 4502 a1bb
00000020: 4502 a1bb 4602 a1bb 4402 a1bb 4502 a1bb
00000030: 4402 a1bb 4602 a1bb 4602 a1bb 4602 a1bb
00000040: 4402 a1bb 4502 a1bb 4402 a1bb 4602 a1bb
00000050: 4402 a1bb 4502 a1bb f9c2 fcbb 4602 a1bb
00000060: 4502 a1bb c876 00bc 4502 a1bb 4539 1cbe
00000070: 3bcf 22bc 5d54 c4bd b509 0cbe 3793 94bd
00000080: 9aac 25be dd18 93bd 2cc2 40bd acda 61bd
00000090: c601 73bd 1b77 43bd 66b5 05be 10d9 4aba
000000a0: 5fcd 1bbe 4c3f 8fbb 2972 013d fecb 91bc
000000b0: 1aef 3d3d fc97 d0bd 5e99 013e 6034 bf3d
000000c0: 743c 423d fd51 713b c998 a43a 5585 f13d
000000d0: 298f d93b 93ba 923d 992a 433d f5f4 c03c
000000e0: 2457 5c3d 569c 1fbe 9f22 073e 2820 67bd
000000f0: 397d 05bc 10c9 543d 2186 3f3c e55e ca3d
00000100: 192b 77bd b567 873c c031 d0bd 9c21 15be
00000110: 1802 bbbd 27b0 88bd f4f4 fabc 83fa 97bd
00000120: 7a7d 18be 0e4a 9fbd efdc 9bbc bbae 05bd
00000130: 4602 a1bb 4502 a1bb 4602 a1bb 4602 a1bb
00000140: 4402 a1bb 4502 a1bb 4602 a1bb 4402 a1bb
00000150: 4602 a1bb 4602 a1bb 4602 a1bb 4602 a1bb
-0.004913601 -0.004913601 -0.004913601 -0.0049136 -0.0049136006 -0.0049136 -0.004913601 -0.0049136006
-0.0049136006 -0.004913601 -0.0049136 -0.0049136006 -0.0049136 -0.004913601 -0.004913601 -0.004913601
-0.0049136 -0.0049136006 -0.0049136 -0.004913601 -0.0049136 -0.0049136006 -0.0077136722 -0.004913601
-0.0049136006 -0.00784082 -0.0049136006 -0.15256222 -0.009937103 -0.095864035 -0.13675578 -0.072546415
-0.16179124 -0.07182477 -0.047060177 -0.055140182 -0.059327863 -0.04772101 -0.1305748 -0.00077380333
-0.15215062 -0.0043715592 0.031603012 -0.017797466 0.046370603 -0.10185239 0.12656161 0.093361616
0.047420934 0.003682255 0.001255774 0.11793009 0.0066393805 0.071644925 0.047648046 0.023554305
0.05379404 -0.15586981 0.131968 -0.05642715 -0.008147531 0.05194956 0.011689694 0.09881381
-0.060343836 0.016528944 -0.10165739 -0.14563602 -0.09131259 -0.066742234 -0.03063438 -0.07420828
-0.14891616 -0.07777797 -0.019026248 -0.03263734 -0.004913601 -0.0049136006 -0.004913601 -0.004913601
-0.0049136 -0.0049136006 -0.004913601 -0.0049136 -0.004913601 -0.004913601 -0.004913601 -0.004913601

rnn.weight_ih_l0 f4 [400, 88]
00000000: ceb9 0080 8d42 0000 f951 0180 72fd 0080
00000010: 5e4f 0180 876b 0100 c744 0180 f0e5 0080
00000020: f23b 0080 6a8e 0100 9719 0100 ba7a 0080
00000030: 5611 0100 3bd1 0100 de47 0100 fc16 0000
00000040: 8ff5 0000 3625 0100 8b0f 0100 beca 0080
00000050: 31d7 0080 6d42 0180 2907 b73c e63c 0180
00000060: f3cd 0000 eb15 443f a0cf 0000 f0ae 193e
00000070: 10a9 fc3e 412e 7c3d 2b53 f93e ff78 1b3f
00000080: 3a35 8fbe 4078 fabe 583f 8bbe 5c7f c13d
00000090: 4742 f1bd 4514 ed3e 6564 b63e cb41 2a3e
000000a0: 0ca9 7e3f b829 623e 4ff9 d4be afe0 273e
000000b0: 4b8f bbbd 4f3f 99be 2110 0dbf 7cc9 5bbe
000000c0: 43e4 b13c cee4 193e 35dc 673d 825e a6bd
000000d0: 7bf8 f43d 1b5c 85be ee18 5bbd 3336 873e
000000e0: e2a8 6dbe 430e 03bf b9be 4ebe 1d90 a53d
000000f0: 28b5 dabe 7327 2ebd f3fc 6cbe 990e 09bf
00000100: a4f2 7a3d c752 5bbe 6399 6ebd f198 1f3e
00000110: 6d33 98bd 0d39 0c3f b148 873e d2d0 673f
00000120: 2703 1e3f cab6 7a3f 4adc 463f a143 3cbe
00000130: a38e 0180 de0c 0000 9924 0000 8bc0 0000
00000140: 7601 0180 c656 0000 43a8 0100 20ea 0000
00000150: 4959 0180 189d 0180 4f60 0080 2bc2 0080
00000160: c17d 0180 1a9d 0000 a947 0100 6290 0000
00000170: 6001 0100 b796 0080 dc03 0100 5075 0080
00000180: 88eb 0080 bd04 0000 c0cc 0000 0368 0180
00000190: bcf0 0080 1b82 0180 a559 0100 925a 0180
000001a0: b2b6 0000 2b72 0100 aa0a 0000 8b76 0180
000001b0: 9239 0080 0926 0180 c501 b1bb 36b5 0080
000001c0: 8927 0180 6e0c 093c b146 0100 fa76 073e
000001d0: eb3f babd f532 fe3b 1ae3 143f 3004 b4be
000001e0: b325 04bf b0eb cebe 4bef e13e 4498 f23d
000001f0: 68cd 2b3f d584 933e b0e1 a0be 982b b73e
00000200: d056 54bf 86c6 c73e 844a 613f 1417 23be
00000210: 8649 94be aa37 a83d cba8 5bbd 3447 2cbe
00000220: 0f00 e0be 128c 8abe 1c0e 75bc 30e7 4ebe
00000230: d126 24bf 96c9 563e 0ec2 d73e d878 6fbc
00000240: e190 4a3e 4f48 773e 9959 d93d 5279 d2bd
00000250: a5b7 953e 5616 19bd 7287 c7bd a8b2 023f
00000260: f3ba c8be 4697 bfbe 7adf 473f a3ec fabe
00000270: c676 09be a96f 693f 7bd0 4a3d 9daf 063f
00000280: 3361 083f a0b8 56bf a4a6 5d3d ebe0 e6bd
00000290: 0b90 0080 58b6 0100 bc1d 0100 a640 0180
000002a0: 72a8 0180 c5a0 0080 73f9 0000 15a7 0000
000002b0: 852b 0180 6ca5 0180 bc04 0000 81f4 0100
000002c0: e60c 0180 0cbf 0100 bb33 0100 7f53 0080
000002d0: 70e1 0080 353b 0100 ec4a 0100 5e79 0180
000002e0: cb5d 0100 4c43 0100 9a8c 0080 c492 0180
000002f0: 00a3 0080 dd75 0180 cef7 0000 933e 0180
00000300: ffc5 0100 e67f 0180 f15a 0100 1fd0 0080
00000310: 1f26 0180 2c66 0100 d98a e13d f2c7 0100
00000320: 1fa0 0180 8daa 773f d370 0180 a6d2 37be
00000330: 1920 bfbe 5f88 f1be 095a 92be ad7d c9be
00000340: 1ad4 c6bd 4dd1 153f 0599 37bd eb24 55bf
00000350: 9d68 24bc 8100 d3be 72cc afbd 55ca 083e
00000360: f38c 12be bd93 ad3e 810c 163f ded2 c83d
00000370: 8f81 263e 70f6 033f cb95 5d3e c5b6 9abe
00000380: 5f9f a33e cae9 c43e 2715 41be a1fd c73d
00000390: 9315 f1be 9c6a 3a3e 2345 973d a4e1 68be
000003a0: 7cb0 353d afd8 fdbd 10c4 94be 43de 5cbe
000003b0: 7d5f 3b3f c4d4 213e bddd 7abe 74ba 16be
000003c0: cb3d 9fbe 6504 b9be 5455 033e 13e3 32bd
000003d0: 8de1 d33d 5948 9b3d 3d23 8d3d f6b9 80bd
000003e0: 46d7 583f b6af 223e ae9b 07bf 6f0f 603d
000003f0: 9a02 0080 01ae 0000 d442 0100 818c 0180
-6.6654e-41 2.3874e-41 -1.21242e-40 -9.0919e-41 -1.20307e-40 1.30409e-40 -1.16508e-40 -8.2486e-41
-2.1504e-41 1.42924e-40 1.01015e-40 -4.4026e-41 9.8054e-41 1.66893e-40 1.17617e-40 8.245e-42
8.809e-41 1.05184e-40 9.7411e-41 -7.273e-41 -7.7196e-41 -1.15665e-40 0.022342281 -1.13682e-40
7.388e-41 0.76595944 7.4482e-41 0.1500814 0.49347734 0.06156755 0.48696265 0.607315
-0.27970296 -0.48919868 -0.27196765 0.0944812 -0.117802195 0.46304527 0.3562347 0.1662666
0.99476695 0.22086227 -0.41596457 0.16394304 -0.0915819 -0.29931113 -0.55102736 -0.21463579
0.021715289 0.15028688 0.05660649 -0.08123495 0.119614564 -0.26046833 -0.05349057 0.26408538
-0.23208955 -0.51193637 -0.20189942 0.08084128 -0.42716336 -0.04251809 -0.23143367 -0.535379
0.061266556 -0.21418296 -0.05825175 0.15585686 -0.07431684 0.5477455 0.26422647 0.9055301
0.6172356 0.97935164 0.77679884 -0.18385173 -1.43004e-40 4.616e-42 1.3129e-41 6.9071e-41
-9.236e-41 3.1128e-41 1.52196e-40 8.3988e-41 -1.23865e-40 -1.4819e-40 -3.4549e-41 -6.9654e-41
-1.36947e-40 5.6357e-41 1.17542e-40 5.1795e-41 9.2329e-41 -5.4066e-41 9.322e-41 -4.2084e-41
-8.4493e-41 1.7e-42 7.345e-41 -1.29148e-40 -8.6359e-41 -1.38509e-40 1.23994e-40 -1.24326e-40
6.5539e-41 1.32791e-40 3.826e-42 -1.34361e-40 -2.0652e-41 -1.0548e-40 -0.0054018223 -6.5006e-41
-1.06018e-40 0.00836478 1.17195e-40 0.1322898 -0.09094223 0.0077575394 0.5815903 -0.35159445
-0.51620024 -0.4041419 0.4412788 0.118454486 0.671103 0.2881228 -0.31422186 0.35775447
-0.82944965 0.3901865 0.88004327 -0.15926772 -0.28962344 0.08213742 -0.05362777 -0.16824037
-0.43750045 -0.2705999 -0.014956977 -0.20205379 -0.6412173 0.20975336 0.4214024 -0.014616214
0.1978183 0.24148677 0.106127925 -0.10277046 0.29241672 -0.037374817 -0.09742631 0.5105386
-0.3920513 -0.374201 0.78075373 -0.49008664 -0.13424215 0.91186005 0.04951523 0.52611715
0.53273314 -0.83875465 0.054114 -0.112733684 -5.1673e-41 1.57248e-40 1.02502e-40 -1.15027e-40
-1.52262e-40 -5.7673e-41 8.9486e-41 5.9938e-41 -1.07447e-40 -1.51178e-40 1.698e-42 1.79547e-40
-9.6463e-41 1.6037e-40 1.10393e-40 -2.9953e-41 -8.0872e-41 1.13075e-40 1.18712e-40 -1.35374e-40
1.25482e-40 1.15977e-40 -5.0438e-41 -1.44485e-40 -5.8473e-41 -1.34117e-40 8.8896e-41 -1.14283e-40
1.62863e-40 -1.37717e-40 1.24459e-40 -7.466e-41 -1.05511e-40 1.28488e-40 0.11012811 1.63562e-40
-1.49276e-40 0.96744615 -1.32309e-40 -0.1795145 -0.37329176 -0.47174355 -0.28584316 -0.39353696
-0.09708424 0.5852249 -0.044823665 -0.8325946 -0.010034707 -0.41211322 -0.08583917 0.13358434
-0.1431158 0.33901778 0.5861283 0.09805845 0.1626036 0.5154791 0.21639173 -0.30217567
0.31957528 0.38459617 -0.18855725 0.09765173 -0.47086772 0.18204731 0.07386234 -0.22742325
0.04435776 -0.12394845 -0.29055834 -0.21569161 0.7319258 0.1580382 -0.24498649 -0.14719564
-0.31101832 -0.36136165 0.12825519 -0.043673586 0.10345755 0.075821586 0.06891487 -0.06285469
0.8470348 0.15887341 -0.52971923 0.05470222 -9.33e-43 6.2421e-41 1.15809e-40 -1.42239e-40

rnn.weight_hh_l0 f4 [400, 400]
00000000: f353 dd3d ba01 9dbd f2ac 573d 503b 2b3d
00000010: b134 f1bd 867e 3a3e 3a0e 663d f434 e2bb
00000020: c9bb 043d e753 773e d2e9 673d c2b9 463d
00000030: 2aad 1dbd 41f3 6c3e 004e 9cbd fa21 e4bc
00000040: e5eb 78bd d91f 00bd addf 2f3e 196e dfbd
00000050: ed28 59bc 640c ab3e fb32 3ebd b27a 5d3d
00000060: 0655 703d 500d 2ebe 0bd3 9d3d 7ba3 853d
00000070: a5ca 83be ca3a ffbd f335 803d 0b18 2cbd
00000080: 8826 1d3c 5442 823d 3b1b 9b3c d8d8 123d
00000090: 9bd1 023d 8351 e83d 6dc0 653d 4599 a3bb
000000a0: a80b 43be 73c8 78bd a863 673d 1420 be3c
000000b0: 0945 38be 44cb 013e d222 173e a11e 42be
000000c0: d6e3 99bd ccc7 f6bc 0b9b f7bd 1bd4 32bd
000000d0: 8f5d 8cbd e0f1 413c 5e04 803d 59a4 1dbe
000000e0: 6777 953c 94f7 163d ac52 033e b79b 4e3e
000000f0: 0105 a7bd 84c5 92bd 7294 3d3d e5f6 99bc
00000100: 1905 393d ac7d 963d 29de 33be a587 9fbd
00000110: 9b62 6abc 6ff8 4f3d 4707 5dbe 9a1a 753c
00000120: 0a0a 9cbd c0db 523d 2141 943d 4339 513d
00000130: eec8 ee3d 3b1a d43d 6afe c7bd 643e 11be
00000140: fb0d 8bbc 5dc3 0c3d 7cea 423d d148 9b3d
00000150: 05f7 d3bd 827f 76bd 16ae 363e cdb5 e4bd
00000160: fd03 953d a9be 0f3e fa62 a3bb 84c9 2f3d
00000170: 7fd3 3e3e 614f 903d cebe 82bd 873d f4bd
00000180: 4725 9e3c 26e2 fd3d 145f d83d 3387 7b3d
00000190: 8c2c a2bc ac72 ecbd 51d8 8ebc 778c dd3d
000001a0: 0b24 c8bd 6ebd 3abd 7d17 4dbd 6947 d53d
000001b0: 1c7e 983d 5c18 c53d f112 423d ef08 cabd
000001c0: edba 0bbd 28d6 2d3d 7211 51be f7b1 25bc
000001d0: 03f2 61bc cd20 8f3d 8d37 b13d e191 ddbc
000001e0: 9cd6 1dbe 7ac8 833c a01a 0c3e ca0a 6ebd
000001f0: 1575 73bd 4a65 1f3e 2f61 9a3d 6f76 b4bc
00000200: 5bf7 92bd b4a3 c1bd 7ab0 6ebd 382d 353e
00000210: 0f79 043e 196b c13d c1da 9bbd 179e 89bb
00000220: fdb2 82bd 75ef 2d3d 5e65 623d 2152 8b3c
00000230: dd15 79bd 7608 7f3d 8b36 863d 7ba4 5e3e
00000240: 4725 24be 6723 d3bd 38ce 22bc deab eebd
00000250: e90c 55bd cc3d 8e3d 7667 813c d156 a93c
00000260: 7fc5 b23c 8567 02bd 4eb4 afbd db69 da3d
00000270: e934 5ebd 3ada 233e 0c8c 223d 6d7c a63d
00000280: 064c c6bd 6d5a 85bd 664b aa3d 4099 3ebd
00000290: ef39 33bc 3b4f 95bd 1f81 2d3d 1183 053e
000002a0: 40c5 0dbe 85a4 3e3d 8765 90bd b638 953d
000002b0: 8f58 3fbe 23d2 69bd 2d09 a83e 7aea 373e
000002c0: cb8c b0bb f71d 6cbc 461b eebc 9489 76be
000002d0: f23d 70bd 0ae7 113e 8e92 6d3e 5d07 54bd
000002e0: abfa 203e 5917 f83c 49ad c8bc 92d8 ffbd
000002f0: f1f2 cbbb 3cdf 9ebd 5c2c 4b3d b483 af3d
00000300: d573 1f3c 8bc3 983d deb3 fcbc 7c64 213d
00000310: c0aa 91bd f3c0 8ebc e0d0 93bd 84ad dc3d
00000320: a55c b73d b1fb b43c 3020 f7bc ba04 823d
00000330: e4f7 f6bd 00f5 62bc ce7e 0d3e be8a eabd
00000340: d4b9 14be 83d7 fc3c 5c9e 903d 3b33 60be
00000350: 1576 a3bd 9155 f33d c0c4 133e 011c d2bc
00000360: ecbf 573e 567a b3be 1ec9 c0bd 2543 b23a
00000370: 82e6 cfbc ef63 a63d df31 78be 9a36 4ab9
00000380: a79b b63d 33b7 a8bc 3b30 0c3e f6f7 f93d
00000390: 0e5c ff3d 202f 8d3d 7ce9 33b9 9fef d53d
000003a0: bdbb ddbd debb 7f3d c533 d23d d113 1d3a
000003b0: 1687 073c b845 3bbd 8c56 f8bc ee36 52bc
000003c0: 3849 9abd 5ada 6d3e c638 93bd 4296 a6bd
000003d0: cf12 e4bc 0195 5d3b 0b01 3fbe 5bf4 70bc
000003e0: e1b2 573c 58f1 40bc 48a3 b53d 5615 b6bd
000003f0: f918 bc3d a2d8 313d d8d7 bbbd 5604 56be
0.10807028 -0.07666345 0.052655168 0.04180461 -0.11777628 0.18212327 0.05616591 -0.006903285
0.03240565 0.241531 0.056619473 0.048516996 -0.03849522 0.23139669 -0.07632065 -0.027848233
-0.06077184 -0.031280372 0.1717517 -0.10909671 -0.013254386 0.3340789 -0.046435338 0.05407209
0.058674835 -0.16997266 0.07706269 0.06525322 -0.25740543 -0.12462385 0.0626029 -0.042015117
0.009591706 0.06360307 0.018933883 0.03585133 0.031938177 0.11343672 0.056091715 -0.0049926364
-0.19047415 -0.06073804 0.056491524 0.023208655 -0.17995085 0.12675196 0.14759377 -0.18956997
-0.075141594 -0.030124567 -0.12090119 -0.04365931 -0.068537824 0.011837453 0.06250833 -0.15394725
0.018245412 0.036857203 0.12824506 0.20176588 -0.08155251 -0.07166579 0.046284147 -0.018794486
0.045170877 0.07348189 -0.17565216 -0.07789544 -0.014305736 0.050774034 -0.21584807 0.014959956
-0.07619102 0.0514791 0.07238985 0.05108 0.11659418 0.103565656 -0.097653225 -0.14183956
-0.01697444 0.034366 0.047586903 0.07582248 -0.103498496 -0.060180195 0.17839846 -0.11167488
0.07276151 0.14037575 -0.004986164 0.04291679 0.18635367 0.0704639 -0.06384049 -0.11925798
0.019304885 0.1239665 0.1056501 0.061408233 -0.019796632 -0.115453094 -0.017437132 0.10817807
-0.097725 -0.04559081 -0.05007123 0.10414011 0.074459285 0.09623787 0.047381345 -0.09864985
-0.034113813 0.042440563 -0.20416811 -0.010113231 -0.01379061 0.06988678 0.086531736 -0.0270471
-0.15413898 0.016086806 0.13682032 -0.058115758 -0.05943783 0.15565982 0.075380675 -0.02202913
-0.071760856 -0.09455052 -0.05827377 0.17693031 0.12936805 0.094442554 -0.07610083 -0.004199754
-0.063817956 0.042464692 0.055272453 0.017006936 -0.060811866 0.06226393 0.06553372 0.21742432
-0.16029845 -0.10309487 -0.009936862 -0.11653875 -0.052014265 0.069453806 0.015796404 0.02067128
0.02182269 -0.031837005 -0.08579312 0.106647216 -0.054249678 0.16001216 0.03968434 0.08129201
-0.09682469 -0.06511388 0.08315162 -0.04653287 -0.010939105 -0.07290503 0.042359468 0.13038279
-0.13844776 0.046543617 -0.07050615 0.072862074 -0.18686126 -0.057085168 0.328195 0.1796054
-0.0053878776 -0.014411441 -0.02906574 -0.2407592 -0.058652826 0.1424829 0.23200437 -0.051764835
0.15720622 0.03028457 -0.024496691 -0.124924794 -0.006224029 -0.07757422 0.04960285 0.08570042
0.009732206 0.07459172 -0.030847486 0.03940247 -0.07112646 -0.01742599 -0.07217574 0.10775283
0.089532174 0.022092672 -0.030166715 0.06348558 -0.12059 -0.013852358 0.13817903 -0.11452244
-0.14524013 0.030864483 0.07061455 -0.21894543 -0.07981507 0.11881555 0.14430523 -0.025648119
0.21069306 -0.35054272 -0.0941336 0.0013600333 -0.02537847 0.081245296 -0.24237774 -0.00019284562
0.08916407 -0.020595169 0.13690273 0.12205498 0.1246873 0.06893754 -0.0001715775 0.10446095
-0.10826824 0.062435023 0.102637805 0.00059920276 0.008271953 -0.045720786 -0.030314706 -0.012830479
-0.075334966 0.23227826 -0.07188563 -0.08134128 -0.027841 0.0033810737 -0.18652742 -0.014706696
0.013165207 -0.011776291 0.08869034 -0.08890788 0.09184451 0.043419488 -0.09172028 -0.20900092

rnn.bias_ih_l0 f4 [400]
00000000: bfe1 acbd 8b8c c73d 9b7e f03d ec5e 193d
00000010: e035 ecbd 9416 853d 2beb 903d b52c 5fbe
00000020: e2f2 1dbe 3094 8bbc f43e e63d 4993 26bd
00000030: 9956 54bd 0ed0 16be 6e5a 223d f37f 893d
00000040: 8dde df3d 2bd0 b2bd c2c7 bf3c cce3 5fbb
00000050: 206f b7bd de10 cd3d 97b4 c2ba b938 8e3b
00000060: 2845 bbbd 4fc0 7cbd 509f 173e 9f48 cb3d
00000070: 6dc1 50bb 906d de3c a15f 713c 9c4b 5abe
00000080: 19d9 553c c6e7 12ba c12c a4bc 1de6 cf3d
00000090: 8a60 3cbd 6418 0abd 85a9 803d b860 1d3d
000000a0: aa28 a43d 2342 163e 8da7 84bc 2fe4 923d
000000b0: 9122 933d 5150 573d 599d 2fbc 9860 d03d
000000c0: cd00 f43c fa6d e13d 4823 afbb 10f2 03be
000000d0: 25f6 173e d665 15bc f53c 263d 276e 22bd
000000e0: 8c1c a5bd 2cea f5bd f36f 613c 738e 8cbc
000000f0: 5884 afbc ba4e 8c3c c717 f53c dba6 403c
00000100: 64eb e93d 9ee1 443c 82f8 cf3d 4f13 983d
00000110: ef2b 19bc 1984 0c3e 980b 09bc cd3d 02be
00000120: 42a0 0d3d ea83 e0bd a2d7 b63d 12e7 bdbc
00000130: 8991 e3bd 0db5 1bbd a954 05bd f747 263d
00000140: 2dc5 e33d ac1a 823c 31c1 65bd 498d 843d
00000150: 2a59 923c e355 25bc 5e12 d8bc 58cd b6bd
00000160: b9af 2cbd df36 a23b 9922 73bd 8999 193e
00000170: f595 b03d 945e 553c 56ff 08be 7163 58bd
00000180: 5126 c0bd 884b f2bd bf87 e73d f067 fd3c
00000190: b3d5 19bd b9a7 cc3c 71eb 0c3d 6b4f efbd
000001a0: e7aa eebd f198 66be bd91 56bd 5bb4 48bd
000001b0: b952 d53d 69cd d7bd 5a3d 833c 59f5 f33c
000001c0: 69c5 c5bd 720a b73c 55d1 f53c 11f2 85bd
000001d0: 136c bcbd a227 cdbd 723e cdbd d35b 33bd
000001e0: 0d81 8e3d fddc 153b 3872 f63d e2f9 08be
000001f0: 495a 0bbd b70e 58bd 2580 f1bd 59f9 02bb
00000200: 7380 2f3d 3367 e83d b64c 063d 0c75 043d
00000210: 0a8a 4abd d642 7d3d d589 f03d c284 d73d
00000220: 3e36 0e3e 91da c6bc b6d9 bfbd d52e 623d
00000230: 5e17 2d3d 6933 85ba 8714 b8bd 8fae 06be
00000240: 7619 103d 5b46 f83c 9dc5 b4bd 2fdb f0bd
00000250: a386 053e febb ccbb 9e3d 1fbd ea6a 08bd
00000260: 4d34 083e 36a6 913d 6621 6cbd ec39 90bc
00000270: c367 6f3d a8e0 b1bd fc4e 2f3d eab6 9cbd
00000280: 8fe7 ac3d d7f1 483d f6e9 1dbd 357e 213d
00000290: 35e8 e0bc e466 c83d 4fc6 96bd dca0 e03d
000002a0: bb24 993d b873 443e 6206 553c 32f7 993d
000002b0: 7a3d 7abc 3361 22bc 90f8 043e 0ccf d6bd
000002c0: 2f1a f7bd 9c85 133e d1b7 a23b fbe2 adbd
000002d0: b817 36bc 13d1 033e ada4 98bd ffd0 1fbd
000002e0: cc24 9e3c 6b6c 01be 9469 4f3e 7cbc 013e
000002f0: ff43 be3d 186f 2bbe 6d87 e0bd 3f87 8c3d
00000300: 2d36 223d eb18 853d 7b6c 26bd 5c64 b5bc
00000310: c7ac 953d e845 bd3c b04a b13d be15 43bc
00000320: 18e2 3cbd 8873 9dbd 29f0 23be 37b3 893d
00000330: b546 083e bfe4 e4bc e9ff 5d3d fe8d c2bd
00000340: 10be 043d 0753 19bc 78ce a83d 76b0 803d
00000350: 2211 393d 6f34 5c3d 5cf6 763d cdd8 95bd
00000360: 3a09 27bd fa46 323e 5b70 ae3c f963 4cbd
00000370: 7429 19bd 9368 21bc 964d 8e3d 1028 0a3d
00000380: 5eb4 a4bd 3342 b1bd c53f 8abd 4903 a2bd
00000390: de1c a1bc acc9 31bd 6d9b 16bc 73b3 04be
000003a0: 26ac cfbd f729 a7bd 7a24 103d 192b 47bc
000003b0: 4264 163d df41 fabc 322a a5bd acb2 89bd
000003c0: 3a86 463c eb59 413d f31c 41bd 4bef c7bd
000003d0: a0dc 56bb bb2d 0fbd b0ba 443d 65f7 2c3d
000003e0: af6f a43c 1610 bebd cb77 37bd 6d3f 913c
000003f0: 9ce4 00bd 804d 02be 2fdf 0f3e f5af 6b3e
-0.08441495 0.09743603 0.11742898 0.03744404 -0.11533713 0.06498447 0.07076105 -0.21794398
-0.15424684 -0.017038435 0.11242476 -0.040667806 -0.0518404 -0.14727804 0.03963702 0.067138575
0.1093112 -0.08731111 0.023410682 -0.0034162877 -0.08956742 0.10012983 -0.0014854845 0.004340258
-0.0914405 -0.061706837 0.14806867 0.09925961 -0.0031853572 0.027151853 0.014732272 -0.21317905
0.013052248 -0.0005603995 -0.020040872 0.101513125 -0.045990504 -0.033714667 0.06282333 0.038422316
0.080155686 0.14673667 -0.016193176 0.07172429 0.071843274 0.05256683 -0.010718667 0.10174674
0.029785538 0.110073045 -0.005344782 -0.12885308 0.1483999 -0.009118518 0.040585477 -0.03965583
-0.080620855 -0.12007555 0.013759601 -0.017157769 -0.021425411 0.017127384 0.029918564 0.011758531
0.1142185 0.012016682 0.10154821 0.07425558 -0.0093488535 0.13722266 -0.008364581 -0.12718888
0.034576662 -0.109626606 0.089278474 -0.023181472 -0.11111743 -0.03801446 -0.03255144 0.040595975
0.11121593 0.015881859 -0.056092445 0.064722605 0.017864782 -0.010091278 -0.026375946 -0.08925885
-0.04215977 0.004950389 -0.059359167 0.14999975 0.08622352 0.013023037 -0.13378653 -0.05282921
-0.09382308 -0.11830813 0.113051884 0.03093335 -0.037557315 0.02498232 0.034404222 -0.1168507
-0.11653691 -0.2251928 -0.05238508 -0.049000125 0.10416169 -0.10537226 0.016020466 0.029780077
-0.096567936 0.022343848 0.030007044 -0.06540311 -0.09200301 -0.10017325 -0.10021676 -0.043788742
0.06958208 0.0022867315 0.12033504 -0.13376573 -0.03402165 -0.05274841 -0.1179202 -0.0019985049
0.042847108 0.11347809 0.032788 0.032338187 -0.04944805 0.061831318 0.117450394 0.105233684
0.13887879 -0.024274142 -0.09367697 0.055220444 0.042258613 -0.0010162416 -0.0898829 -0.13152526
0.03518053 0.030306986 -0.08826754 -0.11760556 0.13039641 -0.0062479964 -0.038877122 -0.033305086
0.13301201 0.0711178 -0.05764904 -0.017605744 0.058448564 -0.08685428 0.042799935 -0.076520756
0.08442604 0.04905876 -0.0385532 0.039427 -0.027454475 0.0978525 -0.07362043 0.109681815
0.07477709 0.19184768 0.01300201 0.07517852 -0.015273446 -0.009910869 0.12985444 -0.1048871
-0.12065541 0.14406437 0.0049657603 -0.08490559 -0.011114053 0.12872724 -0.074532844 -0.039017674
0.019304655 -0.12639014 0.20255119 0.12669557 0.09290313 -0.16741598 -0.109633304 0.06861734
0.039602447 0.06498893 -0.0406308 -0.022142582 0.07308345 0.023104623 0.08656824 -0.011907039
-0.046114057 -0.076880515 -0.16009583 0.06723636 0.13308223 -0.027941106 0.054199133 -0.09499739
0.03240782 -0.009358174 0.08242506 0.06283657 0.045182355 0.053760942 0.06029354 -0.07316742
-0.040780284 0.17409888 0.02129381 -0.04990003 -0.03739305 -0.009851593 0.06948392 0.033729613
-0.08042215 -0.086552046 -0.06750444 -0.07910783 -0.019667085 -0.04340522 -0.00919233 -0.1295908
-0.101402566 -0.08162301 0.035191037 -0.012156271 0.036716707 -0.030548988 -0.08064689 -0.06723532
0.012116963 0.047204893 -0.04714675 -0.097624384 -0.0032785311 -0.03495572 0.0480296 0.04222812
0.020072786 -0.09280412 -0.044791978 0.01773044 -0.03146802 -0.12724876 0.14049982 0.23016341

rnn.bias_hh_l0 f4 [400]
00000000: 9230 f0bc 7105 223d ddd2 f63d 3206 bdbb
00000010: 6de8 01be 33b1 1fbc 493e 9b3d f201 39be
00000020: ef1c 03be 592a 213d c6b6 dc3d 8a48 1ebd
00000030: 657c a5bd e8d4 d3bd 47a5 de3b 68a7 b03d
00000040: 1f89 c63d 55d1 33bc db3a cfbc 16eb 97bd
00000050: 9926 06bd 8526 e73d a5f0 92bc 27ee 6e3d
00000060: f589 e1bc d533 f8bd 1a15 183e 2495 8f3d
00000070: cf23 343d c723 5f3d b5b3 c03d aabf 56be
00000080: 4627 083d 6ec9 c9bc 1bd5 133d 27bf 953d
00000090: ca57 fabc 5a19 77bd 2766 493c 8604 483d
000000a0: 591c 9d3d 28e0 d33d 0be3 adbc 85cc 373d
000000b0: 01d1 9c3c 3da0 a73d 3f51 0fbc 898f a93d
000000c0: 4d60 d0bc c9af a53d f857 b3bc e251 8dbd
000000d0: a4f2 f63d 78f5 943c 1c2f 583d e91c 213c
000000e0: e42b 7dbd 41fc acbd 9626 8cbd bb57 23bd
000000f0: d822 dfbd 3712 9fbc ebb6 9c3d 11fa dc3c
00000100: b6f2 273d 50ba 6a3d f77b 7f3d ec2e 023d
00000110: 2475 733c ef5d be3d fd01 22bd 2adc dfbd
00000120: 7c4b dc3d 2605 49bd b072 b33d c858 99bd
00000130: f482 a9bd 9eca 90bc 9778 26bd f583 543d
00000140: d83a c83c 7813 8dbc 044f 2cbd f1ab ad3d
00000150: 2aa8 283d 4a51 953c 089e 01bc 381b 88bd
00000160: 6b68 ccbd c080 bfbc 3c58 4ebd 2df4 2a3e
00000170: b519 033d f25d 63bc 4563 04be 8f20 fabd
00000180: 060c cdbc 4162 e2bd 6d3b 2a3e ad3d 6e3d
00000190: 4521 223d 7b67 823d 1203 fa3a b133 05be
000001a0: 7b7c debd 4984 58be f398 37bd 0cbe 2dbd
000001b0: ff97 bc3d c3c9 13bd 65c3 983d 24e6 da3d
000001c0: 0253 e8bd 77d9 553a 9e3d b13c efec edbd
000001d0: 8d86 b2bd 7fd6 04be 460b ccbd 8a5c 9abd
000001e0: e2a9 8f3d 6472 85bd 374f 413d ca5d 2fbe
000001f0: 4250 3e3d 54ec 7cbd 35c8 dabd 3a4f 653d
00000200: e3b1 aa3c a270 9b3d 39c7 383d 0697 8e3d
00000210: 9600 9bbd 3c06 9d3d d2f7 e73c f540 5c3d
00000220: 0e7b 8e3d d492 9ebd 8904 d9bd fda2 e93d
00000230: bc98 be3d 66e5 e2bc 7632 68bd 229c 11be
00000240: a171 893d fc2e 9a3d 51b6 a7bd 090a 47bd
00000250: a6a3 113e cf8e a03b 828a 27bd f8cc 0ebd
00000260: dd5a b83d c3e5 cc3d 01ae 953c 9568 63bd
00000270: 05ef e93d 8b45 93bd ea8c 9c3c 98cc 16bd
00000280: f069 d53d a644 803d 3183 063d 4d08 96bc
00000290: 333c c7bd e6ea ec3d 3686 aabd feaa 9e3d
000002a0: 547c a93d 15a3 363e 4e5d 3d3c d1fe bf3b
000002b0: 3f41 10bc 07cc 96bc 8705 033e 0ac7 71bd
000002c0: cca4 1dbe ee56 ef3d 028b b73c 5623 78bd
000002d0: 1929 94bc a2d6 2f3d 5498 d0bd 16f0 933c
000002e0: 3650 023d 15c5 10be 32ab 813e e292 153e
000002f0: c3e8 b33d 9df2 01be c6a5 cdbd 6e33 a73d
00000300: 08c4 733d 36bc 273b 1698 3dbd 12ee 8dbc
00000310: b11c 463d 1c00 d53b 84d2 e03d 08e0 d7bb
00000320: 89dd 75bd aa3e 01bd 7795 c8bd a8a7 c33d
00000330: 5c81 fd3d c5ba 70bd badd 253c b071 0abe
00000340: bdee 423d aad6 1bbd 66ee bc3d cab1 ea3d
00000350: 3b7c 413d 09af 55bc 279c 1c3d d498 02be
00000360: 5866 873c 4716 0b3e c47f 09bd 0fec 993c
00000370: 9496 56bc 3c18 69bd eea1 1b3d 69e6 203d
00000380: 78a8 9dbd fbf1 68bd 6703 84bd 85ec bbbc
00000390: 2f5f eb39 7921 66bc ffaa c93c f1d5 05be
000003a0: 508b f7bd de00 17bd d94f ba3d 00b7 03bc
000003b0: b112 bb3d 9635 ebbc 1505 73bc 73e1 09bd
000003c0: 4013 94bc 9070 913d ccac ca3c baea 1abe
000003d0: d2f4 d53c 0a7a f53c 699d c13c 132f 603d
000003e0: 97cb dc3c 0837 a7bd f542 13bd 9d4e 63bd
000003f0: 5782 61bd 655b b5bd 1401 ba3d 8956 533e
-0.029320035 0.03955597 0.12051938 -0.005768561 -0.1268632 -0.009746837 0.07580239 -0.18067148
-0.12804006 0.039347026 0.10777049 -0.038643397 -0.08080367 -0.10343343 0.006794605 0.0862568
0.096941225 -0.010975202 -0.02529662 -0.07417886 -0.032751653 0.11286644 -0.017937014 0.05833259
-0.027531603 -0.12119261 0.148518 0.07010868 0.043979462 0.05447748 0.094092764 -0.20971552
0.03324058 -0.024632182 0.036091905 0.0731185 -0.03055944 -0.06032691 0.012292421 0.04883244
0.076714225 0.10345489 -0.021226427 0.04487278 0.01914263 0.0818486 -0.008747398 0.0827933
-0.025436545 0.08090169 -0.021892533 -0.069003835 0.12057999 0.018183455 0.052779302 0.009833553
-0.061809435 -0.08446551 -0.06843297 -0.03987859 -0.10895318 -0.019417865 0.07652076 0.02697471
0.04100295 0.057306588 0.06237408 0.03178303 0.0148594715 0.0929526 -0.039552677 -0.10930665
0.10756585 -0.049077176 0.08762109 -0.07487637 -0.082769305 -0.01767474 -0.040642347 0.051883657
0.024442121 -0.017221197 -0.042067543 0.08480061 0.041176 0.018227238 -0.007911213 -0.066458166
-0.09980854 -0.023376822 -0.050377116 0.16694708 0.032006938 -0.013877379 -0.12928493 -0.12213241
-0.025030147 -0.11053897 0.16624232 0.058164287 0.03958251 0.063673936 0.0019074401 -0.13008
-0.108635865 -0.21144213 -0.044823598 -0.04241757 0.092086785 -0.036081087 0.074591435 0.10688427
-0.113439575 0.000815771 0.021635827 -0.11617457 -0.0871707 -0.12972449 -0.09963088 -0.07537182
0.070148245 -0.06515959 0.047194686 -0.17125621 0.04646326 -0.061748818 -0.10682718 0.05598376
0.020836776 0.075898424 0.04511187 0.06962399 -0.07568471 0.07667205 0.028316412 0.053772885
0.069570646 -0.07742849 -0.10596568 0.11408041 0.093064755 -0.027697276 -0.05668875 -0.14219716
0.06711126 0.07528493 -0.08189071 -0.048593555 0.14222583 0.0048998366 -0.040903576 -0.034863442
0.09001706 0.10004761 0.018271448 -0.05551966 0.114225425 -0.07190999 0.019110162 -0.03681621
0.104205966 0.06263094 0.032839958 -0.018314505 -0.09728279 0.11568241 -0.0832638 0.07747458
0.08275667 0.17835648 0.01155789 0.005859234 -0.008804618 -0.018407835 0.12795077 -0.05902771
-0.15394896 0.116865024 0.022405151 -0.060580574 -0.018086003 0.0429293 -0.10185304 0.018058818
0.031814776 -0.14137681 0.25325924 0.14606813 0.0878463 -0.12690206 -0.100413844 0.08164106
0.05951312 0.002559436 -0.04628762 -0.017325435 0.048367206 0.006500257 0.10977653 -0.006587986
-0.060025726 -0.0315539 -0.09794133 0.09553462 0.12378189 -0.058771867 0.0101236645 -0.13519931
0.04759096 -0.038046516 0.092251584 0.11459692 0.047237616 -0.01304222 0.038234856 -0.12753612
0.016528293 0.13582717 -0.033569112 0.01878932 -0.013097424 -0.056907877 0.037996225 0.039282236
-0.076981485 -0.056871396 -0.064459614 -0.02293993 0.0004489361 -0.014046066 0.02461767 -0.13069893
-0.120871186 -0.03686606 0.09097261 -0.008039236 0.091344245 -0.028712075 -0.014832755 -0.03366227
-0.018075585 0.07101548 0.0247406 -0.15128604 0.026117716 0.02996542 0.02363463 0.054732393
0.026952548 -0.08164793 -0.035952527 -0.055494893 -0.055055942 -0.08855323 0.09082237 0.2063848
