cyberbach_models/gru/results/model_checkpoint.pt (torch, 768355 bytes, 6 tensors)

output_weights.weight f4 [88, 200]
000000 70 7b aa bd d8 5a fe b9 f6 78 a4 be c3 35 49 3d
       -0.08324325 -0.0004851434 -0.32123536 0.049123537
000010 c0 10 9e 3e 2f 70 36 be f6 85 25 bd 3d 95 05 3a
       0.30872154 -0.17816232 -0.04041096 0.00050957856
000020 7d 1a 11 3d 22 17 ff 3e a2 6a ef 3d ba 33 96 3e
       0.03542565 0.49822336 0.116902605 0.2933634
000030 8f 1f f5 3d b3 4b 42 3e 1e f1 c2 bc 2e c4 c9 3d
       0.1196891 0.1897419 -0.023796614 0.098518714
000040 c1 60 fe 3d 49 8b 98 be a8 76 fe bc 3a 9f 88 3c
       0.12420798 -0.29793766 -0.03106244 0.016677488
000050 19 2c 81 bd 4f c7 0d be aa e2 c3 3d 8b e1 4d 3c
       -0.06307239 -0.13845561 0.09564717 0.012565981
000060 db 91 63 3e d0 b6 4f 3d 7a 60 84 bd a1 0a cd bd
       0.22223608 0.050711453 -0.06463714 -0.10011793
000070 ad fa 9c bc ce b7 2d bd 84 dc c9 bd 19 ee a8 bd
       -0.0191625 -0.042411618 -0.09856513 -0.082485385
000080 3b 48 09 be 41 84 0f 3e ca 04 be 3d f8 34 7e 3d
       -0.1340646 0.14015295 0.09278257 0.062062234
000090 2d a1 db 3d 41 96 60 bd 7e bf bb 3d 8d 94 38 3e
       0.10724101 -0.054830793 0.091673836 0.18025418
0000a0 7b 35 b7 bd 37 bc c5 bd 3b f7 00 3e e6 f5 4a bd
       -0.089457475 -0.0965504 0.12594311 -0.049550913
0000b0 0a 11 4d bd 62 d8 c8 3c f8 15 44 3e ce ac a7 3d
       -0.050065078 0.024517242 0.19149005 0.08187257
0000c0 a3 3b 4a bc 18 72 93 3d 30 dc 85 3b a2 df 47 be
       -0.01234332 0.07199496 0.0040850863 -0.19518903
0000d0 5c bd 4f bd af 43 1c 3e 64 82 6c 3c 95 a6 42 3e
       -0.050717697 0.15260194 0.014435384 0.19008859
0000e0 9b bd 52 3d 9d be 3f 3d f2 20 44 be bc cf cb bd
       0.051450353 0.046812642 -0.19153193 -0.099517316
0000f0 9a eb d2 bc 23 e6 f8 3d af 21 68 bd eb 25 d4 bb
       -0.02574711 0.1215327 -0.05667275 -0.0064742467
000100 08 60 98 bb e8 45 c4 be 17 19 19 bd 4e 6d f6 bd
       -0.0046501197 -0.38334584 -0.037377443 -0.12032567
000110 15 af ce 3e 1a c1 98 be b7 39 7c 3e f6 c4 d4 3d
       0.40367952 -0.29834825 0.24631391 0.1038913
000120 d0 43 9e 3c 7e 62 8c bc 74 05 59 bd e4 95 43 3e
       0.019319445 -0.017136808 -0.052983716 0.19100147
000130 94 44 fe bd ff 3b 8b 3e 92 de 0e 3d d4 9b 96 be
       -0.12415424 0.2719421 0.03488023 -0.29415762
000140 bd 83 1f be 85 8b b9 bd 18 85 06 bd 3c 76 8b bc
       -0.15577598 -0.09059814 -0.03284177 -0.017024152
000150 16 ef d8 3d 14 30 03 3e 83 84 18 be 90 e0 b5 3e
       0.10592477 0.12811309 -0.14894299 0.3552289
000160 ec 3a 95 bd c4 36 81 3e 73 ba 42 3e 2a 06 1b bc
       -0.07286629 0.25237095 0.19016437 -0.009461919
000170 11 8b 02 be 63 88 5b be db 02 5f 3d e2 82 1c bd
       -0.12748362 -0.21438746 0.054446083 -0.038210757
000180 b5 8f 47 3e b9 f8 6c 3e d2 83 04 bd bf cf 21 bc
       0.19488414 0.23141755 -0.032352276 -0.009876191
000190 c3 82 9c be 73 81 df 3d af 6b b1 bd a3 f2 dc 3c
       -0.30568513 0.10913362 -0.08663117 0.026971167
0001a0 f2 af 29 be 4a 96 0d bd 96 23 de bc 03 05 5b 3e
       -0.16571024 -0.034567155 -0.027116578 0.2138863
0001b0 c1 66 12 3e d8 ed 1c 3e c7 a5 7c 39 5d 1b 7c bd
       0.1429701 0.15325105 0.0002409435 -0.061549533
0001c0 c4 f0 8d 3d 2a 86 17 be 94 6c 0e bd 92 c9 e0 3d
       0.06930688 -0.14797273 -0.034771517 0.109759465
0001d0 67 fe d8 3e 6e 67 36 be 19 3c 0b 3e 91 5b 79 bd
       0.42381594 -0.17812893 0.13597144 -0.06087834
0001e0 f2 d3 5c 3e c6 bf 06 bd b4 1f 14 3d f6 98 7a bc
       0.21565226 -0.032897733 0.036163047 -0.015295258
0001f0 29 c4 5b 3d 2d 48 d3 3d 23 fd 21 3e e5 20 50 bd
       0.05365387 0.10316501 0.1581922 -0.05081262
000200 0f 9f 11 3e cc 36 9a bd fb d9 eb bd 59 fb 75 be
       0.14220832 -0.07529983 -0.11516186 -0.24021663
000210 0a 86 78 bc 38 d7 cd 3d 18 d8 9f be 91 ef d6 bd
       -0.015168676 0.10050815 -0.31219554 -0.104949124
000220 20 ae e6 3d 8e 6f 8a bd c3 ed 6b bc 37 63 78 3d
       0.112636805 -0.067595586 -0.0143999485 0.060641494
000230 1b 12 3f bc 69 c7 7f bb 5d 1e bb 3e c3 fc 7d bd
       -0.0116620315 -0.003902877 0.36546603 -0.06200863
000240 2b 8d 05 be af 12 78 3d 16 b7 e3 bc c0 8e 3a be
       -0.13042133 0.060564693 -0.027797263 -0.18218517
000250 9b 6c 14 3c 53 a1 49 3d 06 37 f6 3d 71 e1 d1 bd
       0.009059097 0.049226116 0.12022214 -0.10248078
000260 ca 1b a0 be c4 b4 44 3d 54 5c cb bd 99 4b e1 3d
       -0.312712 0.048023954 -0.099297196 0.11000747
000270 de 4e 1d be 0e ae 6b 3e a2 e8 84 be 22 10 1f be
       -0.15362117 0.23015615 -0.25958735 -0.15533498
000280 30 6a 1f bd bc 28 9c bd 83 74 10 be 67 cd 05 be
       -0.038919628 -0.07624957 -0.14106946 -0.13066636
000290 e8 d2 56 bd 57 2a 06 be e8 29 a9 bd 8f fe 79 3d
       -0.05244723 -0.13102089 -0.08259946 0.06103378
0002a0 a3 b0 9f bd 93 0d 27 3d 6e 66 0d 3e 85 8b 06 3c
       -0.07797363 0.04078443 0.13808605 0.008211975
0002b0 e2 b0 2a 3e 0c 3b b6 be 6e cb cd bc 67 5b f1 3c
       0.16669038 -0.35591924 -0.025121417 0.02946253
0002c0 6a 1f 88 3d 0d 8e 46 bd 14 7e 35 bd 32 b4 ec 3a
       0.06646617 -0.048475314 -0.04430969 0.0018059073
0002d0 89 61 e9 3b 58 66 fb 3d 60 d7 d5 bc 65 ce 05 bd
       0.007122223 0.1227538 -0.026103675 -0.032667536
0002e0 0f 36 d3 3d 3a e2 bf bd 42 83 70 3e d9 c4 f6 bd
       0.10313045 -0.09369321 0.23487571 -0.120492645
0002f0 5c 6f 92 3d c8 5d d8 3c ca 8b b1 bb e8 ec dc 3d
       0.07150146 0.026411906 -0.0054182755 0.10787374
000300 27 0a 7f bd a9 e6 37 3e 2f 94 c9 3e 45 c1 55 3e
       -0.06226554 0.17959084 0.39370868 0.20874508
000310 4c 7f 9e 3e 2b a6 e4 bd 65 de 3b 3e 52 ed 0d 3e
       0.30956495 -0.111645065 0.18346556 0.13860062
000320 70 7b aa bd 60 5a fe b9 f6 78 a4 be c2 35 49 3d
       -0.08324325 -0.0004851399 -0.32123536 0.049123533
000330 c0 10 9e 3e 2f 70 36 be f8 85 25 bd 10 95 05 3a
       0.30872154 -0.17816232 -0.040410966 0.00050957594
000340 7c 1a 11 3d 22 17 ff 3e a1 6a ef 3d ba 33 96 3e
       0.035425648 0.49822336 0.1169026 0.2933634
000350 8f 1f f5 3d b2 4b 42 3e 1b f1 c2 bc 2e c4 c9 3d
       0.1196891 0.18974188 -0.023796609 0.098518714
000360 bf 60 fe 3d 48 8b 98 be a8 76 fe bc 3a 9f 88 3c
       0.124207966 -0.29793763 -0.03106244 0.016677488
000370 19 2c 81 bd 4e c7 0d be a8 e2 c3 3d 90 e1 4d 3c
       -0.06307239 -0.1384556 0.095647156 0.012565985
000380 db 91 63 3e d2 b6 4f 3d 7b 60 84 bd a2 0a cd bd
       0.22223608 0.05071146 -0.06463715 -0.10011794
000390 ae fa 9c bc d0 b7 2d bd 83 dc c9 bd 19 ee a8 bd
       -0.019162502 -0.042411625 -0.098565124 -0.082485385
0003a0 3c 48 09 be 41 84 0f 3e ca 04 be 3d f8 34 7e 3d
       -0.13406461 0.14015295 0.09278257 0.062062234
0003b0 2c a1 db 3d 3f 96 60 bd 7c bf bb 3d 8e 94 38 3e
       0.107241005 -0.054830786 0.09167382 0.18025419
0003c0 7f 35 b7 bd 37 bc c5 bd 3b f7 00 3e e5 f5 4a bd
       -0.089457504 -0.0965504 0.12594311 -0.04955091
0003d0 0a 11 4d bd 66 d8 c8 3c f8 15 44 3e cd ac a7 3d
       -0.050065078 0.02451725 0.19149005 0.08187256
0003e0 9c 3b 4a bc 16 72 93 3d 39 dc 85 3b a1 df 47 be
       -0.012343314 0.071994945 0.0040850905 -0.19518901
0003f0 5c bd 4f bd af 43 1c 3e 63 82 6c 3c 96 a6 42 3e
       -0.050717697 0.15260194 0.0144353835 0.1900886

output_weights.bias f4 [88]
000000 4a 64 b4 bc 4a 64 b4 bc 4a 64 b4 bc 49 64 b4 bc
       -0.022020478 -0.022020478 -0.022020478 -0.022020476
000010 4a 64 b4 bc 49 64 b4 bc 4a 64 b4 bc 4a 64 b4 bc
       -0.022020478 -0.022020476 -0.022020478 -0.022020478
000020 49 64 b4 bc 49 64 b4 bc 4a 64 b4 bc 4a 64 b4 bc
       -0.022020476 -0.022020476 -0.022020478 -0.022020478
000030 48 64 b4 bc 4a 64 b4 bc 49 64 b4 bc 4a 64 b4 bc
       -0.022020474 -0.022020478 -0.022020476 -0.022020478
000040 49 64 b4 bc 4a 64 b4 bc 4a 64 b4 bc 4a 64 b4 bc
       -0.022020476 -0.022020478 -0.022020478 -0.022020478
000050 49 64 b4 bc 4a 64 b4 bc ca e5 0c bd 4a 64 b4 bc
       -0.022020476 -0.022020478 -0.03439883 -0.022020478
000060 49 64 b4 bc 88 db e0 bc 49 64 b4 bc bb 74 b4 be
       -0.022020476 -0.02744843 -0.022020476 -0.35245308
000070 b6 26 22 bd ff 55 a6 be 06 5d cf be 43 e7 92 be
       -0.0395877 -0.32487485 -0.4050066 -0.28692064
000080 27 be 74 be bf fc 85 be 3a 76 3d bd 61 b7 99 be
       -0.23900662 -0.26169392 -0.046255328 -0.3002272
000090 01 37 08 be ce 7a 25 be 6f 91 73 be ef b3 61 3d
       -0.13302232 -0.16160128 -0.23785947 0.05510324
0000a0 37 27 a8 be 70 6a 88 3d ef 15 8b bd f4 ad e9 bd
       -0.3284242 0.06660926 -0.06791293 -0.11410132
0000b0 82 89 36 3e 62 ee 85 be 04 df ae 3c 0a 23 18 3e
       0.17825893 -0.26158434 0.021346577 0.14857116
0000c0 dd b0 b3 3d 87 b5 ff 3d 31 55 dd bc 58 6e 74 3e
       0.08773968 0.124857955 -0.027018161 0.23870218
0000d0 73 42 14 be 64 f7 66 3b b4 6e 86 3e ca 16 89 3e
       -0.14478473 0.003524267 0.26256335 0.267752
0000e0 c3 d6 6f 3e d6 f4 82 be 00 6c 62 3e cc 32 b8 bd
       0.23421769 -0.2557742 0.22111511 -0.08994064
0000f0 9d 36 12 3d 57 cb 33 3e eb 73 e8 3c 64 5e 8c bb
       0.035696615 0.17558037 0.028375586 -0.004283713
000100 e1 ba 0e be b5 18 88 bc 6f b4 ce bc f2 a2 42 be
       -0.13938476 -0.016613344 -0.025232522 -0.19007471
000110 80 c5 80 be df 9c a2 be 46 c5 fb bc 60 90 47 be
       -0.2515068 -0.31760308 -0.030733716 -0.19488668
000120 d0 09 95 be 60 14 29 be 18 8c 0a be 00 d0 2d be
       -0.2910905 -0.16511679 -0.13530004 -0.16973877
000130 4a 64 b4 bc 49 64 b4 bc 49 64 b4 bc 49 64 b4 bc
       -0.022020478 -0.022020476 -0.022020476 -0.022020476
000140 49 64 b4 bc 4a 64 b4 bc 4a 64 b4 bc 4a 64 b4 bc
       -0.022020476 -0.022020478 -0.022020478 -0.022020478
000150 4a 64 b4 bc 49 64 b4 bc 49 64 b4 bc 49 64 b4 bc
       -0.022020478 -0.022020476 -0.022020476 -0.022020476

rnn.weight_ih_l0 f4 [600, 88]
000000 7b 05 01 00 c6 81 01 80 17 90 02 00 c6 c2 01 00
       9.3802e-41 -1.3839e-40 2.3536e-40 1.61707e-40
000010 04 4e 01 00 c4 87 02 80 8e bf 02 80 93 06 02 00
       1.19822e-40 -2.32375e-40 -2.52388e-40 1.8603e-40
000020 69 80 01 80 13 8f 01 00 df 46 01 80 8e 08 00 00
       -1.379e-40 1.43161e-40 -1.17259e-40 3.069e-42
000030 bb 6a 01 80 b0 a3 01 80 1d 78 01 80 6c b6 02 00
       -1.30123e-40 -1.50556e-40 -1.34924e-40 2.49112e-40
000040 ee d2 00 80 65 ea 02 80 76 99 02 00 40 d1 02 80
       -7.5667e-41 -2.67756e-40 2.38722e-40 -2.58736e-40
000050 3d 6d 00 00 36 a1 00 80 c4 ca 15 bf 99 9c 02 80
       3.9187e-41 -5.7832e-41 -0.5851252 -2.39848e-40
000060 9d 7d 02 80 3c 05 7e be 27 b6 02 80 bf f3 c0 3d
       -2.28733e-40 -0.24806684 -2.49015e-40 0.09421491
000070 06 bf 09 bd 8f 00 bc be b4 c9 be be 24 89 63 3d
       -0.03362944 -0.36719176 -0.37263262 0.05555071
000080 f8 f3 54 3f 39 83 e5 be e1 81 fc 3e 2e 9e e6 bf
       0.83184767 -0.44826677 0.4931784 -1.8017023
000090 a9 2a 1a bf 7c 62 b1 bf d0 5f 0d bf 0b 58 c2 3e
       -0.60221344 -1.385818 -0.55224323 0.37957796
0000a0 2a 2b 86 bf fb 7f 1f bf 25 7f b0 bf 88 b4 c7 3d
       -1.0481923 -0.6230466 -1.3788801 0.097512305
0000b0 d9 6b 16 bf 58 e1 f3 3e 26 b6 88 3e 83 34 04 bf
       -0.5875831 0.4763286 0.26701468 -0.51642627
0000c0 99 3d b6 bd cc fc e1 be c9 10 86 be 20 bf fa 3e
       -0.088984676 -0.4413818 -0.2618468 0.48973942
0000d0 40 98 db be e8 18 ac bd 9c 91 8f be 69 d9 39 3e
       -0.42889595 -0.08403188 -0.2804078 0.18149342
0000e0 68 4c c4 be d8 72 04 3e 91 29 70 3e de b1 1d bf
       -0.38339543 0.12934434 0.23453356 -0.6159953
0000f0 d2 42 1f be 4d c1 38 3e 42 68 6d bd f4 51 ae 3d
       -0.15552834 0.18042488 -0.057960756 0.08511725
000100 5f 7d aa 3f b7 ea c8 3e 72 ec e8 be 2c 2e 82 3f
       1.331951 0.39241573 -0.45492893 1.017034
000110 9a fe 14 bf db 12 92 bf 2c 2d 22 bf 29 d1 a4 be
       -0.5820099 -1.1412004 -0.63350177 -0.32190827
000120 5a f9 b0 bf 35 d1 c2 be 64 8b 73 3e 65 8b 21 bf
       -1.3826096 -0.38050237 0.23783642 -0.63103324
000130 ed 0c 01 80 49 93 01 00 a9 40 02 80 86 aa 01 00
       -9.6472e-41 1.44671e-40 -2.06867e-40 1.53008e-40
000140 4a ca 00 80 3b ea 01 80 9c 8d 02 80 9b 64 01 00
       -7.2568e-41 -1.75862e-40 -2.34471e-40 1.27926e-40
000150 7f b6 02 80 9e 98 01 80 1d 77 00 00 82 7b 02 00
       -2.49138e-40 -1.46584e-40 4.273e-41 2.27977e-40
000160 07 f7 01 80 cc 2d 02 00 35 a5 02 00 91 6b 02 80
       -1.80452e-40 2.001e-40 2.42936e-40 -2.22259e-40
000170 50 05 01 80 f3 2b 00 00 dc 86 01 00 e9 93 01 00
       -9.3741e-41 1.5766e-41 1.40214e-40 1.44896e-40
000180 eb 04 00 80 66 76 00 00 1c 4b 00 00 48 6e 02 80
       -1.764e-42 4.2473e-41 2.6944e-41 -2.23232e-40
000190 e9 ae 02 80 82 0b 00 00 ba f7 01 00 3a 46 02 80
       -2.46417e-40 4.128e-42 1.80703e-40 -2.08864e-40
0001a0 02 25 03 00 f5 e7 01 00 b2 22 01 00 7e 52 02 00
       2.88782e-40 1.75046e-40 1.04282e-40 2.13264e-40
0001b0 a1 47 02 00 46 7d 01 80 34 c4 9f 3d ca ae 01 80
       2.09367e-40 -1.36775e-40 0.07801095 -1.54538e-40
0001c0 95 4a 01 80 4e 1d 12 bd e5 17 02 80 bd c6 15 be
       -1.1859e-40 -0.03567248 -1.92243e-40 -0.14626594
0001d0 ea cd 85 be 96 e4 8d 3e 42 ff 17 3d 40 0f 08 bf
       -0.26133662 0.2771346 0.037108667 -0.5314827
0001e0 87 4a d5 3e de a0 97 3e af 26 c1 bf ef f3 6b bf
       0.41658422 0.2961492 -1.508993 -0.9216909
0001f0 78 2b cf 3e 31 c1 a7 be 8a 7b 52 be d7 3f de 3c
       0.40462852 -0.3276458 -0.20554939 0.02713005
000200 97 d1 e1 bd dd 04 b9 3e c2 dc 2e 3e 4e fb 56 3e
       -0.11026304 0.36136523 0.170764 0.20994303
000210 57 53 0d 3e 9e 02 91 3c 1a d7 3c bd d2 f3 8a 3e
       0.13801323 0.017701443 -0.046103574 0.27139145
000220 00 97 05 3f a8 13 0a bc 9b 3f 3f bf ec bc 0f 3e
       0.5218353 -0.008427538 -0.7470643 0.14036912
000230 e8 b0 60 3f 03 ba 23 bf 46 cb bf be 17 e3 10 be
       0.8776994 -0.63955706 -0.37459773 -0.14149128
000240 3e 2a 5b be 2b 1d 44 bf af 47 ae bd a2 1d 06 3d
       -0.21402833 -0.76607007 -0.08509766 0.032743104
000250 4e 66 91 3d 0f 25 02 3f 81 83 59 bd 66 98 e2 3e
       0.07099591 0.50837797 -0.053103928 0.44256896
000260 4b 7b 47 bf e6 9f 67 3d 10 a2 d9 3e 19 82 d4 3f
       -0.77922505 0.056548975 0.42506456 1.6602203
000270 7e 7e cf 3e 52 72 57 bf ba bc b2 be 0d 13 49 be
       0.40526193 -0.84158814 -0.34909612 -0.19636174
000280 37 74 6c bf 06 34 d0 be 49 b4 dc 3e 03 bc b6 be
       -0.9236483 -0.4066469 0.43106297 -0.35690317
000290 68 cf 01 00 c1 13 03 80 61 ca 02 00 95 b1 02 00
       1.66239e-40 -2.82593e-40 2.56271e-40 2.47375e-40
0002a0 97 f2 01 80 d0 a4 00 80 30 78 01 80 80 ed 01 00
       -1.7886e-40 -5.9124e-41 -1.3495e-40 1.77034e-40
0002b0 b6 dd 00 80 73 a7 00 80 ce 99 02 00 54 f7 01 80
       -7.9535e-41 -6.007e-41 2.38846e-40 -1.8056e-40
0002c0 a5 51 02 00 a4 83 02 00 c7 04 01 00 54 2c 02 80
       2.1296e-40 2.30895e-40 9.3549e-41 -1.99573e-40
0002d0 3e 4e 01 80 9c f7 00 80 95 4b 02 00 f5 23 02 80
       -1.19904e-40 -8.8826e-41 2.10785e-40 -1.9657e-40
0002e0 2f 51 01 00 5d f5 02 00 c3 e5 00 80 18 c2 00 00
       1.20959e-40 2.71691e-40 -8.2423e-41 6.9628e-41
0002f0 22 80 02 00 0d f1 02 80 cd 79 02 80 11 b8 02 80
       2.29636e-40 -2.70144e-40 -2.27365e-40 -2.49702e-40
000300 e0 61 02 00 6c 46 02 80 1d fd 02 00 ce 17 00 80
       2.18782e-40 -2.08934e-40 2.74471e-40 -8.54e-42
000310 eb d2 01 80 a6 e7 01 00 75 01 c8 be 25 70 02 00
       -1.67499e-40 1.74935e-40 -0.39063612 2.23901e-40
000320 e9 7c 00 80 ba 2d bc 3d f0 0c 02 80 1e 13 94 be
       -4.481e-41 0.09188409 -1.88312e-40 -0.28920835
000330 5e 16 4c 3b 1a c0 00 3f fe 59 d4 3e e8 a4 94 bd
       0.0031141262 0.50293124 0.4147491 -0.07258016
000340 be 11 d2 3d 7d 28 ec be 15 66 08 3f 06 3a b7 be
       0.1025729 -0.4612464 0.53280765 -0.35786456
000350 93 32 17 bf 2d 5c 27 bd 58 64 a1 be bc 9e 59 3f
       -0.59061545 -0.04085939 -0.3152187 0.85007834
000360 92 fb 38 be c2 0d 95 be b1 72 11 3f 93 25 3f 3e
       -0.18064716 -0.2911206 0.5681563 0.18666677
000370 42 a0 c4 3e bf 88 5b 3f fe 09 27 bf 60 dd ff 3d
       0.38403517 0.8575553 -0.6524962 0.12493396
000380 0d d3 6e be 72 57 a7 be 8f e0 15 bf 7f 22 6b 3e
       -0.23322697 -0.32683903 -0.58545774 0.22962378
000390 15 3b 01 bf cc 4f 6e 3e 06 64 9c be 92 1c eb 3d
       -0.5048078 0.23272628 -0.30545062 0.11480059
0003a0 3c 40 42 3e 7d 10 67 be 2d 35 6f be 49 0c fa 3d
       0.18969816 -0.22564884 -0.23360129 0.122093745
0003b0 a8 5f 07 3f 3f b7 83 bd c2 cb b9 3d 7f 7b e2 be
       0.52880335 -0.06431436 0.09072067 -0.44234845
0003c0 64 32 a4 be 5b b1 1f 3f f0 39 e6 3e 76 22 4a be
       -0.32069695 0.6238 0.44966078 -0.19739708
0003d0 5a 21 55 3f 5d 7c 77 3f 62 46 24 bf 4b c0 12 be
       0.83254015 0.9667414 -0.64169896 -0.14331166
0003e0 64 bd 05 bd 4d 01 a5 be 74 3c 42 be 02 c6 63 3e
       -0.03265132 -0.32227555 -0.18968374 0.22243503
0003f0 d2 71 00 00 9b c1 02 80 e6 ef 01 00 8e b5 01 00
       4.0831e-41 -2.53124e-40 1.77895e-40 1.56965e-40

rnn.weight_hh_l0 f4 [600, 200]
000000 b7 11 b1 3d 1f 72 ae 3e 1f a3 8e bd b6 e0 66 3e
       0.08645957 0.34071442 -0.06964707 0.22546658
000010 59 f3 30 bd 4f 2e 80 be 48 2a f1 3d c3 c7 d4 3d
       -0.043200824 -0.2503533 0.11775643 0.10389664
000020 f0 af ff bd 07 e2 11 3e e6 b0 84 3d a4 46 ce 3c
       -0.12484729 0.14246379 0.06479053 0.025180168
000030 1b ef 86 be a6 ab 98 3e 13 ee a3 3d 38 78 30 3e
       -0.26354298 0.29818457 0.080043934 0.1723336
000040 4f c7 a2 bd 5c 7d d0 3c b1 2d 03 be 9f 1c 61 be
       -0.07948171 0.025450401 -0.12810399 -0.21983574
000050 05 0d ee 3d 8e 70 a8 be 54 3d 4f 3c 5e 54 5f be
       0.11623577 -0.32898372 0.012648899 -0.21809527
000060 c6 e8 ad 3d 12 08 fa bd 5a 18 53 be cd 2e bd be
       0.08491664 -0.122085705 -0.20614758 -0.3694977
000070 a8 60 82 be f6 bf 3a be 51 95 31 3e 22 a8 0a 3d
       -0.25464368 -0.1823729 0.17342116 0.03385175
000080 46 fd 87 3d 10 ff e4 bd 9d f2 e0 3d 7b c6 3f 3c
       0.06640105 -0.11181462 0.10983775 0.011705036
000090 f9 f0 9e be 04 6b e7 bd 80 20 ee bd 7e c4 b8 3e
       -0.31043223 -0.112997085 -0.11627293 0.36087412
0000a0 4f 82 09 be c4 f2 97 be 03 b7 31 be 70 ec f2 3d
       -0.13428615 -0.29677403 -0.1735497 0.11861503
0000b0 af 76 8f 3d ef a9 06 3e 27 0f 01 3e 82 bc 1c 3f
       0.07005059 0.13150762 0.12603436 0.6122514
0000c0 a1 b3 0c 3d 57 05 66 3e d6 80 72 3d 39 8d 86 3e
       0.034350995 0.22462974 0.0592049 0.2627962
0000d0 4f 0e df bc 06 e1 a0 be e2 f1 1e be 47 bc 7d be
       -0.027228503 -0.3142168 -0.15521958 -0.24778853
0000e0 24 43 eb 3d 5a 2c 97 be 57 27 c7 3d 3b 08 c1 be
       0.114874154 -0.29526025 0.097243 -0.37701592
0000f0 43 42 34 bf f7 a2 fb bd 3b 5e d6 3c 33 b2 87 be
       -0.7041361 -0.122869425 0.02616798 -0.26503143
000100 25 93 c2 be 32 00 51 be b9 4a c6 bd 8c 0b b5 3e
       -0.38002887 -0.20410231 -0.09682221 0.35360372
000110 b7 7f bd be 9c 5d 37 3d 1f 74 5f 3e eb e0 86 bf
       -0.370115 0.044767007 0.2182164 -1.053739
000120 fe f7 0e 3e b1 62 66 3e 6a 82 df 3d 15 1c c3 3b
       0.13961789 0.22498585 0.109135464 0.0059542754
000130 ac 5d 90 be 47 f0 30 3e 61 ed 67 ba e3 d6 70 be
       -0.28196466 0.17279159 -0.0008847323 -0.23519473
000140 b5 40 b7 bb 0f 53 00 bd cf 4b 84 3e aa e6 26 bb
       -0.0055924305 -0.03132921 0.25839087 -0.0025467076
000150 cd db dc bd 5f 68 58 be 26 34 7d be 95 c1 64 3d
       -0.10784111 -0.21133564 -0.24726924 0.055848677
000160 18 81 81 3e c5 99 ef 3b 2a 89 00 3e e7 32 33 3c
       0.25293803 0.007312032 0.12552324 0.010937429
000170 24 d7 a0 bd d2 d1 98 3e 8b 94 91 be ad 97 92 3e
       -0.07853535 0.2984758 -0.28433642 0.28631344
000180 14 48 6d 3e 3c 39 3e bd e4 d7 48 be d3 4c 87 be
       0.23172027 -0.0464413 -0.19613606 -0.264258
000190 b3 4f 01 bc 5e f3 12 be cb 29 8b 3e 9a ad 9b 3d
       -0.007892537 -0.1435065 0.27180323 0.07601471
0001a0 6f 4b 69 3e 67 f4 e5 bc 63 8b 81 be 29 58 0a bd
       0.22782682 -0.028070642 -0.25301656 -0.033775482
0001b0 09 b4 9d 3e 82 34 af 3e c8 2e 90 bc 3a 84 58 be
       0.30801418 0.34219748 -0.017600432 -0.2114419
0001c0 ba c5 e0 bd 3b 67 85 bd 8f 02 49 3e d8 b9 a5 bc
       -0.10975213 -0.0651383 0.19629882 -0.020230219
0001d0 fe e0 a8 bd 4d ac f9 3b dd 48 e3 3d 3f e1 0c 3e
       -0.08246039 0.007619417 0.11097882 0.137578
0001e0 0b 0b a7 3b 9e c8 73 be 3b b2 88 3e c1 f5 52 bd
       0.005097752 -0.23806998 0.2669848 -0.0515039
0001f0 5d e3 33 3e a7 7b ac be f5 dc 19 bf da e9 fa 3d
       0.17567201 -0.3368809 -0.6010278 0.12251635
000200 98 64 54 be f2 9d ed bc 09 06 9d 3e 74 60 4e 3e
       -0.20741498 -0.029005978 0.30668667 0.20153981
000210 32 20 f1 3d fd 11 be be ee 93 19 3d 03 f3 3d 3e
       0.11773719 -0.371231 0.037494592 0.18549733
000220 f9 bf 35 be 99 a9 98 3e fe 19 9e be 7e 54 15 3e
       -0.17749013 0.29816893 -0.30879205 0.14583012
000230 ba 13 59 3e 93 1d 13 be de 75 e4 bb 1f 3e c6 3d
       0.21198931 -0.1436675 -0.0069720587 0.096798174
000240 20 db ba bd 21 8b 84 3e 53 5c e2 3d 0a c8 d2 be
       -0.09123826 0.25887397 0.11052766 -0.41168243
000250 3c bb 96 3d f1 e6 55 be 6a f2 b1 3d 39 39 b5 be
       0.07359931 -0.20888878 0.08688815 -0.3539522
000260 2a 17 9e be 86 96 17 be 04 5b 13 3e 54 2f a5 be
       -0.30877048 -0.14803514 0.14390188 -0.3226267
000270 20 a8 14 bd d7 1f 00 3e 83 0b 53 be 13 01 8c 3e
       -0.03629315 0.12512146 -0.2060986 0.2734457
000280 c0 2f d9 3d 0e 2e 92 bc cf 1f 1c be d9 43 f4 3e
       0.10604811 -0.017844226 -0.15246509 0.47708014
000290 6a 9f bc 3c 15 31 89 3d ad 0f a8 3d 7b 91 86 be
       0.023025233 0.06698815 0.08206115 -0.26282868
0002a0 f0 03 8f 3e ed 36 17 bc c0 05 95 bd a4 52 e2 3c
       0.27932692 -0.009229404 -0.07276487 0.027627297
0002b0 f2 98 da bd 8e a9 bd bd b9 a4 20 be 0c 73 a2 3d
       -0.10673703 -0.092608556 -0.15687837 0.079321
0002c0 e9 ce 8f bc fe 2e 32 3f 4a 26 85 be 76 ae 04 3d
       -0.017554717 0.69602954 -0.26005775 0.03239294
0002d0 66 fe f1 3d 2d 35 90 3e f8 e8 bc 3e ec 1c 92 3e
       0.11816101 0.2816557 0.3689649 0.2853769
0002e0 a8 a9 12 3e a6 a3 d9 bd 42 7b 61 be 4e 8b dd bd
       0.14322531 -0.106269166 -0.22019675 -0.10817586
0002f0 63 f1 20 3e d4 6d 4c 3e 60 e8 0c be fb 26 b3 bc
       0.15717082 0.19963771 -0.13760519 -0.021869173
000300 7d 1f 1b 3e 1b 03 64 be 37 aa c4 be 83 b1 42 3d
       0.1514873 -0.2226681 -0.38411114 0.04753257
000310 8c 92 3b be 85 50 c3 3e 2d 9b 88 be a9 2d 1f bc
       -0.18317622 0.3814737 -0.2668089 -0.009715476
000320 f2 94 0a 3e ba 83 45 be 5a aa ef bb a1 48 9c bd
       0.1353338 -0.19288531 -0.0073140087 -0.0763104
000330 14 b5 cd 3c b1 dd 65 be 2c d6 12 be 09 ee ea 3c
       0.025110759 -0.2244785 -0.14339513 0.028677957
000340 7d 1f de 3d 26 f1 ea 3d 88 9b 01 3d 79 79 88 3d
       0.1084585 0.11471777 0.031642467 0.06663794
000350 00 55 cb bd fb 89 37 bd b7 10 f0 3b 69 e6 70 3e
       -0.09928322 -0.044809323 0.0073262113 0.23525394
000360 c3 4f 1e 3e ef 0b bd 3d 22 c9 ee 3d 26 cf b3 bc
       0.15460114 0.09230792 0.11659457 -0.021949362
000370 08 94 73 be 95 7a 7a be 64 49 e5 bd 43 83 5f bd
       -0.23786938 -0.24460824 -0.11195639 -0.05456854
000380 5c f8 94 3d f2 b1 64 3e 81 f2 a8 be ae cd 00 be
       0.07273933 0.22333506 -0.32997516 -0.1257846
000390 64 83 7f 3d e0 a8 06 3e 51 de 05 be bf b4 a9 be
       0.062381163 0.13150358 -0.13073088 -0.3314571
0003a0 11 e0 9e bd 5e 55 44 3d e9 54 fe bd 23 a1 ed 3d
       -0.07757581 0.047932975 -0.12418539 0.11603
0003b0 d7 01 c4 3e 2b b6 1b be bd c1 0e 3e 07 d7 83 bc
       0.38282654 -0.1520621 0.13941093 -0.016093744
0003c0 95 ff 04 be bc 05 15 3d e5 73 1c 3e 21 af dc bd
       -0.12988122 0.03638242 0.15278585 -0.10775591
0003d0 cb 63 7f bd e3 1f 9b 3e ee 72 1c 3d 14 e4 2f bd
       -0.06235103 0.30297765 0.038195543 -0.04294212
0003e0 cb 2d c5 3c 99 c5 3c 3c 4f 7b 8a 3d 35 e8 f6 bd
       0.024069687 0.01152172 0.067618005 -0.12056009
0003f0 2d 99 34 3d d6 61 f9 bd 82 dd 2a ba 84 c9 6d 3d
       0.044091392 -0.12176864 -0.00065179926 0.05805351

rnn.bias_ih_l0 f4 [600]
000000 00 ef 0a bd 41 37 24 3d a5 c6 22 3c 54 71 37 be
       -0.033919334 0.040091757 0.009935056 -0.17914325
000010 a9 2c 49 3e ca ca 8d bd b3 b0 62 3d 40 ff b3 bc
       0.19645943 -0.069234446 0.055344295 -0.021972299
000020 56 56 32 bc 78 99 b8 3d 68 66 f5 ba a1 63 2e 3d
       -0.010884842 0.09013647 -0.0018722536 0.042575482
000030 be 64 e6 3c ce f4 e6 bd e1 ea cf 3d fe fa 9c 3c
       0.02812421 -0.112771615 0.101522215 0.019162651
000040 e2 c1 6e 3d 8c 76 35 3e 83 2a ad 3d 83 ee 66 3c
       0.05829037 0.17721003 0.08455374 0.014094952
000050 6d 2f df 3c b0 cf 8f bc 75 4b ca 3d ba 71 ad bd
       0.027244294 -0.017555088 0.098776735 -0.08468957
000060 9d 12 44 ba 9b 19 03 3e 2c a8 3b 3d 3c f9 f8 3c
       -0.000747958 0.12802736 0.045814678 0.030392282
000070 94 31 57 bd 4c dd 9d 3d a9 c3 60 bc 63 f2 b7 3c
       -0.052537516 0.07708225 -0.013718524 0.022454446
000080 5a ca 4c 3d 2f d7 7e 3a c4 8b 2a bd ed 4b 55 bb
       0.049997665 0.0009721396 -0.041637197 -0.0032546476
000090 c9 81 36 3d ac 1f d3 ba c7 db 39 bc 4a d6 ac 3c
       0.044557367 -0.0016107461 -0.011343903 0.021098275
0000a0 40 08 ef 3c 6a c5 9c 3c ec ab d6 3d 22 96 89 3c
       0.029178739 0.019137103 0.1048201 0.016795222
0000b0 1f e5 13 3e f6 d3 e4 bc 9b 98 bb 3d 8b 95 2d 3d
       0.14442872 -0.027933102 0.091599666 0.042378943
0000c0 01 78 4f 3d a3 11 ee 3c fe d0 80 3d 43 39 65 3d
       0.050651554 0.029061144 0.06289862 0.055962812
0000d0 f9 cf f0 bc b1 59 fc bd 39 d6 28 3c b9 c8 f6 3d
       -0.029396044 -0.12321795 0.010304981 0.120500036
0000e0 93 b7 aa 3d fe d5 f9 3d 78 cd 1d 3e 3a db 5a 3d
       0.08335795 0.12199019 0.15410411 0.053431727
0000f0 09 90 5d 3a 65 aa da bc df 4c 6e 3d ab 10 85 bd
       0.0008451944 -0.026692579 0.05817878 -0.0649732
000100 87 d0 71 3d 77 43 0e 3e 45 24 2e 3e 87 af 41 bc
       0.059036758 0.13892923 0.17006023 -0.011821634
000110 f8 91 fe 3b 42 0e 23 bd cd d6 7b 3d 20 72 01 bc
       0.0077688657 -0.03980852 0.061484147 -0.007900745
000120 05 b2 32 bd ff d6 b6 bd 95 58 d0 3c 21 79 02 3e
       -0.043626804 -0.08927726 0.025432864 0.1274152
000130 81 dc 23 bc dc 57 e5 bc 10 ab 13 bb 00 3d 56 3d
       -0.010001303 -0.027995996 -0.002253238 0.052304268
000140 e9 20 a0 3d e4 63 fc bb df a3 ac 3d 9b 23 b3 3a
       0.07818777 -0.0077023376 0.084296934 0.0013667227
000150 03 77 25 3d 70 e6 cc bc 90 94 9a bd b5 1e 5b 3d
       0.0403967 -0.025012225 -0.07547867 0.05349608
000160 8a f3 bf 3d 5d 47 8e 3d b4 5b 80 3d f8 fc 08 3b
       0.09372623 0.06947205 0.06267491 0.0020902734
000170 2b a5 02 bd c9 41 ad bd b8 55 91 3d 6e dd b0 bd
       -0.031895798 -0.08459813 0.07096428 -0.08635984
000180 42 ad 4c bd db 55 d0 3d 33 4a d4 3c 51 51 6a 3d
       -0.04996992 0.10172626 0.025914287 0.057206456
000190 32 7c 89 3d ee 6a 24 3c 23 86 97 3d eb 71 43 bd
       0.067131415 0.01003526 0.073986314 -0.047716063
0001a0 3f f9 46 3d 0c 68 9f 3d ae 42 aa 3d b3 0a c3 3c
       0.048577543 0.07783517 0.083134994 0.023808813
0001b0 32 71 8c 3d ed cb 05 3e b6 71 0b 3e f4 39 5f bd
       0.06857528 0.13066073 0.13617596 -0.054498628
0001c0 05 74 97 bc 5b dc 66 3d cc 13 07 bc cd 9b e1 3d
       -0.01848794 0.05636249 -0.008244466 0.11016045
0001d0 e7 db fe 3d fe 7f cf 3d da 73 13 3d 40 c4 8a bc
       0.12444287 0.101318344 0.035999157 -0.016939282
0001e0 7e 73 0e 3e 63 25 01 bb cd 09 47 bd 80 26 44 bd
       0.13911244 -0.0019706122 -0.04859333 -0.04788828
0001f0 0b c5 38 39 0d 62 95 3c ec 32 f2 bd cf 2c d3 3d
       0.00017621012 0.01823523 -0.11826119 0.10311281
000200 b5 e4 3e 3d 0f 42 1c 3d 60 1c 6b bd 4b 88 07 3d
       0.04660483 0.038148936 -0.057400107 0.033088963
000210 0e a1 f7 3c b6 e1 c9 3d fd e2 19 3e b0 02 3c 3d
       0.030228164 0.09857504 0.15027995 0.045901
000220 b3 c8 31 bd 08 75 a1 bd cb 91 31 3d fb a5 d7 3b
       -0.043404292 -0.0788365 0.04335193 0.0065810657
000230 cc 41 b1 bd 14 d3 fc bd e7 8d 74 3d 3e 02 df 3d
       -0.08655128 -0.123449475 0.05970564 0.108890995
000240 f0 52 67 3d 25 e0 03 bc 4f 58 b2 3d f3 83 92 3d
       0.05647558 -0.008049046 0.0870825 0.071540736
000250 78 c3 8a bc 24 c9 8e 3d ca 8c b9 3d 2e bc bf 3d
       -0.01693891 0.06971958 0.090600565 0.09362064
000260 3c aa c4 3d 1d 4e 1f 3c 9c 7e 3e 3d 67 c1 11 3c
       0.09602782 0.0097232135 0.046507463 0.008896208
000270 0f ff ef 3d 5b 48 93 bb ea 05 6e 3c 77 88 e6 3d
       0.117185704 -0.0044947094 0.014527777 0.11256497
000280 9f 99 96 bc 1e d1 91 3d 4b 21 d0 3d e9 98 0b 3e
       -0.0183838 0.07119964 0.101626 0.1363255
000290 77 3d ec 3d ca 99 d7 3c 74 cd 21 3d a3 23 07 3e
       0.11535161 0.02631845 0.039502576 0.13197188
0002a0 83 4e c8 3c b7 74 7e bd 9d e0 9b 3d 65 28 72 3b
       0.0244515 -0.062123027 0.07611201 0.0036950347
0002b0 38 43 e5 3d a1 0d 6d 3e c8 c4 56 bc 7a 51 df 3d
       0.111944616 0.2314973 -0.01310844 0.10904212
0002c0 8a d5 8d 3d 38 41 14 bc e5 f9 4f 3d 38 b8 ea 3d
       0.06925495 -0.0090487525 0.050775427 0.11460918
0002d0 87 3b 8a bd 2d 9a 6f bc e4 2b 0e 3d 8b d2 4c 3d
       -0.06749635 -0.014624161 0.034709826 0.050005477
0002e0 3b 55 9c 3c 19 76 82 3d 81 a4 79 3d 5c a7 32 bd
       0.01908361 0.063701816 0.0609479 -0.043616638
0002f0 1b 73 19 3c 1d 7d 09 3c 25 a6 28 3c 8a a9 ce 3c
       0.009365822 0.008391646 0.010293518 0.025227327
000300 09 39 aa 3d 0d f8 a3 3d 5c 90 85 3d 58 dc 9c 3d
       0.0831166 0.08006296 0.06521675 0.07659215
000310 c2 78 97 b8 16 1e 9c 3c 01 44 f8 bd 64 c8 c9 3c
       -7.222734e-05 0.019057315 -0.12122346 0.024631687
000320 3b 44 0d be c2 9f 33 be 23 a2 e8 bd a4 f3 8a be
       -0.13795559 -0.17541412 -0.1135905 -0.27139008
000330 9a f3 a6 be 1c e9 65 be 4c 44 f5 bd fc 1b c0 bd
       -0.32607728 -0.22452205 -0.11975917 -0.093803376
000340 fb 7e cf 3b 9b 50 8e be 69 6e ca be c1 de ed be
       0.006332276 -0.27795872 -0.3953736 -0.4645901
000350 3e 54 a0 be 14 2b b9 be 7e 61 f1 bd 4b 57 42 be
       -0.31314272 -0.36165679 -0.11786173 -0.18978612
000360 a4 13 ba be 51 6a c5 be 91 cf 05 3e 4d 45 01 bf
       -0.3634311 -0.38557675 0.13067462 -0.5049637
000370 35 fa 80 bd 89 69 a4 be 00 ad 01 bf e1 58 bc be
       -0.06297723 -0.32111767 -0.506546 -0.3678656
000380 81 c0 e8 be c7 98 f9 be c1 bf 84 bd 25 07 87 be
       -0.4545937 -0.48749372 -0.06481887 -0.26372638
000390 44 77 92 bd 70 8a cd 3d d4 4a bc be 7c 73 36 bd
       -0.07151654 0.100361705 -0.3677584 -0.04454373
0003a0 e3 e5 a7 be dd 00 f4 be 2f cd fa 3c 10 19 a1 3d
       -0.32792577 -0.4765691 0.030615417 0.078661084
0003b0 11 ad 8d be a5 ad 81 bd 4d ed a2 bd 20 48 b8 be
       -0.27671102 -0.06331948 -0.07955418 -0.35992527
0003c0 83 c7 7d be 3f 42 ad be a1 39 62 be 28 b8 98 be
       -0.24783139 -0.33839604 -0.22092296 -0.29828
0003d0 9e 4f 77 be f4 ca 2f be c1 61 36 3d a3 4f f4 be
       -0.24151465 -0.17167264 0.04452682 -0.47717008
0003e0 68 42 2c be b2 3c 18 be 45 3c 32 3d a8 85 37 be
       -0.16822207 -0.14866903 0.04351451 -0.1792208
0003f0 2b dd 0d 3c 34 bb 57 bc 55 02 0d be f1 28 d5 be
       0.008658688 -0.013167191 -0.13770421 -0.41632798

rnn.bias_hh_l0 f4 [600]
000000 b3 e1 10 bb 42 6a 2c bd b5 49 ad 39 f0 6a 30 be
       -0.0022107183 -0.042093523 0.00033052047 -0.17228293
000010 36 b5 17 3e 2a 15 39 bd 4e e2 18 3d 68 7d 03 3d
       0.1481522 -0.0451862 0.037325196 0.03210202
000020 78 de 78 3b 94 04 a0 3d 1d 79 e4 3c ff ec 2d 3c
       0.0037974399 0.07813373 0.027889783 0.010615586
000030 16 b9 fa 3c ed b0 af bd cd 97 b5 3c 68 65 3f bc
       0.030605834 -0.08578668 0.02216711 -0.011681892
000040 d5 09 a1 3d b3 5f 07 3e 2f 01 9b 3d 4a 18 ba bc
       0.078632034 0.132201 0.07568585 -0.02271666
000050 88 0b b8 bc 77 d7 c6 3c f5 92 21 3e 0b c2 1e bd
       -0.022466436 0.024272664 0.15778716 -0.038759273
000060 0f dc b4 bb cf 21 88 3d 9d e8 81 3d 41 40 cf 3d
       -0.005519397 0.066470735 0.063431956 0.10119677
000070 f6 2a 0c be 3b 51 90 3d 82 1a 8b bd c3 c9 36 3d
       -0.13688263 0.070467435 -0.06792165 0.04462601
000080 78 3e 8b 3d 71 ee d5 3d 64 39 be bc 70 4b cc 3d
       0.06799024 0.1044587 -0.023220725 0.09975326
000090 c4 0f 81 3d 29 22 48 3d 9e 0a 84 3b 7b 89 76 3d
       0.06301835 0.048860703 0.004029586 0.060189705
0000a0 30 c2 55 3d 00 de 20 3d d0 e4 bb bc 15 bf 98 3d
       0.052187145 0.039274216 -0.022936255 0.07458321
0000b0 b2 5a ba 3d f2 8c 32 bb fd 28 cb 3d 96 ea 88 bc
       0.0909933 -0.0027244654 0.09919927 -0.016713422
0000c0 a3 98 d8 3d d3 13 84 3d 6b 51 c9 3a 03 f7 b9 3d
       0.10575988 0.06449094 0.0015359347 0.09080317
0000d0 96 2c 8f 3c 4e 19 21 be 22 3d 8b 3c 86 36 44 3d
       0.017477315 -0.15732309 0.016996924 0.04790356
0000e0 f3 04 a3 3c 4b 0e 18 3d 22 ef c4 3d fa d0 23 3e
       0.01989982 0.037123006 0.096159235 0.15997687
0000f0 4d 6e f6 3c bf 6f 56 bd 10 3e 30 bd 34 41 c9 bc
       0.030081892 -0.052352663 -0.043027937 -0.024567224
000100 9f 2e f8 3d 10 ce f5 3d 5f 04 eb 3d 80 19 a2 3d
       0.12118267 0.12002194 0.11475443 0.0791502
000110 0e e4 0b bd 2d b8 77 bc d0 91 33 bc 38 a6 ea bc
       -0.034153037 -0.0151195945 -0.010960057 -0.028643712
000120 e9 1e 40 bd 71 77 fa bc 66 7f b0 bc 30 37 26 3d
       -0.04690448 -0.030574532 -0.021545123 0.040579975
000130 d5 13 cb 3d 50 a4 51 3d ca e1 37 3d 60 80 01 3c
       0.09915892 0.05118209 0.044893064 0.007904142
000140 a6 ce 09 bc dd 02 7b 3d b0 3c 69 3d 31 61 1e 3d
       -0.008411085 0.061282028 0.05694264 0.038666908
000150 17 0a 28 bd 93 f1 7f ba 1e cf 8e bd 80 a4 49 3d
       -0.041025247 -0.00097634754 -0.06973098 0.049229145
000160 65 87 87 3c da 7e ff 3d b0 5e 27 3d a6 0a 07 bd
       0.016544053 0.12475367 0.040861785 -0.03296914
000170 82 dc ef bc 5f 4b e1 bd 0b ff 4f 3d c4 24 1c 3c
       -0.029279951 -0.11000704 0.050780337 0.00953025
000180 50 04 5d bc 99 60 72 3d a0 9c 65 3d 72 a7 22 bd
       -0.013489798 0.059174154 0.056057572 -0.03971047
000190 5f c6 ab 3c 04 76 6f bc 0e d0 3a bd 7b a2 71 3c
       0.020968614 -0.014615539 -0.045608573 0.014748211
0001a0 b4 b5 d0 3d 6d c8 ae 3d 6e c7 d1 3d 90 d8 a7 3c
       0.10190907 0.08534322 0.10243116 0.020489007
0001b0 ba 40 6e 3d 35 a9 e0 3d 14 f6 f8 3c bc 34 05 3d
       0.058167197 0.10969774 0.030390777 0.032520995
0001c0 3d a2 24 bd cd 43 38 3d 69 c2 87 3d 6f 7d fc 3d
       -0.040193785 0.044986535 0.06628878 0.12328612
0001d0 7f 81 9f 3d 8d 30 94 3d 76 77 d9 3d f6 f9 cd bc
       0.07788371 0.07235823 0.106184885 -0.025143605
0001e0 7c 07 82 3d 80 fb 19 bd 41 c9 30 bd e8 a8 f6 bc
       0.06349084 -0.037593365 -0.04316068 -0.030109838
0001f0 7d 6a d5 3c 58 c7 19 3d 26 68 1c bc 36 73 15 3e
       0.026051754 0.037543625 -0.009546315 0.1459473
000200 59 3f ec 3c 72 58 3c bd ac fe 63 bd c9 89 80 3d
       0.0288388 -0.045982786 -0.055662796 0.062762804
000210 77 3b 04 bd cf ac 20 3d 5c 9b 25 3e 7d 2b 75 3d
       -0.032283273 0.039227303 0.16172546 0.059855927
000220 8d 84 9e bd 6b 72 fd bc db fc 45 3d 0e 5d 09 3d
       -0.07740126 -0.030938348 0.048336845 0.03353601
000230 15 24 29 bd 49 dd 8f bb 57 88 37 bd 86 0b ea 3d
       -0.041294176 -0.004390393 -0.04480776 0.11427979
000240 18 1c b1 3c fd 20 32 bd 2d c0 99 3d 87 23 02 3c
       0.021619841 -0.04348849 0.07507358 0.007943041
000250 ed 8a 6b 3d 20 b6 1c 3d a0 56 1c 3c 44 f4 4e 3d
       0.057505537 0.038259625 0.009542137 0.05052592
000260 25 0f ed 3d ce cc dc bd ad f2 35 3d a7 26 91 bd
       0.11575154 -0.10781251 0.044420887 -0.070874505
000270 d6 a5 02 3e 64 de 2b 3d f9 45 85 3d ad 03 ca 3d
       0.12758574 0.041960135 0.06507487 0.09863982
000280 27 88 c9 bb 79 2f bf 3d a8 2a 7a 3d 99 31 e0 3d
       -0.006150264 0.093352266 0.061075836 0.1094696
000290 32 ba d3 3d 66 69 73 bd a2 57 b1 3b 58 c6 94 3d
       0.10338248 -0.059426688 0.005412058 0.072643936
0002a0 df 5b c1 3d 17 a8 ac bd e6 12 db 3d 55 8d 61 bd
       0.09441351 -0.08430498 0.10696964 -0.055066425
0002b0 e0 eb 70 3c 47 ef 33 3e f4 bc 8b 3c 54 82 cd 3d
       0.0147046745 0.17571746 0.017057873 0.10034624
0002c0 ba 7e eb 3d 3b 1d e7 bc 03 a6 29 3d 85 0e c3 3c
       0.114987805 -0.02821218 0.041418087 0.023810634
0002d0 fd 56 5d bd bd 49 8f bc d2 b4 80 ba a4 4d 18 bd
       -0.054038037 -0.017491216 -0.0009819514 -0.03718342
0002e0 38 bc 4e 3c 0d 39 f0 3c 86 29 95 3c 96 ec db bc
       0.012618117 0.029324079 0.018208276 -0.026846211
0002f0 1b bf 7f 3d 70 75 66 bd 73 3d 8c 3b f9 d5 83 bd
       0.06243811 -0.05626434 0.0042797863 -0.064372964
000300 7c 82 06 3e 13 5c a9 bc 3b e0 89 3d b2 4a ea bb
       0.13135713 -0.020673787 0.06732222 -0.0071500177
000310 ef 39 73 3d c7 f2 eb 3d 56 5a 7c bd 53 9e b6 3d
       0.05938142 0.115209155 -0.06160959 0.08916917
000320 3e fb 0b be 31 ec 26 be 85 70 ae bd bd b2 81 be
       -0.1367006 -0.16301037 -0.08517555 -0.2533168
000330 31 f3 b7 be e6 b5 42 be 0a c1 c4 bd 15 b5 30 be
       -0.35927728 -0.19014701 -0.09607132 -0.17256577
000340 81 3d 67 bd 1e dc a4 be 7c 63 d0 be 28 5b 09 bf
       -0.05645514 -0.32199186 -0.407009 -0.5365472
000350 e8 3c 76 be 60 38 dc be ae 49 d3 bd 4c cc 6a be
       -0.24046671 -0.4301176 -0.10316788 -0.22929496
000360 61 cf bb be b0 e7 d9 be 08 70 85 3d ff 93 01 bf
       -0.36681655 -0.42559576 0.06515509 -0.5061645
000370 7a 45 c5 bc 6a ab 90 be 96 e7 0e bf fa 90 bd be
       -0.02408098 -0.2825578 -0.5582212 -0.3702467
000380 d5 f2 d2 be f5 91 04 bf b4 1b 9b bd c8 45 55 be
       -0.4120089 -0.5178521 -0.07573643 -0.208274
000390 5e db ab bd c1 fd 98 3d 10 ff df be f6 9a 8d bd
       -0.0839145 0.07470275 -0.43749285 -0.06914322
0003a0 eb 3e 9b be cd a0 d1 be 39 7f 18 bd fa 43 b8 3d
       -0.3032144 -0.40942994 -0.037230704 0.089973405
0003b0 9f a1 91 be 5f b6 ad bc 4a 1d c2 bd 4d 0d a9 be
       -0.2844362 -0.021205125 -0.09478243 -0.3301796
0003c0 d9 43 80 be 84 06 b8 be 2b 8d 3a be 39 a2 b2 be
       -0.25051764 -0.3594247 -0.18217914 -0.3488939
0003d0 26 a3 68 be 59 53 0a be 99 60 29 3c 2d 26 e7 be
       -0.22718486 -0.13508357 0.010337972 -0.45146313
0003e0 c9 26 6a be bb 33 19 be fa ca ae 3c 9f 2d 42 be
       -0.22866358 -0.1496114 0.021337021 -0.18962716
0003f0 b2 fa d1 3c ba 35 e8 bc bd ed b2 bd 33 c6 bd be
       0.025632236 -0.028345931 -0.08736751 -0.37065277
