cyberbach_models/gru_limitcycle/results/model_checkpoint.pt (torch, 768355 bytes, 6 tensors)

output_weights.weight f4 [88, 200]
0	0xbdcdcb89	-0.10048587
1	0x3be4567a	0.0069683166
2	0x3d51afcd	0.051193047
3	0xbe333256	-0.1749967
4	0x3d13828a	0.036013164
5	0xbd28a1be	-0.041169874
6	0xbdac917e	-0.08426188
7	0xbd28ae83	-0.041182052
8	0xbe655dfb	-0.22399132
9	0x3d9cab75	0.0764989
10	0x3d505db4	0.050870612
11	0xbe1fa733	-0.15591125
12	0xbeb5f2b4	-0.3553673
13	0x3d7fae92	0.062422343
14	0x3e94cd00	0.29062653
15	0x3f18b019	0.59643704
16	0x3da55947	0.08073669
17	0xbe1ae9b8	-0.15128219
18	0xbe306839	-0.17227258
19	0xbd1e6574	-0.038670972
20	0x3ec4132d	0.3829588
21	0xbdd41792	-0.10356058
22	0x3cc6c973	0.02426598
23	0xbd9c1ac3	-0.07622292
24	0x3de976e0	0.11399627
25	0xbde61095	-0.112336315
26	0x3e9b3155	0.30311075
27	0xbe5d1c1b	-0.21592753
28	0x3e1c904b	0.15289418
29	0x3d92e814	0.07173172
30	0x3cd9e1bc	0.026596896
31	0x3e84aed4	0.25914633
32	0x3dba6065	0.09100417
33	0x3e964ad1	0.29353955
34	0xbc9d86ed	-0.019229377
35	0xbee6323d	-0.44960204
36	0xbe1f53e1	-0.15559341
37	0x3ce1303c	0.02748882
38	0x3d33c46a	0.043888487
39	0xbe4cdc0f	-0.2000582
40	0x396b84cf	0.00022460821
41	0xbe398c4d	-0.18119927
42	0x3d8ea63e	0.06965302
43	0xbdba6d0e	-0.09102832
44	0xbc68ebd1	-0.014216379
45	0x3ea99f2f	0.3312926
46	0x3e9cf1a9	0.30653122
47	0x3e2a0ba2	0.16606
48	0x3e128736	0.14309391
49	0x3d35bc8e	0.044369273
50	0xbd96f5dd	-0.073711134
51	0xbe48b3b3	-0.195998
52	0xbcbc0fb7	-0.022956712
53	0xbb721423	-0.0036938272
54	0xbd89ab19	-0.067220874
55	0x3e73dcc8	0.2381469
56	0x3dc66708	0.096876204
57	0x3d6e7b9d	0.058223356
58	0xbe012127	-0.12610303
59	0xbd17ab46	-0.037028573
60	0xbc405294	-0.011738438
61	0xbee1cdf4	-0.44102442
62	0xbed7c7f7	-0.4214475
63	0x3e0e8b1e	0.13920256
64	0xbd28b3e9	-0.0411872
65	0x3b639020	0.0034723356
66	0x3e82b06f	0.25525233
67	0x3eb920d4	0.36157858
68	0xbc712d60	-0.014720291
69	0xbc173fd9	-0.009231531
70	0xbd6f11b0	-0.058366477
71	0xbe0c34bd	-0.13691993
72	0xbe5ca921	-0.21548893
73	0x3ea926a3	0.3303729
74	0xbca10ab6	-0.019658428
75	0x3e249999	0.16074218
76	0x3db4e947	0.088335566
77	0x3d4a0c98	0.049328417
78	0x3c253363	0.010083052
79	0x3e022400	0.12709045
80	0xbedda653	-0.43290958
81	0xbc84792f	-0.016171066
82	0xbcc3ffdb	-0.023925712
83	0x3e5d4010	0.21606469
84	0x3d6b1879	0.057396386
85	0xbdda8ce0	-0.10671401
86	0x3bcf3a31	0.0063240756
87	0xbbb4b7db	-0.0055150813
88	0x3e7ab2db	0.2448229
89	0xbe619b2b	-0.22031848
90	0x3e425943	0.18979363
91	0x3dfbb751	0.12290824
92	0x3d424947	0.047433164
93	0x3e470c92	0.19438389
94	0xbde0ea16	-0.10982148
95	0xbe4a9cb4	-0.1978634
96	0xbd86ba66	-0.065785214
97	0xb9e9828a	-0.00044538482
98	0xbbdb16e3	-0.006686078
99	0xbdc165b0	-0.094432235
100	0x3e0a5eef	0.13512777
101	0x3ddfc36a	0.10925944
102	0x3d82fe2b	0.06396135
103	0xbdf2154a	-0.11820467
104	0x3cd09a60	0.025464237
105	0xbd519313	-0.05116565
106	0xbe03311e	-0.12811705
107	0xbd4fbf74	-0.050719693
108	0xbcc2902a	-0.023750383
109	0x3ced9d0a	0.029005546
110	0x3f1e0997	0.6173338
111	0xbe8b0044	-0.2714864
112	0xbe36de5f	-0.17858265
113	0xbe8bb044	-0.27282917
114	0xbe182e1a	-0.14861336
115	0xbe47fba4	-0.19529587
116	0x3dfaaf9a	0.122405246
117	0xbef1ff67	-0.4726517
118	0x3e572330	0.21009517
119	0xbdddaf00	-0.10824394
120	0xbd6e3d0e	-0.058163695
121	0xbe9c3820	-0.3051157
122	0x3e5520d4	0.20813304
123	0xbe0000b8	-0.12500274
124	0xbe4c332d	-0.19941397
125	0x3d7e8824	0.062141553
126	0xbe33cde1	-0.17559005
127	0xbdc6b2b1	-0.097020514
128	0xbd229dbd	-0.039701212
129	0xbe90a679	-0.2825201
130	0xbe1853a3	-0.14875655
131	0xbe7fdabd	-0.24985786
132	0xbde36f28	-0.11105186
133	0xbde8b2fd	-0.11362264
134	0xbd9492cd	-0.072545625
135	0xbcaeee73	-0.021353936
136	0x3e0d5715	0.1380275
137	0xbd3a1a61	-0.045435313
138	0x3e6cac48	0.23112595
139	0xbedabc19	-0.42721632
140	0x3e9e354b	0.30900034
141	0x3e2b212c	0.16711873
142	0x3d853639	0.06504483
143	0x3d9c63db	0.076362334
144	0x3d12b359	0.03581557
145	0xbe4606fe	-0.19338605
146	0x3e249776	0.16073403
147	0x3ea57d4d	0.3232216
148	0x3b366d24	0.002783605
149	0xbdd933cc	-0.106055826
150	0x3da5690f	0.08076679
151	0x3c3db4ff	0.011578797
152	0x3edb3199	0.42811278
153	0xbe2b8323	-0.16749243
154	0xbe1a8978	-0.15091503
155	0xbe715fac	-0.23571652
156	0x3d20b810	0.039238036
157	0x3e90929e	0.2823686
158	0x3d95e00d	0.07318125
159	0xbd3f479b	-0.046699148
160	0x3d72e987	0.05930474
161	0xbdf3be7f	-0.119015686
162	0x3dce76d5	0.10081259
163	0xbd35cb44	-0.044383302
164	0xbd8299de	-0.06377004
165	0xbd0d6ebc	-0.034529433
166	0x3df7c1cb	0.1209751
167	0xbcd7ef70	-0.02635929
168	0xbba54417	-0.0050435173
169	0x3c4e5fde	0.012596099
170	0x3d190116	0.03735455
171	0x3e089974	0.13339788
172	0xbc4867ce	-0.01223178
173	0x3c284055	0.010269244
174	0xbe2e9db2	-0.17052343
175	0xbec79a1b	-0.3898476
176	0x3eba70d5	0.3641421
177	0x3dc61c22	0.09673335
178	0xbc8aceeb	-0.01694437
179	0xbcc5ac75	-0.024130085
180	0xbe1a4ddf	-0.15068768
181	0xbe1acc28	-0.15116942
182	0xbe0fcfc4	-0.140441
183	0xbda9b4e2	-0.08286454
184	0xbd90f98a	-0.07078846
185	0x3df866d9	0.12128992
186	0x3dd5b00b	0.10433968
187	0x3c048d82	0.008090379
188	0x3ec2717a	0.379772
189	0xbdd493f3	-0.103797816
190	0xbe5ca9d1	-0.21549155
191	0x3d9dead2	0.07710804
192	0xbda71a50	-0.081593156
193	0x3de0d435	0.10977975
194	0xbe210d79	-0.15727796
195	0x3dc7cccc	0.09755859
196	0xbdc8c4ed	-0.098031856
197	0x3df89651	0.121380456
198	0x3ec0c9ff	0.3765411
199	0x3c620600	0.013795376
200	0xbdcdcb88	-0.10048586
201	0x3be45680	0.0069683194
202	0x3d51afcc	0.051193044
203	0xbe333256	-0.1749967
204	0x3d13828a	0.036013164
205	0xbd28a1bd	-0.04116987
206	0xbdac917f	-0.08426189
207	0xbd28ae84	-0.041182056
208	0xbe655dfb	-0.22399132
209	0x3d9cab76	0.07649891
210	0x3d505db4	0.050870612
211	0xbe1fa733	-0.15591125
212	0xbeb5f2b5	-0.35536733
213	0x3d7fae92	0.062422343
214	0x3e94ccff	0.2906265
215	0x3f18b01a	0.5964371
216	0x3da55947	0.08073669
217	0xbe1ae9b8	-0.15128219
218	0xbe306838	-0.17227256
219	0xbd1e6574	-0.038670972
220	0x3ec4132b	0.38295874
221	0xbdd4178f	-0.10356056
222	0x3cc6c975	0.024265984
223	0xbd9c1ac3	-0.07622292
224	0x3de976e0	0.11399627
225	0xbde61096	-0.11233632
226	0x3e9b3155	0.30311075
227	0xbe5d1c1c	-0.21592754
228	0x3e1c904c	0.1528942
229	0x3d92e813	0.07173171
230	0x3cd9e1be	0.0265969
231	0x3e84aed4	0.25914633
232	0x3dba6065	0.09100417
233	0x3e964ad1	0.29353955
234	0xbc9d86ef	-0.01922938
235	0xbee6323d	-0.44960204
236	0xbe1f53e0	-0.1555934
237	0x3ce1303b	0.027488818
238	0x3d33c469	0.043888483
239	0xbe4cdc0f	-0.2000582
240	0x396b8557	0.0002246102
241	0xbe398c4e	-0.18119928
242	0x3d8ea640	0.069653034
243	0xbdba6d0d	-0.09102831
244	0xbc68ebd0	-0.014216378
245	0x3ea99f2f	0.3312926
246	0x3e9cf1a9	0.30653122
247	0x3e2a0ba2	0.16606
248	0x3e128736	0.14309391
249	0x3d35bc91	0.044369284
250	0xbd96f5dd	-0.073711134
251	0xbe48b3b3	-0.195998
252	0xbcbc0fb3	-0.022956705
253	0xbb721416	-0.0036938242
254	0xbd89ab1a	-0.06722088
255	0x3e73dcc9	0.23814692

output_weights.bias f4 [88]
0	0xbd51e70c	-0.051245734
1	0xbd51e70c	-0.051245734
2	0xbd51e70c	-0.051245734
3	0xbd51e70c	-0.051245734
4	0xbd51e70d	-0.051245738
5	0xbd51e70c	-0.051245734
6	0xbd51e70e	-0.05124574
7	0xbd51e70c	-0.051245734
8	0xbd51e70e	-0.05124574
9	0xbd51e70c	-0.051245734
10	0xbd51e70c	-0.051245734
11	0xbd51e70c	-0.051245734
12	0xbd51e70c	-0.051245734
13	0xbd51e70c	-0.051245734
14	0xbd51e70d	-0.051245738
15	0xbd51e70c	-0.051245734
16	0xbd51e70c	-0.051245734
17	0xbd51e70c	-0.051245734
18	0xbd51e70d	-0.051245738
19	0xbd51e70d	-0.051245738
20	0xbd51e70c	-0.051245734
21	0xbd51e70c	-0.051245734
22	0xbdbbc388	-0.09168154
23	0xbd51e70e	-0.05124574
24	0xbd51e70c	-0.051245734
25	0xbe0df43a	-0.13862696
26	0xbd51e70c	-0.051245734
27	0xbef74abd	-0.48299208
28	0xbe0d4294	-0.13794929
29	0xbeff062a	-0.4980939
30	0xbf0c2bf8	-0.5475459
31	0xbed52c09	-0.4163516
32	0xbe972c67	-0.29526064
33	0xbec32e7e	-0.38121408
34	0xbe5022d2	-0.20325783
35	0xbea71c2c	-0.3263868
36	0xbedd380e	-0.4320683
37	0xbe90c47e	-0.28274912
38	0xbe43641b	-0.19081156
39	0xbdb440e1	-0.08801437
40	0xbeb45b0b	-0.3522571
41	0xbddf0398	-0.10889357
42	0xbc0eb578	-0.008710258
43	0xbe2e5327	-0.17023908
44	0x3dc7523e	0.09732483
45	0xbf008412	-0.50201523
46	0x3e7d4788	0.24734318
47	0x3e198432	0.14991835
48	0x3da5b3d0	0.08090937
49	0x3df72185	0.1206694
50	0xbd8761a9	-0.06610424
51	0x3e8dfafd	0.2773055
52	0xbe416d2f	-0.18889306
53	0x3e3514b8	0.17683685
54	0x3cb9edca	0.022696394
55	0x3b8137af	0.0039434056
56	0x3e9d2909	0.3069537
57	0xbeeaec8e	-0.45883602
58	0x3e7d8404	0.24757391
59	0x3e00e559	0.12587489
60	0xbbdf6db8	-0.0068184994
61	0x3db0d5fb	0.086345635
62	0xbe8028de	-0.2503118
63	0x3e0234cb	0.12715451
64	0xbe61b844	-0.22042948
65	0xbc737978	-0.014860503
66	0xbc1ad3c0	-0.009449899
67	0xbdab2cad	-0.083581306
68	0xbf0240f1	-0.5088034
69	0xbebb5c0c	-0.36593664
70	0xbd8c6c95	-0.06856648
71	0xbefe253e	-0.4963779
72	0xbe9748c6	-0.2954771
73	0xbebba5ab	-0.36649832
74	0xbe549f3e	-0.20763871
75	0xbe42c0b8	-0.19018829
76	0xbd51e70c	-0.051245734
77	0xbd51e70c	-0.051245734
78	0xbd51e70d	-0.051245738
79	0xbd51e70c	-0.051245734
80	0xbd51e70d	-0.051245738
81	0xbd51e70c	-0.051245734
82	0xbd51e70d	-0.051245738
83	0xbd51e70c	-0.051245734
84	0xbd51e70d	-0.051245738
85	0xbd51e70c	-0.051245734
86	0xbd51e70c	-0.051245734
87	0xbd51e70c	-0.051245734

rnn.weight_ih_l0 f4 [600, 88]
0	0x00011836	1.00521e-40
1	0x0001379d	1.11786e-40
2	0x0001835d	1.3896e-40
3	0x00011e28	1.02654e-40
4	0x00013a60	1.12777e-40
5	0x0001f099	1.78146e-40
6	0x80013e7d	-1.14252e-40
7	0x80003d1b	-2.192e-41
8	0x0002142c	1.90907e-40
9	0x00021e6c	1.94584e-40
10	0x8001b5fa	-1.57116e-40
11	0x00013f5d	1.14566e-40
12	0x800163e1	-1.27665e-40
13	0x8001cfcf	-1.66383e-40
14	0x80015378	-1.21778e-40
15	0x80018c52	-1.42173e-40
16	0x00005bea	3.2973e-41
17	0x0000bfa6	6.875e-41
18	0x8001b52d	-1.56829e-40
19	0x8001d6d0	-1.68896e-40
20	0x0000ffc6	9.1754e-41
21	0x80012e92	-1.08542e-40
22	0xba46ceba	-0.0007583905
23	0x80017746	-1.34623e-40
24	0x80015d47	-1.25297e-40
25	0x3f04b0d0	0.51832294
26	0x8001fee7	-1.83277e-40
27	0x3d8819e8	0.06645566
28	0x3f50e9d4	0.81606793
29	0xbe8e71d8	-0.2782123
30	0xbe76e897	-0.24112163
31	0xbe9e350c	-0.30899847
32	0x3d7fa681	0.06241465
33	0xbe140e8f	-0.14458679
34	0x3e371052	0.1787732
35	0x3f06f8a9	0.52723175
36	0x3f18e91e	0.5973071
37	0xbda9bb8d	-0.082877256
38	0x3de71948	0.11284119
39	0x3dedf426	0.11618833
40	0x3d543ae0	0.05181396
41	0xbcdaf487	-0.026727928
42	0x3e44122e	0.1914756
43	0x3cdd4d81	0.027014496
44	0xbc8b4255	-0.016999403
45	0xbf34b8e4	-0.7059462
46	0x3e067c03	0.13133244
47	0x3dd9c713	0.106336735
48	0x3ce04202	0.027375225
49	0x3cfabd6f	0.030607907
50	0x3dc00cdf	0.09377455
51	0x3ebb462d	0.36576977
52	0xbf0780fa	-0.5293118
53	0xbdd9c71a	-0.10633679
54	0xbd9a0e55	-0.07522265
55	0x3e1cf21e	0.15326735
56	0x3c8fa5a0	0.01753503
57	0xbdc58bfd	-0.09645841
58	0xbe1ad45c	-0.15120071
59	0x3d37799b	0.044793706
60	0x3d391f59	0.04519591
61	0xbe700d55	-0.23442586
62	0xbe58f94b	-0.21188848
63	0xbdb653d7	-0.0890271
64	0x3eef6b0b	0.46761355
65	0xbeab8d46	-0.3350622
66	0xbe77c7ed	-0.2419736
67	0x3eaf247b	0.3420752
68	0x3ee6265a	0.44951135
69	0x3f47cd21	0.78047377
70	0xbf4f6ab0	-0.8102217
71	0x3edf944c	0.4366783
72	0xbe82dda4	-0.25559723
73	0xbf17bf34	-0.5927613
74	0xbf1730ad	-0.5905865
75	0x3eb9b247	0.36268827
76	0x00015d44	1.25293e-40
77	0x0001f862	1.80938e-40
78	0x0000f6a2	8.8475e-41
79	0x00015656	1.22807e-40
80	0x80003f11	-2.2624e-41
81	0x0000cd59	7.3665e-41
82	0x80008f3e	-5.1386e-41
83	0x0001788f	1.35084e-40
84	0x80022b8a	-1.9929e-40
85	0x8001d6ac	-1.68845e-40
86	0x8001e1b7	-1.72807e-40
87	0x00019234	1.44283e-40
88	0x80012728	-1.05882e-40
89	0x80012ee8	-1.08662e-40
90	0x80012b61	-1.07397e-40
91	0x0002235b	1.96354e-40
92	0x8000a5cb	-5.9475e-41
93	0x0001b709	1.57496e-40
94	0x0001f5a5	1.79956e-40
95	0x80007672	-4.249e-41
96	0x80010ed5	-9.7156e-41
97	0x800140c1	-1.15065e-40
98	0x0000d27a	7.5505e-41
99	0x0001e327	1.73322e-40
100	0x00007364	4.1394e-41
101	0x000177ad	1.34767e-40
102	0x80012da6	-1.08211e-40
103	0x8000834e	-4.7103e-41
104	0x8001d7cc	-1.69249e-40
105	0x00023986	2.04307e-40
106	0x00015688	1.22877e-40
107	0x80019848	-1.46464e-40
108	0x000108aa	9.4944e-41
109	0x0001e08e	1.7239e-40
110	0x3c90b54c	0.017664574
111	0x0001a6d7	1.51686e-40
112	0x80019c6f	-1.47953e-40
113	0xbf48681a	-0.78283846
114	0x80008e54	-5.1058e-41
115	0xbef291eb	-0.47376952
116	0xbeb4cfdd	-0.35314837
117	0x3eae0318	0.33986735
118	0x3f077561	0.5291348
119	0x3f5de985	0.8668445
120	0x3dc7e15f	0.09759783
121	0x3e6f7ee8	0.23388255
122	0x3eb0f06a	0.3455842
123	0x3e89b9af	0.26899478
124	0xbe0bd1e5	-0.13654287
125	0xbe9cb7cb	-0.30608973
126	0x3e577ef9	0.2104453
127	0x3d18e4a2	0.037327416
128	0xbf6c9bfb	-0.9242551
129	0xbda6c125	-0.08142308
130	0xbdb28817	-0.08717363
131	0xbe2774f8	-0.16353214
132	0xbe283980	-0.16428185
133	0x3de8abd7	0.11360901
134	0x3e4dc1d7	0.20093475
135	0x3df516ce	0.1196724
136	0x3df29d0a	0.11846359
137	0xbe3e0573	-0.18556766
138	0x3f52c2a6	0.8232826
139	0xbeba3229	-0.36366394
140	0xbd6d3594	-0.057912424
141	0xbd569d18	-0.05239591
142	0x3dcec1ac	0.10095534
143	0x3dfbda43	0.122974895
144	0x3d443e6b	0.04791109
145	0x3e8b8960	0.27253246
146	0x3eaef5f3	0.3417202
147	0xbe768921	-0.24075748
148	0xbe3ac18f	-0.18237899
149	0x3ed951fc	0.42445362
150	0xbda2fc34	-0.0795826
151	0x3eb1223d	0.34596434
152	0xbd61910b	-0.055069964
153	0x3f149528	0.58040094
154	0xbd059913	-0.032616686
155	0x3e1da364	0.1539436
156	0xbeaab2e3	-0.33339605
157	0xbf25f72f	-0.648303
158	0xbe94966a	-0.29021007
159	0x3d99ba30	0.075062156
160	0xbebd848d	-0.3701519
161	0xbe23a611	-0.15981318
162	0x3edc5d39	0.43039873
163	0x3e9bf980	0.3046379
164	0x000221d9	1.95813e-40
165	0x8001dc19	-1.70792e-40
166	0x8000d3a8	-7.5928e-41
167	0x80020110	-1.84052e-40
168	0x8001b948	-1.58302e-40
169	0x0000f68b	8.8443e-41
170	0x8001f287	-1.78838e-40
171	0x80013396	-1.10341e-40
172	0x80011b5b	-1.01649e-40
173	0x0000afd9	6.3082e-41
174	0x8000687c	-3.7482e-41
175	0x0001e6e6	1.74666e-40
176	0x80017431	-1.33517e-40
177	0x80006c30	-3.881e-41
178	0x00017752	1.3464e-40
179	0x80006329	-3.5572e-41
180	0x80013fd7	-1.14737e-40
181	0x80015dca	-1.2548e-40
182	0x80019868	-1.46509e-40
183	0x80016981	-1.29683e-40
184	0x000007e0	2.825e-42
185	0x80011a6d	-1.01315e-40
186	0x8001e6d5	-1.74642e-40
187	0x0001fd4e	1.82704e-40
188	0x8001ce14	-1.65762e-40
189	0x80010181	-9.2375e-41
190	0x8001044d	-9.3378e-41
191	0x800039fb	-2.08e-41
192	0x800182d2	-1.38765e-40
193	0x80013d93	-1.13924e-40
194	0x0001c8e0	1.63896e-40
195	0x000184a8	1.39424e-40
196	0x000128fd	1.0654e-40
197	0x0001c25c	1.61559e-40
198	0xbe6062a5	-0.2191263
199	0x8001fcc7	-1.82515e-40
200	0x00013a2e	1.12706e-40
201	0x3e83210c	0.2561115
202	0x80005761	-3.1346e-41
203	0x3e1ccfa5	0.15313585
204	0x3cff68df	0.031177936
205	0x3df07afa	0.11742206
206	0xbe22e245	-0.15906627
207	0xbd7db2ce	-0.0619381
208	0xbd3ff67d	-0.04686593
209	0xbebba25f	-0.36647317
210	0x3e1b10f0	0.1514318
211	0x3f21ca4f	0.63199323
212	0xbebf6082	-0.37378317
213	0xbe6bd2ab	-0.23029582
214	0x3f3526bb	0.70762223
215	0x3d7db402	0.061939247
216	0x3ede1685	0.43376556
217	0x3dfb8fe7	0.122833066
218	0xbf765b3e	-0.96232975
219	0xbd89a676	-0.06721203
220	0xbef7e1e0	-0.48414516
221	0x3e903b5f	0.28170297
222	0xbe96b523	-0.2943507
223	0x3f2a13bd	0.6643637
224	0x3de255a4	0.11051491
225	0xbe432f63	-0.19061045
226	0x3e51530a	0.20441833
227	0xbe8cdf5a	-0.27514154
228	0x3e0bd9c0	0.13657284
229	0x3e78a746	0.2428256
230	0xbdf23892	-0.11827196
231	0x3d859d9d	0.06524203
232	0xbed3efe0	-0.41393948
233	0xbec56aeb	-0.38558134
234	0xbe763fe0	-0.24047804
235	0x3eb66e9c	0.35631263
236	0xbe6b06f5	-0.22951873
237	0xbea5ce04	-0.3238374
238	0x3c0f9981	0.0087646255
239	0x3cea909e	0.028633412
240	0x3e3f27b0	0.18667483
241	0x3e3cde86	0.18444261
242	0x3e7e5c2e	0.24839851
243	0xbe278d33	-0.16362457
244	0x3e0d4b78	0.1379832
245	0x3db99034	0.09060708
246	0xbf084b08	-0.5323949
247	0x3eb6aedb	0.3568028
248	0xbe6509d2	-0.22367027
249	0x3eb2dd28	0.34934354
250	0xbd61eedc	-0.055159435
251	0x3ece7ece	0.4033112
252	0x80013d19	-1.13753e-40
253	0x8001600f	-1.26295e-40
254	0x00012856	1.06305e-40
255	0x0001e7b7	1.74959e-40

rnn.weight_hh_l0 f4 [600, 200]
0	0x3d10e6e2	0.035376437
1	0x3dfcf9d9	0.12352342
2	0x3da34fb6	0.07974188
3	0xbdb27029	-0.08712799
4	0xbe09272b	-0.13393848
5	0xbdbcf28e	-0.09225951
6	0xbd9b052f	-0.07569348
7	0xbe40b354	-0.18818408
8	0xbdeede90	-0.11663544
9	0x3e3a3ed0	0.18188024
10	0x3c82023a	0.015870202
11	0x3d4091ec	0.047014162
12	0xbdbed13d	-0.09317253
13	0x3e150cb0	0.14555621
14	0x3d461c47	0.04836681
15	0xbe12c82d	-0.14334174
16	0x3dd7cf33	0.10537567
17	0xbd243f01	-0.040099148
18	0x3c84a2f2	0.01619098
19	0x3d8ef110	0.06979573
20	0xbc84a6b3	-0.01619277
21	0xbe123faf	-0.14282106
22	0x3e0dbf9a	0.13842621
23	0xbd9a28aa	-0.07527287
24	0x3db737fa	0.089462236
25	0x3e067e82	0.13134196
26	0x3de7a49d	0.11310694
27	0x3dd3092e	0.10304485
28	0x3e77a83a	0.24185267
29	0x3d92f291	0.07175172
30	0xbdc8c600	-0.098033905
31	0xbcfa372b	-0.030543884
32	0xbde34366	-0.110968396
33	0xbd3f3685	-0.046682853
34	0x3d3bdc4d	0.045864392
35	0x3c09515e	0.008381216
36	0x3c94b9f8	0.018155083
37	0xbdc19ca4	-0.09453705
38	0x3cbadb05	0.022809515
39	0xbda81146	-0.0820642
40	0x3c92c00a	0.017913837
41	0x3cae585e	0.021282371
42	0x3e8f026b	0.27931532
43	0xbce1c70b	-0.027560731
44	0xbe17236f	-0.1475961
45	0x3cca83a1	0.024720969
46	0xbe33d6ff	-0.17562483
47	0x3d6824f6	0.056675874
48	0xbd722e60	-0.059126258
49	0x3db31f9f	0.087462656
50	0x3c978fb4	0.01850114
51	0x3e027901	0.12741472
52	0x3e24aebd	0.16082282
53	0xbe20632e	-0.15662834
54	0xbd1fef79	-0.03904674
55	0x3bab37f8	0.005225178
56	0xbe5bac17	-0.21452366
57	0xbda05e78	-0.078305185
58	0x3cc49704	0.023997791
59	0x3d1e1a89	0.038599525
60	0x3d95f814	0.07322708
61	0xbcbe5f30	-0.023238748
62	0xbdb3307c	-0.08749482
63	0x3dd948cb	0.10609587
64	0xbdfaea70	-0.12251747
65	0xbd107f83	-0.035277855
66	0x3d08fa40	0.033441782
67	0x3d62bacf	0.055353936
68	0xbdb78817	-0.08961504
69	0xbe858538	-0.260782
70	0x3e2272dc	0.15864128
71	0xbe9ffe18	-0.31248546
72	0x3dd14927	0.10219031
73	0x3e103fdc	0.1408686
74	0x3dd3db58	0.10344571
75	0xbd7abccc	-0.061215207
76	0x3c4f508e	0.012653483
77	0xbdbcc595	-0.09217373
78	0xbcf1ee08	-0.029532447
79	0x3df29b62	0.11846043
80	0xbcd68780	-0.026187658
81	0xbd944428	-0.07239562
82	0xbd389149	-0.04506043
83	0xbd6fa007	-0.058502223
84	0x3dd3070d	0.10304079
85	0x3b032737	0.0020012388
86	0xbdd87210	-0.10568631
87	0x3e10d2fa	0.14142981
88	0x3db28326	0.08716421
89	0x3d21d7f0	0.039512575
90	0x3dacc0e1	0.08435226
91	0x3b2bfe1e	0.0026243995
92	0x3cec95ae	0.028879967
93	0xbd55cda0	-0.052198052
94	0x3d69abaa	0.057048477
95	0x3d91c77e	0.07118128
96	0x3c06ec19	0.008235001
97	0x3e834fff	0.2564697
98	0x3dc07740	0.09397745
99	0x3d748e23	0.059705865
100	0xbdc582d1	-0.09644092
101	0x3d98d4d9	0.074624725
102	0x3d4c9cc3	0.049954187
103	0xbe1a00bb	-0.15039341
104	0xbdc881a0	-0.09790349
105	0x3db0b1c1	0.08627654
106	0x3de316be	0.11088322
107	0xbc8788fb	-0.01654481
108	0x3d3d0ce4	0.04615487
109	0x3d92f42d	0.07175479
110	0x3cc1338e	0.023584154
111	0xbe226319	-0.15858115
112	0xbdce6820	-0.10078454
113	0xbd0336c8	-0.032034665
114	0x3e3ef5b8	0.18648422
115	0xbd4a0c4a	-0.049328126
116	0x3d5fc1ec	0.054628298
117	0xbda83481	-0.08213139
118	0x3e1bc31f	0.15211152
119	0xbd5c42be	-0.053774588
120	0x3da8d9c8	0.082446635
121	0xbdb7c865	-0.08973769
122	0x3d960fc8	0.07327229
123	0x3dd6d400	0.104896545
124	0x3d2043c7	0.039127138
125	0xbe26d70d	-0.16292973
126	0xbdaad0aa	-0.08340581
127	0x3dd5a03e	0.104309544
128	0x3d373b25	0.04473414
129	0xbbdf3a3a	-0.006812361
130	0x3d273029	0.040817413
131	0x3c845ca7	0.016157461
132	0x3df7e2a3	0.121037744
133	0xbe6244f5	-0.22096618
134	0x3ddf2a61	0.10896755
135	0x3e184e05	0.14873512
136	0x3d18914b	0.037247937
137	0x3dcec866	0.10096817
138	0x3ba74fe4	0.0051059593
139	0x3e834636	0.25639504
140	0x3c877867	0.016536904
141	0x3dc7b2de	0.09750913
142	0xbe05887b	-0.13040344
143	0xbd6f204a	-0.058380403
144	0x3cfb1a24	0.030652113
145	0xbdec3c50	-0.11534941
146	0x3d3efb47	0.046626355
147	0x3d7ae7ad	0.0612561
148	0xbe097319	-0.13422813
149	0xbde356ea	-0.11100562
150	0xbd876944	-0.06611875
151	0x3d428965	0.04749431
152	0xbcf16866	-0.029468726
153	0x3e9fa9c2	0.31184202
154	0xbda26b45	-0.07930616
155	0x3d892949	0.06697328
156	0x3e346b53	0.17619066
157	0x3ce8f938	0.02843915
158	0x3e9f9b08	0.31172967
159	0xbd260a4c	-0.040537164
160	0x3a07839c	0.00051694526
161	0x3dfc58db	0.12321635
162	0x3d3a20e3	0.04544152
163	0xbdf36d64	-0.11886099
164	0x3c31c0e7	0.010849214
165	0xbe0fa295	-0.14026864
166	0x3d57d9f1	0.05269808
167	0xbd02057f	-0.031743523
168	0xbdd4be80	-0.103878975
169	0xbe5b0dc3	-0.21391968
170	0x3d7d742e	0.061878376
171	0xbc208d0c	-0.009799253
172	0xbdfe9c80	-0.12432194
173	0x3ead2d50	0.33823633
174	0xbc11fc49	-0.008910247
175	0xbd85828d	-0.06519041
176	0x3d2e4e76	0.042555295
177	0x3d8b16c2	0.0679145
178	0xbdc9c1f8	-0.0985145
179	0xbd5b25c4	-0.053502813
180	0x3e1c4978	0.15262401
181	0xbcc6d81c	-0.02427297
182	0x3d444e3a	0.047926165
183	0x3e1c3449	0.1525432
184	0xbdfa89f7	-0.12233346
185	0x3e2ba380	0.16761589
186	0xbe19cd9b	-0.15019839
187	0x3c9018a4	0.017589875
188	0x3d015881	0.031578545
189	0xbbc31d66	-0.0059544323
190	0xbb66d85f	-0.0035224182
191	0x3da7efab	0.0820001
192	0xbe5fc076	-0.21850762
193	0x3df139fd	0.117786385
194	0x3c9f464b	0.019442698
195	0x3ca62365	0.02028055
196	0x3c1f1b0a	0.009711036
197	0x3d1a50ee	0.037674837
198	0x3db9c0e9	0.09069998
199	0x3e06e594	0.13173515
200	0x3d32a7ab	0.043616932
201	0x3dff1ca3	0.12456634
202	0xbed91fcb	-0.4240707
203	0x3e30cf7b	0.17266648
204	0xbbf0bea7	-0.0073469463
205	0xbdbb2142	-0.09137203
206	0x3e31b954	0.17355853
207	0x3dd0d769	0.10197336
208	0xbd79faf6	-0.06103035
209	0x3e16b051	0.14715697
210	0x3e5da0e2	0.21643403
211	0x3dcb4ad0	0.09926379
212	0x3e102cb7	0.14079557
213	0x3dbbdd7f	0.091731064
214	0xbe2fd7f0	-0.17172217
215	0x3d6ed7ea	0.05831138
216	0xbd8d9b5d	-0.06914399
217	0x3d17c37d	0.037051667
218	0x3d4f26c0	0.050574064
219	0x3d624699	0.05524311
220	0x3d24b249	0.04020909
221	0x3d8435fc	0.06455609
222	0x3cab4096	0.02090482
223	0x3d9ba7e2	0.076003805
224	0xbdc44fbf	-0.09585523
225	0xbe280333	-0.1640747
226	0x3e310b35	0.17289431
227	0x3d05065d	0.03247677
228	0xbd949ec7	-0.07256847
229	0x3e0725d0	0.13198018
230	0x3d46fb55	0.048579533
231	0xbd8087e9	-0.06275923
232	0x3da46f37	0.08029025
233	0xbd15004c	-0.036377236
234	0x3d835126	0.06411962
235	0xbdb6d5e9	-0.08927519
236	0xbdbb276d	-0.09138379
237	0x3e2a8572	0.16652468
238	0x3e5897e9	0.21151699
239	0xbd8fc846	-0.07020621
240	0xbd7b0378	-0.061282605
241	0x3e4743ee	0.19459507
242	0x3dc99043	0.09841969
243	0x3c3a31dc	0.011364426
244	0xbc492758	-0.012277447
245	0x3d1a9c24	0.037746564
246	0xbe051137	-0.12994848
247	0xbd097906	-0.033562683
248	0xbe0cb0a8	-0.13739264
249	0xbc2d6639	-0.010583454
250	0xbd6359fc	-0.055505738
251	0x3d11ee1c	0.03562747
252	0xbd87352d	-0.06601939
253	0xbc8eeb5c	-0.017446212
254	0xbb7426dd	-0.003725461
255	0xbe18d72f	-0.14925836

rnn.bias_ih_l0 f4 [600]
0	0x3c7555f3	0.014974105
1	0x3d89f577	0.06736272
2	0xbd8d20a3	-0.068909906
3	0x3ba821d1	0.0051309844
4	0x3d8c81ee	0.068607196
5	0x3cfa2d67	0.030539228
6	0xbd92c5f5	-0.071666636
7	0x3b9b811d	0.004745616
8	0x3c95ac1f	0.01827055
9	0x3ca6341d	0.020288521
10	0x3c67a93c	0.01413947
11	0xbcc43ee1	-0.023955764
12	0x3db14ef9	0.08657641
13	0x3d60e020	0.054901242
14	0x3ce9de16	0.028548282
15	0x3dce841e	0.10083793
16	0xbcb01222	-0.021493021
17	0xbcb2d97b	-0.021832218
18	0x3d3c274b	0.04593591
19	0x3d00d598	0.0314537
20	0x3b8abda5	0.004234033
21	0xbcfec37a	-0.03109907
22	0x3d0b219f	0.03396761
23	0x3c264487	0.010148174
24	0x3d1c0fd3	0.03810103
25	0xbc352d46	-0.011058157
26	0x3c52f200	0.01287508
27	0xba98f9bd	-0.0011671107
28	0x3d21517e	0.039384358
29	0x3d34a50d	0.044102717
30	0xbcbfbb1f	-0.023404656
31	0x3cb89ab1	0.0225347
32	0xbb875565	-0.004130053
33	0x3c70e2d3	0.014702517
34	0xbd278805	-0.040901203
35	0x3dbaaf21	0.091154344
36	0xbc7e620e	-0.015526308
37	0xbc9cb54f	-0.019129423
38	0xbb91bf0b	-0.004447823
39	0x3b5ef800	0.0034022331
40	0x3d0113a9	0.03151289
41	0xbcd03bd3	-0.025419151
42	0xbd678b8f	-0.056529578
43	0xbd47561f	-0.048666116
44	0x3d0dc46d	0.034611154
45	0x3d4fc761	0.050727252
46	0x3d3c9336	0.04603883
47	0x3d3b68cc	0.04575424
48	0x3bbda1bc	0.0057871025
49	0xbcc77875	-0.02434943
50	0x3da21d2d	0.07915721
51	0x3c9dd4d4	0.019266523
52	0x3cce21aa	0.025162537
53	0x3d817512	0.063211575
54	0x3bf656a2	0.0075176517
55	0xbc9ed377	-0.019387944
56	0x3b31e840	0.0027146488
57	0x3cf4d942	0.029888753
58	0x3d5c86dc	0.05383955
59	0xbcb19567	-0.021677686
60	0x3baaf114	0.005216727
61	0x3d1ee29a	0.038790323
62	0x3d543a21	0.05181325
63	0xbd08fc6e	-0.03344386
64	0x3d23dca2	0.040005334
65	0x3cb2fa4d	0.021847868
66	0x3d54bfad	0.05194061
67	0x3d58c0db	0.052918296
68	0x3d50398b	0.050836127
69	0x3ba3edc7	0.0050027105
70	0xbd8ce73e	-0.068800434
71	0xbcbeec20	-0.023305953
72	0x3cea448e	0.028597143
73	0xbccfcd55	-0.025366465
74	0xbd32addb	-0.043622833
75	0x3cf995d4	0.030466951
76	0xba7f7810	-0.0009745369
77	0x3b838747	0.004013929
78	0xbd104d69	-0.035230074
79	0xbcbd65c6	-0.023119818
80	0x3da834ad	0.08213172
81	0x3b8f62d7	0.0043757963
82	0xbc86df52	-0.01646391
83	0x3d2ad924	0.041710988
84	0x3b3e26d8	0.0029014852
85	0x3d7b8607	0.061407115
86	0xbdad1348	-0.08450943
87	0xbc62670d	-0.0138185145
88	0x3db49b56	0.088186905
89	0x3c14de83	0.009086254
90	0x3cd2beb5	0.025725702
91	0xbda49f88	-0.08038241
92	0x3d9532a1	0.07285047
93	0x3d820510	0.06348622
94	0x3c969004	0.018379219
95	0x3dda0049	0.10644586
96	0x3c201475	0.009770502
97	0x3d2d4cd9	0.042309616
98	0xbcab4dea	-0.020911176
99	0xbc247874	-0.010038484
100	0x3ceb509a	0.028724957
101	0x3b9ab7b0	0.0047216043
102	0x3cd2cad0	0.025731474
103	0x3d2b9d5d	0.04189812
104	0x3ba7fe61	0.00512676
105	0xbd04f233	-0.03245754
106	0xbd466df0	-0.04844469
107	0x3cd9cbe5	0.026586482
108	0x3d164121	0.036683206
109	0xbd3b15b2	-0.045674987
110	0x3d9bc20c	0.07605371
111	0x3d59290a	0.053017654
112	0x3d0450b0	0.032303512
113	0x3d9ffa0c	0.078113645
114	0x3d38f48a	0.045155086
115	0x3bf620fb	0.007511256
116	0x3d2a8395	0.041629393
117	0x3d185270	0.037187994
118	0x3d4581c0	0.048219442
119	0x3d981c0b	0.07427224
120	0x3cf0e9c2	0.02940834
121	0x3dd466c8	0.103711665
122	0x3c8681a9	0.016419249
123	0xbcd3c802	-0.025852207
124	0x3d63e102	0.055634506
125	0x3d16e156	0.03683599
126	0x3d611331	0.054949943
127	0xbb9cf775	-0.0047902414
128	0x3d8a2dca	0.06747015
129	0x3d81b4a9	0.06333286
130	0x3c5be019	0.013420128
131	0x3cd39240	0.025826573
132	0xbc6d409b	-0.014480735
133	0x3d4be240	0.049776316
134	0x3cfc3f20	0.03079182
135	0x3c63e8cc	0.013910484
136	0x3c77577a	0.01509654
137	0xbb86b6ff	-0.0041111703
138	0x3cb00dd0	0.021490961
139	0x3d0c3ea6	0.034239434
140	0xbc41dea2	-0.011832865
141	0x3d60dc57	0.054897632
142	0xbc87dfea	-0.016586263
143	0xbb08125c	-0.0020762896
144	0x3d30a721	0.043128137
145	0xbd9e6f37	-0.07736056
146	0x3be4030a	0.00695837
147	0x3d3a8908	0.04554084
148	0x3acfc97a	0.0015852891
149	0xbc9c838c	-0.019105695
150	0xbd2ad958	-0.04171118
151	0x3cf5b023	0.029991215
152	0x3d200d99	0.039075468
153	0x3cfcd3a6	0.03086264
154	0x3c583c0d	0.013197911
155	0x3d1bf90d	0.03807931
156	0xbb498ef0	-0.0030755363
157	0x3d71680a	0.05893711
158	0xbd03239a	-0.032016374
159	0x3dbebc24	0.09313229
160	0x3c615fe1	0.0137557695
161	0x3d6a9bf0	0.05727762
162	0x3d942fc3	0.07235672
163	0xbc28be8d	-0.010299337
164	0xbd76ead7	-0.060282554
165	0x3ddd0b88	0.10793215
166	0x3d4fe227	0.050752785
167	0xbbeeab17	-0.007283579
168	0xbc8d133c	-0.017221086
169	0xbd904047	-0.0704351
170	0xb82481ab	-3.922141e-05
171	0xbb716904	-0.0036836276
172	0x3aaa2eea	0.0012983952
173	0xbc2d5e40	-0.010581553
174	0xbb14b42d	-0.00226904
175	0x3dd3b615	0.10337464
176	0xbc0a23b9	-0.0084313685
177	0x3c93e2c8	0.018052474
178	0xbc2b7a1d	-0.010466126
179	0x3cfcf693	0.030879294
180	0x3d09addf	0.033613082
181	0x3d4d48e4	0.050118342
182	0x3a60c4b7	0.00085742347
183	0xbd340547	-0.043950345
184	0x3ba7f993	0.005126187
185	0xbc2bb7d7	-0.010480843
186	0xbd2b52bf	-0.04182696
187	0xbcad7850	-0.021175534
188	0x3d96b95a	0.07359572
189	0xbb9f3d7b	-0.004859624
190	0x3c3f6613	0.011682051
191	0xbcda03b3	-0.026613092
192	0xbccc8b58	-0.024968788
193	0x3c902049	0.01759352
194	0xbc8d81d7	-0.017273827
195	0x3bc31514	0.0059534404
196	0x3d383134	0.0449688
197	0xbcb4aa31	-0.02205381
198	0x3d49080a	0.049079932
199	0x3d18f9fe	0.037347786
200	0xbe2ae3e5	-0.16688497
201	0xbdf0d7da	-0.117599204
202	0xbdd94458	-0.10608739
203	0xbe010677	-0.12600122
204	0xbe85dc8c	-0.26144826
205	0xbe06b013	-0.13153104
206	0xbd398a18	-0.045297712
207	0x3d0ac694	0.033880785
208	0xbe5f0229	-0.21778168
209	0xbe329a16	-0.17441592
210	0xbb93af35	-0.0045069703
211	0xbd5d3de2	-0.054014094
212	0xbea3dd06	-0.32004565
213	0xbe9f936b	-0.31167158
214	0xbe995942	-0.2995091
215	0xbea1d11d	-0.31604853
216	0xbe10a780	-0.14126396
217	0xbe4a7495	-0.19771035
218	0xbda1b7d0	-0.078963876
219	0x3d20f094	0.039291933
220	0xbecdeddd	-0.40220538
221	0xbe5d395d	-0.21603914
222	0xbcbb8238	-0.022889242
223	0x3d438075	0.047729928
224	0xbdf3cb59	-0.1190402
225	0x3d295993	0.04134519
226	0x3cd9d1bf	0.026589273
227	0xbeab092c	-0.33405435
228	0xbe469003	-0.19390874
229	0xbebcef52	-0.36901337
230	0xbdd017de	-0.10160802
231	0xbe1465ea	-0.14492002
232	0xbda3d463	-0.07999494
233	0xbe2a11f8	-0.16608417
234	0xbe83ba9e	-0.25728315
235	0xbe89acf5	-0.26889768
236	0xbdc73b1a	-0.097280696
237	0xbdd21e97	-0.10259741
238	0xbdb157bf	-0.08659314
239	0xbe9f7d45	-0.3115026
240	0xbe1955f8	-0.149742
241	0xbe3c9bab	-0.18418758
242	0xbe2a1639	-0.1661004
243	0xbde499fa	-0.11162181
244	0xbec48553	-0.38382968
245	0xbea1a79e	-0.31573194
246	0xbe48f1ed	-0.19623537
247	0xbe82dcbc	-0.25559032
248	0xbe193f7e	-0.14965627
249	0xbe53f30f	-0.20698188
250	0xbe53fa1d	-0.2070088
251	0xbe389469	-0.18025364
252	0xbe65783f	-0.22409151
253	0xbcd2a1e0	-0.025711954
254	0xbe0ad5ae	-0.13558075
255	0xbe1f31c6	-0.15546331

rnn.bias_hh_l0 f4 [600]
0	0x3c755c72	0.014975654
1	0x3d8a0d91	0.06740869
2	0xbd8d3388	-0.068945944
3	0x3ba86816	0.005139361
4	0x3d8cafac	0.06869444
5	0x3cfa3a1c	0.030545287
6	0xbd92d7a4	-0.071700364
7	0x3b9bc1c8	0.004753325
8	0x3c95c39a	0.018281747
9	0x3ca63638	0.020289525
10	0x3c67e7ed	0.0141544165
11	0xbcc43f95	-0.0239561
12	0x3db17aec	0.086660236
13	0x3d60f842	0.054924257
14	0x3ce9e939	0.028553592
15	0x3dceb6ea	0.10093482
16	0xbcb01b72	-0.021497462
17	0xbcb2f420	-0.021844923
18	0x3d3c3e57	0.04595789
19	0x3d00f08b	0.0314794
20	0x3b8b15b2	0.0042445296
21	0xbcfee352	-0.031114254
22	0x3d0b3c5c	0.03399311
23	0x3c26609b	0.0101548685
24	0x3d1c3b20	0.038142323
25	0xbc354a04	-0.01106501
26	0x3c535874	0.012899507
27	0xba987f04	-0.0011634533
28	0x3d2164c0	0.039402723
29	0x3d34b384	0.044116512
30	0xbcbfc738	-0.023410425
31	0x3cb8b0fb	0.022545328
32	0xbb878a53	-0.0041363626
33	0x3c70f098	0.0147057995
34	0xbd27a96e	-0.040933065
35	0x3dbb0f6d	0.091338016
36	0xbc7e83d3	-0.015534359
37	0xbc9cc89c	-0.019138627
38	0xbb91cdc0	-0.004449576
39	0x3b5f14e9	0.0034039563
40	0x3d0120c2	0.03152538
41	0xbcd04be0	-0.025426805
42	0xbd67a623	-0.056554925
43	0xbd477190	-0.048692286
44	0x3d0dcadf	0.0346173
45	0x3d4fd131	0.05073661
46	0x3d3ca43a	0.046055056
47	0x3d3b8cae	0.04578846
48	0x3bbdc28f	0.0057910155
49	0xbcc77460	-0.024347484
50	0x3da24447	0.07923179
51	0x3c9dd26e	0.01926538
52	0x3cce1013	0.02515415
53	0x3d8187fd	0.06324766
54	0x3bf679bc	0.007521836
55	0xbc9edd6e	-0.019392695
56	0x3b31fd23	0.0027158938
57	0x3cf4ee65	0.029898832
58	0x3d5caa56	0.053873383
59	0xbcb19c4a	-0.02168097
60	0x3bab260b	0.005223041
61	0x3d1f0710	0.038825095
62	0x3d548922	0.051888593
63	0xbd0908b6	-0.033455573
64	0x3d23ef0d	0.0400229
65	0x3cb301bc	0.021851413
66	0x3d54c8b2	0.05194921
67	0x3d58f886	0.052971385
68	0x3d504b3c	0.050853
69	0x3ba3fb49	0.0050043208
70	0xbd8cf4b4	-0.06882611
71	0xbcbeaf9d	-0.023277098
72	0x3cea8aa0	0.028630555
73	0xbccfd958	-0.025372192
74	0xbd32cec7	-0.04365423
75	0x3cfb1d71	0.030653687
76	0xba7e4ca0	-0.0009700749
77	0x3b837222	0.0040114084
78	0xbd105d49	-0.035245214
79	0xbcbd87b4	-0.023135997
80	0x3da85736	0.08219759
81	0x3b8f586b	0.004374554
82	0xbc86f355	-0.016473452
83	0x3d2af523	0.041737687
84	0x3b3deae3	0.0028979115
85	0x3d7bfea1	0.06152213
86	0xbdad2b4c	-0.08455524
87	0xbc629bf0	-0.013831124
88	0x3db4dec3	0.08831551
89	0x3c14dd3e	0.009085951
90	0x3cd2de86	0.025740873
91	0xbda4b478	-0.08042234
92	0x3d9543f7	0.07288354
93	0x3d820e21	0.06350351
94	0x3c96be07	0.018401159
95	0x3dda1fec	0.1065062
96	0x3c248f9c	0.010044005
97	0x3d2d4022	0.04229749
98	0xbcab5c5c	-0.020918064
99	0xbc24a453	-0.010048944
100	0x3ceb92a0	0.02875644
101	0x3b9bb22d	0.004751465
102	0x3cd2f61a	0.025752116
103	0x3d2ba75b	0.04190765
104	0x3ba819cc	0.0051300284
105	0xbd04fc38	-0.032467097
106	0xbd467e63	-0.048460376
107	0x3cd9ef83	0.026603466
108	0x3d1693b0	0.03676194
109	0xbd3b2f53	-0.04569943
110	0x3d9ccf3b	0.076567136
111	0x3d593f61	0.05303896
112	0x3d045e6a	0.032316603
113	0x3da014c9	0.078164645
114	0x3d39201b	0.045196634
115	0x3bf62b13	0.007512459
116	0x3d2abebe	0.041685812
117	0x3d187ad4	0.037226513
118	0x3d45bbb3	0.048274707
119	0x3d989b75	0.07451526
120	0x3cf0f210	0.0294123
121	0x3dd49097	0.10379141
122	0x3c86a7bd	0.016437406
123	0xbcd3d67b	-0.025859108
124	0x3d63f0e2	0.055649646
125	0x3d170190	0.036866724
126	0x3d612e9a	0.054976083
127	0xbb9ce615	-0.00478817
128	0x3d8a3ba3	0.06749656
129	0x3d81be9c	0.06335184
130	0x3c5bfbfa	0.013426775
131	0x3cd3ceb5	0.025855402
132	0xbc6db093	-0.014507431
133	0x3d4c0a99	0.049814794
134	0x3cfc5e82	0.030806784
135	0x3c63f965	0.013914441
136	0x3c7789d4	0.015108544
137	0xbb86b74c	-0.004111206
138	0x3cb01fdf	0.021499572
139	0x3d0c4616	0.034246527
140	0xbc41f89b	-0.011839057
141	0x3d6165f2	0.055028863
142	0xbc87fb41	-0.0165993
143	0xbb0807c2	-0.0020756577
144	0x3d30c5ba	0.043157317
145	0xbd9e8e96	-0.0774204
146	0x3be407d1	0.0069589396
147	0x3d3ab793	0.045585226
148	0x3ace6d0e	0.0015749054
149	0xbc9c4a4a	-0.019078393
150	0xbd2af2cf	-0.041735467
151	0x3cf66437	0.030077083
152	0x3d20d023	0.039260995
153	0x3cfcdd33	0.030867195
154	0x3c585a6c	0.013205152
155	0x3d1c09e8	0.038095385
156	0xbb497358	-0.0030738916
157	0x3d71957c	0.05898045
158	0xbd0330c0	-0.032028913
159	0x3dbee458	0.09320897
160	0x3c615138	0.013752274
161	0x3d6abc35	0.057308394
162	0x3d944e52	0.07241501
163	0xbc28c9ed	-0.010302049
164	0xbd770782	-0.060309894
165	0x3ddda530	0.10822523
166	0x3d4ff805	0.05077364
167	0xbbee8fc3	-0.0072803213
168	0xbc8d1f39	-0.017226802
169	0xbd904f17	-0.07046335
170	0xb82c8022	-4.112733e-05
171	0xbb70fd4e	-0.0036772075
172	0x3aaac96c	0.0013029999
173	0xbc2d6556	-0.010583242
174	0xbb14dc1a	-0.0022714199
175	0x3dd3f35d	0.10349152
176	0xbc0a05e4	-0.008424256
177	0x3c93f116	0.018059295
178	0xbc2b813c	-0.010467824
179	0x3cfd1356	0.03089301
180	0x3d09b5e8	0.033620745
181	0x3d4d57a1	0.050132398
182	0x3a62bc7f	0.0008649304
183	0xbd34160f	-0.04396635
184	0x3ba81e0f	0.0051305364
185	0xbc2bca23	-0.010485205
186	0xbd2b714b	-0.04185609
187	0xbcad9216	-0.021187823
188	0x3d971246	0.07376532
189	0xbb9f62a5	-0.0048640543
190	0x3c3f7845	0.011686389
191	0xbcda12a0	-0.02662021
192	0xbccca3d3	-0.024980461
193	0x3c903add	0.017606193
194	0xbc8d822c	-0.017273985
195	0x3bc34073	0.0059586107
196	0x3d383d53	0.04498036
197	0xbcb4b68c	-0.022059701
198	0x3d495393	0.04915197
199	0x3d19052e	0.037358455
200	0xbe2c27fe	-0.16812131
201	0xbdf1efeb	-0.11813339
202	0xbdda0d34	-0.106470495
203	0xbe01410d	-0.12622471
204	0xbe86c9b0	-0.2632575
205	0xbe072c92	-0.13200596
206	0xbd39c231	-0.04535121
207	0x3d0ae843	0.03391291
208	0xbe5f9092	-0.21832493
209	0xbe337a9c	-0.1752724
210	0xbb943301	-0.0045226817
211	0xbd5de601	-0.054174427
212	0xbea4d0fd	-0.32190695
213	0xbea01179	-0.3126333
214	0xbe99c02c	-0.30029428
215	0xbea220b0	-0.31665564
216	0xbe117053	-0.14203005
217	0xbe4ad9d9	-0.19809665
218	0xbda2bf85	-0.07946686
219	0x3d1fa71f	0.03897774
220	0xbece99a9	-0.40351608
221	0xbe5e2471	-0.21693589
222	0xbcbb86b1	-0.022891374
223	0x3d436e64	0.0477127
224	0xbdf4391d	-0.11924956
225	0x3d28b5d6	0.041189037
226	0x3cd7dfe5	0.026351878
227	0xbeabffe4	-0.33593667
228	0xbe46dfa2	-0.19421247
229	0xbebd56fe	-0.36980432
230	0xbdd0d956	-0.101977035
231	0xbe14ce5a	-0.14531842
232	0xbda4f3a5	-0.08054284
233	0xbe2b2e7d	-0.16716953
234	0xbe853ce1	-0.2602301
235	0xbe89d88d	-0.26923028
236	0xbdc7993a	-0.097460225
237	0xbdd2476c	-0.10267529
238	0xbdb18ccd	-0.08669434
239	0xbe9fcba7	-0.31210062
240	0xbe19b2ab	-0.15009563
241	0xbe3d015c	-0.1845755
242	0xbe2b1d42	-0.1671038
243	0xbde4ee7d	-0.111783005
244	0xbec56c61	-0.3855925
245	0xbea21c29	-0.3166211
246	0xbe49f704	-0.19723135
247	0xbe839bba	-0.25704747
248	0xbe19530c	-0.14973086
249	0xbe545994	-0.20737296
250	0xbe5490a4	-0.20758301
251	0xbe38fe4a	-0.18065754
252	0xbe66520a	-0.22492233
253	0xbcd6a6d6	-0.0262026
254	0xbe0b1c21	-0.13584949
255	0xbe1f63a1	-0.15565349
