cyberbach_models/tanh_limitcycle/results/model_checkpoint.pt (torch, 926755 bytes, 6 tensors)

output_weights.weight f4 [88, 400]
00000000: ff3a 303c 73df 0bbd 7c8a d93c 21ad cc3c
00000010: 6cdf 2cbe 8e74 9a3d 6819 4b3d 67f1 00be
00000020: 37fe 2dbd 7438 f43d e8cd 2fbd 97a0 5a3d
00000030: ddc6 973c 667c 12be cfe4 afbd e1fe ec3d
00000040: 7bcc aabb 37ba 18be 089d 16be f2d3 323d
00000050: 29a7 6abc 5350 eb3b bcb2 f63d 32c0 10bd
00000060: 15b6 66bd 18b7 a83d ab49 20bd fc89 88bc
00000070: 613b d23c dd4d 8cbd d510 0f3d 60af 1ebc
00000080: 57d4 ee3d 79b4 fbbc feda 003d 0fba 94bd
00000090: 29bb 23bd 4598 c8bc 67b8 1dbd 5b80 6c3c
000000a0: ca37 bebc fc3d bc3d 2fe4 f339 d133 0dbd
000000b0: 9e42 0d3d 08bc 023d 0e41 263d 9bfc 053e
000000c0: c7b5 8d3d a68f d83b b349 05bd 1e79 4cbd
000000d0: df55 293d 0802 3dbd a071 d13d fbea ffbd
000000e0: 0540 f73b f9c0 92bd f2f8 b73c 338a 973c
000000f0: b6bd 873d 42e0 ab3d c440 cabc b7b9 0a3c
00000100: 9abf 89bd ef34 3b3c 7eee a0bd cd25 5cbd
00000110: 03ae cb3c b7af 3dbc 4b3c 983c 8202 853d
00000120: d2b0 01bc 9750 0dbc 8e1e 0d3d 884f b6b9
00000130: 97eb 9f3d e222 483d fb50 293d 755a b93d
00000140: 8312 cc3c 06a5 673d 4fc9 7b3d 4e05 b23c
00000150: dd0f b4bb 3cff 8cbd ce99 18bd 4900 903b
00000160: de1d b5bd f403 ffbd 698f 12bd deb1 913d
00000170: 79d8 1abd 4d3b 4dbd bcff fcbc 8846 8dbc
00000180: 0a22 233e 2a6c 65bd 5756 32bd b24b 893c
00000190: 5c3e d63d dd57 68b9 5bf5 0f3e 917b e63b
000001a0: ac33 973d bbee b5ba afa0 39bd 36af 8c3d
000001b0: 3c36 c2bc 031b 603d 09db b13d 66c1 abbd
000001c0: 654a 0d3d 1c0f fe3d 965f 493e 31f4 3cbc
000001d0: 5fe1 d03c b856 c1bd 50b9 0dbe 3540 953d
000001e0: 058d 4d3d b874 8abd 602c f4bd becd dfbd
000001f0: 929f 2e3d 0fab 6bbd cb21 243e ccd2 82bc
00000200: b800 c73b 6c35 363d fcca 62bd 99fb 10bd
00000210: bd61 873d a005 dbbc 211c ad3d e7d2 ae3a
00000220: 9720 33bd 26d9 a83b 5e92 b8bd 1aa7 3b3d
00000230: 7a9d 21bd 4d61 bb3d 6281 813c cff4 2abe
00000240: cd9a 14bc 9c20 203e 8dcf 1fbd 82aa 333a
00000250: e1b6 4a3d 4463 a63c b426 4cbe 0e72 a43d
00000260: bc9d 253d 5572 dd3d 1779 6bbd 26d2 c0bd
00000270: bab5 663d 6004 1cbd 1234 d83c 32b0 34bc
00000280: d500 f63d 09eb cc3b c0dc 9f3d e560 6b3d
00000290: 5df9 c63d 20ee 3f3d 5789 f63c 25a9 623d
000002a0: 2aa4 0cbd 4c85 2dbe dd93 fdbc 7251 75bc
000002b0: 8de3 94bc c02b d0bd eed2 e83d 3b21 e7bd
000002c0: 97d4 f6bd e807 40be e015 003c 0567 ab3d
000002d0: 814c 023d 460e df3d 6b20 1cbd 8b9f 55bd
000002e0: 365f b0bd 55cd a53d 3e03 03be 4282 d53c
000002f0: eb52 f03a 3fa3 1c3d f74c b2bd 579a 81bd
00000300: c45a 8abd cec9 473e cbbc 163d eb8b 5fbd
00000310: fee9 a83d 4ca9 563e cd7e 553d 58c5 08bd
00000320: 05e7 6c3d 2a01 7f3b a530 993c 3af5 a83d
00000330: c356 e5bc 1ee2 a13c 3188 873c 444c 253e
00000340: 70c6 b1bc f22a 8a3b 1ecc 333d 0c09 343e
00000350: a10e 05be eccd 8b3b 9e33 9fbd 3e75 46bc
00000360: 6ea1 85bd a7ec cebc 56db 43bd 771e a6bc
00000370: 3130 323a a724 64bd 790c 41bd f7c6 223d
00000380: 1365 75bc 015e d0bc 28db 4b3b a498 833d
00000390: bbd9 babc c64a 253b ee75 d7bc c7c1 503d
000003a0: c78d 1bbd 6a5a a23b 226f 62bd 7377 2e3d
000003b0: c47f 19be 837f 06bd 8e01 8dbd 4610 f83d
000003c0: 1d71 65bd e98e 75bd dd8a 9cbc deb8 503d
000003d0: da7c 84bd ac4c 3cbc d230 873d 01a6 6fbd
000003e0: 34dc d53d 82df 913d 4934 363e 8fe4 af3c
000003f0: 8abb d9bc 106b a5bd 16f9 713d 1a4b 0dbd
0.010756253 -0.034148645 0.026555292 0.024984898 -0.16882104 0.07541762 0.049584776 -0.12592088
-0.042478766 0.1192483 -0.042920977 0.053375807 0.018527443 -0.14305267 -0.08588564 0.11572052
-0.0052123643 -0.14914785 -0.1470834 0.043659158 -0.014322081 0.0071812063 0.120458096 -0.03533954
-0.05632599 0.08238047 -0.039132755 -0.016667359 0.02566308 -0.06850789 0.03492816 -0.009685367
0.11661594 -0.030725705 0.031458847 -0.0726205 -0.03997341 -0.02448667 -0.038505938 0.014434899
-0.023219962 0.0919151 0.00046518582 -0.034473244 0.03448736 0.0319176 0.040589385 0.13084643
0.06919437 0.006608921 -0.03254099 -0.049920194 0.04134166 -0.046144515 0.102267504 -0.12495991
0.0075454735 -0.07165713 0.022457574 0.018498516 0.06627981 0.08392383 -0.024689086 0.008467129
-0.06725998 0.011426195 -0.07857989 -0.053746987 0.024863249 -0.011577538 0.018583437 0.06494619
-0.007915692 -0.008625171 0.034452967 -0.00034773 0.07808607 0.04886139 0.041336995 0.090504564
0.02491117 0.056553863 0.06147128 0.021731045 -0.005495055 -0.068846196 -0.037256055 0.0043945652
-0.08843587 -0.12451926 -0.035781298 0.071140036 -0.0378041 -0.05010538 -0.030883662 -0.017245546
0.15930954 -0.056011356 -0.04353937 0.016759727 0.10461113 -0.00022157976 0.1405844 0.007033773
0.073829025 -0.0013880351 -0.045319255 0.06869356 -0.023707502 0.05471326 0.08684356 -0.08386497
0.034494776 0.12405226 0.1966537 -0.011532829 0.02549809 -0.094403684 -0.13840222 0.07287637
0.050183315 -0.067605436 -0.11922526 -0.10927914 0.042632647 -0.05753618 0.16028516 -0.015969656
0.0060730837 0.04448454 -0.055369362 -0.035396192 0.06610439 -0.02673608 0.08452631 0.0013338
-0.043732252 0.0051528392 -0.09012292 0.045813657 -0.039456822 0.09149418 0.015808765 -0.1669495
-0.0090701105 0.1563744 -0.039016295 0.0006853716 0.049490813 0.020311005 -0.19936639 0.08029567
0.04043363 0.10812823 -0.057488527 -0.09415083 0.05632565 -0.03809011 0.026392017 -0.011028336
0.120118774 0.0062536043 0.078057766 0.057465453 0.09715531 0.046857953 0.030094786 0.05533709
-0.034336247 -0.1694538 -0.030954296 -0.014973031 -0.01817491 -0.10164595 0.11368357 -0.11285635
-0.12052267 -0.18753016 0.007817715 0.08369259 0.03181124 0.10891394 -0.038116854 -0.052154105
-0.0861191 0.080958046 -0.12794206 0.026063088 0.0018335258 0.03824162 -0.08706086 -0.06328266
-0.067555934 0.19510576 0.03680114 -0.054576796 0.082477555 0.20963019 0.05212288 -0.033391327
0.057837505 0.0038910606 0.018699953 0.08249898 -0.027995473 0.019761141 0.016544433 0.16142374
-0.021701068 0.0042165453 0.043895833 0.17581576 -0.12993862 0.004266491 -0.07773517 -0.012112914
-0.06524931 -0.025259329 -0.047816597 -0.020278199 0.0006797342 -0.055699017 -0.047131035 0.03974053
-0.014977711 -0.02543545 0.003110597 0.06425598 -0.0228089 0.002522157 -0.02630135 0.05096605
-0.037977006 0.004954626 -0.055281766 0.042594384 -0.14990145 -0.03283645 -0.06885062 0.12112479
-0.056016076 -0.059950743 -0.019109184 0.050957553 -0.06469126 -0.011492889 0.066011086 -0.058507923
0.10442391 0.07122709 0.17793383 0.02147129 -0.026578683 -0.08077061 0.059075437 -0.03449545

output_weights.bias f4 [88]
00000000: 42bd 1bbc 42bd 1bbc 42bd 1bbc 42bd 1bbc
00000010: 42bd 1bbc 43bd 1bbc 42bd 1bbc 42bd 1bbc
00000020: 42bd 1bbc 42bd 1bbc 42bd 1bbc 43bd 1bbc
00000030: 42bd 1bbc 43bd 1bbc 42bd 1bbc 43bd 1bbc
00000040: 42bd 1bbc 42bd 1bbc 42bd 1bbc 42bd 1bbc
00000050: 42bd 1bbc 42bd 1bbc bc95 1dbd 42bd 1bbc
00000060: 42bd 1bbc c572 cebc 43bd 1bbc 8dfb 4dbe
00000070: 5d12 13bd 2483 6cbe 8b01 5bbe 7311 79be
00000080: 2272 82be 7267 6fbe e365 0fbe 8cb3 fcbc
00000090: db98 3abe 16ce 28be 8a31 2cbe ee02 763d
000000a0: 8626 8fbe b2f0 333d a4fc 533d 107d 82bc
000000b0: cc42 173e 7861 7dbe 21c5 9d3d 10fc b63d
000000c0: 6a9a 763d 53ff b53d e0bf c9bc ea83 1f3e
000000d0: f576 103d c82d 1b3e 65b3 443d 2a44 85bc
000000e0: 07b3 2b3d 08e5 6ebe 5c62 023e 576c 663c
000000f0: 3840 ad3c 00d7 b43d 7217 98bd 35ae b53d
00000100: d741 e7bd 7aad 7fbd cb28 7bbd ac32 b4bd
00000110: 9868 3ebe fc30 e6bd 97b8 473c ffeb 29be
00000120: 130c 76be 4164 35be 7751 c0bd 4a3c fbbd
00000130: 42bd 1bbc 42bd 1bbc 42bd 1bbc 42bd 1bbc
00000140: 43bd 1bbc 42bd 1bbc 42bd 1bbc 42bd 1bbc
00000150: 42bd 1bbc 43bd 1bbc 42bd 1bbc 42bd 1bbc
-0.009505572 -0.009505572 -0.009505572 -0.009505572 -0.009505572 -0.009505573 -0.009505572 -0.009505572
-0.009505572 -0.009505572 -0.009505572 -0.009505573 -0.009505572 -0.009505573 -0.009505572 -0.009505573
-0.009505572 -0.009505572 -0.009505572 -0.009505572 -0.009505572 -0.009505572 -0.038472876 -0.009505572
-0.009505572 -0.02520121 -0.009505573 -0.2011549 -0.035906184 -0.23096901 -0.21387307 -0.24323063
-0.254777 -0.23379305 -0.1400371 -0.030847333 -0.18222372 -0.16484866 -0.16815773 0.060061388
-0.2795908 0.043930717 0.05175461 -0.015928775 0.14771575 -0.24744213 0.07703615 0.08934796
0.060205854 0.0888659 -0.024627626 0.15577665 0.035269696 0.15154183 0.048022646 -0.016267855
0.04191878 -0.23329556 0.12732834 0.014063916 0.021148786 0.088300705 -0.07426347 0.08871118
-0.11291855 -0.0624213 -0.0613182 -0.087987274 -0.18594587 -0.11239812 0.012190006 -0.16593932
-0.24028043 -0.17714025 -0.09390538 -0.122673586 -0.009505572 -0.009505572 -0.009505572 -0.009505572
-0.009505573 -0.009505572 -0.009505572 -0.009505572 -0.009505572 -0.009505573 -0.009505572 -0.009505572

rnn.weight_ih_l0 f4 [400, 88]
00000000: ccc3 0000 fdc3 0080 8fe3 0000 3073 0080
00000010: c66a 0100 1d21 0180 466f 0080 ba69 0080
00000020: 2e6d 0100 e341 0180 8a52 0080 ea4f 0180
00000030: 8fb4 0000 7150 0100 8b28 0000 7ff8 0080
00000040: da6e 0080 6c58 0180 ac0f 0100 54a9 0080
00000050: 903f 0180 45bf 0000 55fe b83e 1e22 0000
00000060: d8f4 0080 cbe8 123e a150 0100 d1d8 2f3e
00000070: 2c60 6abd d779 fd3d 7dd2 08bf e27a a73e
00000080: ceb1 86be c71e b4be f040 0ebe cbd3 16be
00000090: d91b 973e 5e8f 623c d574 1cbf d7f8 93be
000000a0: e5c1 04bf 1137 c7bc edbf af3e a893 863e
000000b0: f2d5 81be e25a bd3c 7bb3 4f3e 242c 993c
000000c0: 6b7e 45be 0a01 103e c42a 8cbe 5282 cdbe
000000d0: f8fe 93be b826 d83d cc85 c43d 7e2a 5dbe
000000e0: 9d0f 9a3e 645b aabe f646 bb3b 4b60 b0be
000000f0: df6a 1ebe a3c4 593d 6691 423d 53f3 053f
00000100: 9c24 63bb 4061 4a3e 31b1 d33e 8733 983b
00000110: 006d 9c3e 716a a7be 910d b1bd 85ac 70be
00000120: f7d0 d93e 0875 02bf fb94 84bf 529e 05bf
00000130: 50ee 0080 6a71 0000 9146 0080 e48b 0080
00000140: 21d2 0000 aa4e 0080 2f02 0180 2e1c 0100
00000150: eb5f 0180 463e 0180 e31f 0180 2702 0000
00000160: c8ff 0080 973e 0080 542e 0100 2b44 0100
00000170: 9e37 0100 b5fd 0000 610c 0100 0b12 0080
00000180: f928 0100 926d 0100 f155 0100 6d29 0100
00000190: 3e40 0000 6f02 0080 bc2c 0080 8e86 0080
000001a0: ce71 0180 65df 0000 3b9e 0080 71cd 0080
000001b0: 6767 0080 2725 0000 6399 23bf b7cd 0000
000001c0: 42fb 0000 6bf2 2cbe 449f 0000 6d2f 8abe
000001d0: f8d2 183e cec3 a8be 22b4 aabe 3ce2 363d
000001e0: 12b6 44be 1090 3cbf 2072 28bf 5b74 cdbe
000001f0: 24d0 42be 37ee 593d 8ba5 61be 4f93 9bbe
00000200: 0c9f 29be de0e 5dbe 93f1 26bf 9ea1 ae3e
00000210: 47b7 a4be 6db7 533e 569d a4be a6ad 2cbd
00000220: 0225 123e 907f 30be 5809 3abc 71cf b4bd
00000230: 322d 5c3d cd2d babd 8740 04bf d573 303f
00000240: 2031 c8bd b01e 6fbd 0db1 173e 8648 85bd
00000250: 6520 773e 2eb6 913e f7a5 5b3e 3646 bd3e
00000260: a449 c73e aff5 e1bd b864 39be d98e c13e
00000270: 7134 293f 9ea3 12bf f286 9b3e 2a50 063f
00000280: 2b4f a43c 7076 1b3f fa16 023f c943 6e3d
00000290: 0a01 0100 47d0 0000 99c4 0080 639a 0080
000002a0: 8707 0180 45e0 0000 dff5 0000 0e14 0180
000002b0: ad0d 0100 6925 0080 e939 0080 cae2 0080
000002c0: 8c0b 0080 9240 0180 9edf 0080 e568 0000
000002d0: 4766 0100 896e 0180 e2da 0000 19f8 0080
000002e0: d8e9 0000 c887 0000 a644 0180 5348 0000
000002f0: 0de1 0000 a389 0000 2ff4 0000 8530 0000
00000300: d7ca 0080 e882 0000 50ef 0000 fd4b 0100
00000310: 4042 0000 b7ad 0080 7fc6 713e 02e9 0000
00000320: 979e 0000 06c6 8dbd ca2f 0100 95cd 5d3d
00000330: a459 5cbf 0e5b 813e 2961 c4bc 0e9e c43e
00000340: dda5 03bf 01b8 f3be 4131 e8be 2939 413d
00000350: ce9f 22bf e69c 333e 9fe1 903d eb84 d4bd
00000360: 54ba 2a3e 8904 c9be 2fde f83e 4b75 cb3e
00000370: 4c06 9dbe 9104 7dbe 17da 6cbe 465a 6a3e
00000380: 4b62 24bd 269c 3abe 938c b43e 9aa1 fcbc
00000390: 226e 963e 8df6 6bbe e00f 10bf 12a9 ec3d
000003a0: 300c 42bd 28db 08bf 6ad5 e43e 6807 fbbd
000003b0: 4492 f2be dc3e b83d 29e1 42be 9bb0 623e
000003c0: c258 b03e b3bc cebb ae03 e7bc 8816 b4bd
000003d0: 66b3 b2be 9a72 81be ef0b 0a3f f1f2 ae3d
000003e0: b645 71be 4e4b c3be 26ce a9bd f5d3 8abe
000003f0: 63ff 0080 33c2 0080 3615 0100 00fc 0080
7.0239e-41 -7.0307e-41 8.1633e-41 -4.1321e-41 1.30139e-40 -1.03714e-40 -3.9917e-41 -3.7928e-41
1.31002e-40 -1.15471e-40 -2.961e-41 -1.20503e-40 6.4772e-41 1.20692e-40 1.4544e-41 -8.9144e-41
-3.9766e-41 -1.23555e-40 9.7458e-41 -6.0743e-41 -1.14637e-40 6.8615e-41 0.3613154 1.2239e-41
-8.7833e-41 0.14346616 1.2076e-40 0.17172553 -0.057220623 0.12376755 -0.5344618 0.3271094
-0.2630753 -0.3517973 -0.13891959 -0.1472923 0.29513434 0.013828127 -0.6111577 -0.28900787
-0.5185836 -0.02431825 0.34326115 0.26284528 -0.2535854 0.023114625 0.2028331 0.018697806
-0.19286506 0.14062896 -0.27376378 -0.4013849 -0.28905463 0.1055426 0.09595832 -0.2159824
0.30090037 -0.3327285 0.0057152463 -0.34448466 -0.15470456 0.053166043 0.047501944 0.5232441
-0.0034659272 0.1976366 0.41346124 0.0046448144 0.3055191 -0.32698396 -0.08645166 -0.23503311
0.4254224 -0.50959826 -1.0357965 -0.521947 -8.549e-41 4.0685e-41 -2.5314e-41 -5.0183e-41
7.538e-41 -2.822e-41 -9.2619e-41 1.01944e-40 -1.26244e-40 -1.14175e-40 -1.03274e-40 7.72e-43
-9.1757e-41 -2.2453e-41 1.08455e-40 1.1629e-40 1.11787e-40 9.1013e-41 9.6276e-41 -6.473e-42
1.06534e-40 1.31142e-40 1.22665e-40 1.06696e-40 2.3046e-41 -8.73e-43 -1.6048e-41 -4.8269e-41
-1.32661e-40 8.0139e-41 -5.6762e-41 -7.3698e-41 -3.7094e-41 1.3328e-41 -0.63905925 7.3797e-41
9.0134e-41 -0.1688935 5.7134e-41 -0.26989308 0.14924228 -0.32961887 -0.33340555 0.044649348
-0.1921008 -0.7365732 -0.6579914 -0.40127835 -0.19024712 0.053205695 -0.22035806 -0.30385825
-0.16564578 -0.21587703 -0.65212363 0.3410768 -0.3217108 0.2067544 -0.32151288 -0.04215779
0.1427193 -0.17236161 -0.011354767 -0.08828629 0.05375404 -0.09090767 -0.5166096 0.68926746
-0.09774995 -0.058378875 0.14813633 -0.065079734 0.24133451 0.28459305 0.2145003 0.3696763
0.3892337 -0.110331886 -0.18104827 0.37804297 0.66095644 -0.5728091 0.30376393 0.5246607
0.020057281 0.60727596 0.5081631 0.058170114 9.2208e-41 7.4716e-41 -7.0526e-41 -5.5384e-41
-9.4536e-41 8.0453e-41 8.8202e-41 -9.903e-41 9.6741e-41 -1.342e-41 -2.0774e-41 -8.1357e-41
-4.142e-42 -1.14999e-40 -8.0219e-41 3.7629e-41 1.28526e-40 -1.31488e-40 7.852e-41 -8.9e-41
8.3887e-41 4.8709e-41 -1.16462e-40 2.5945e-41 8.0733e-41 4.9375e-41 8.7597e-41 1.7406e-41
-7.2765e-41 4.696e-41 8.5849e-41 1.19095e-40 2.3766e-41 -6.2317e-41 0.23610877 8.3587e-41
5.6891e-41 -0.069225356 1.08979e-40 0.054151136 -0.8607428 0.25264782 -0.02397211 0.38401836
-0.5142496 -0.4760132 -0.45350078 0.047173653 -0.6352509 0.17540321 0.07074284 -0.103769146
0.16672641 -0.39261273 0.48607013 0.39737925 -0.30668867 -0.24708773 -0.2313007 0.22885999
-0.040132802 -0.18223628 0.352635 -0.030838776 0.293809 -0.2304327 -0.56274223 0.11555685
-0.047374904 -0.53459406 0.44694072 -0.12257272 -0.47377217 0.089963645 -0.19031204 0.22137682
0.34442717 -0.006309116 -0.028199997 -0.0879336 -0.34902495 -0.25282747 0.5392446 0.08542431
-0.23561749 -0.3814339 -0.08291273 -0.27114835 -9.1615e-41 -6.9666e-41 9.9445e-41 -9.04e-41

rnn.weight_hh_l0 f4 [400, 400]
00000000: a5a4 1d3f d9f9 8cbf 06c3 6dbd df53 81ba
00000010: 2857 7c3d 37fd cd3d f751 bc3c 54a8 21bc
00000020: 87b7 373e a168 98bd 7f11 da3d 3839 9dbd
00000030: 9102 d53d f30c 24bc 83f5 89bd 1a95 ac3c
00000040: 11ff 76bd 73b8 5e3d a5a6 57bc 9e5a 4bbc
00000050: 5396 793c cb7d 4e3d 008c a43d ae46 fa3d
00000060: 5172 063b 79c9 2bba 30d7 10bc 555a 433b
00000070: ec95 d93c 363f 3c3d 40eb bbba 8e0b a83b
00000080: a0c9 9bbd e6a8 0fbd 9e1e 00ba 40a6 173d
00000090: 537f f9bd 55d7 83bd 5c69 c3bb 7a9d 57bd
000000a0: 1445 97bd 8b9c 633d 66c1 f83b 34cd e0bc
000000b0: 8c0a d63d b598 5ebd fed3 2a3d 64b8 a1bd
000000c0: 3416 9fbd eff2 69bd 6c9e d4ba 2d74 bbbc
000000d0: 479a 043c 9863 1abe c362 eebc e70e d8bd
000000e0: e74c 8b3d 519c 78bd 3534 b3bc e42a 3e3d
000000f0: a8f8 99bd 985a 543c 3bc6 193e 6925 9a3c
00000100: 9df4 133d f2ca 77bd 26b6 b1bd dcf8 a2bb
00000110: 8e04 a83d 7d10 aebd 0251 22bd 8299 53bd
00000120: d760 66b7 0b15 73bd 319b 59bd bea8 3fbd
00000130: 6a2a 3bbd c7e0 633d d18f deba 748b 8c3d
00000140: 6f68 263d 504d 5abc 0e70 24bd 099f d03c
00000150: c6c9 aabd 5d16 dc3d f455 293d e824 dc3c
00000160: 32e5 9a3c daaa d6bd 27e5 a5bd d9f2 673d
00000170: c8c3 d43d 4529 d83c 0110 01bc d4b0 33bd
00000180: a571 ca3c bdcc a83c f9f4 34bd a778 9abb
00000190: bad3 45bc 309f 163d f5a4 063c 0c48 4f3d
000001a0: 2cb3 46bb 4ad9 883d f7e0 203d 3357 99bb
000001b0: b96a a43d d7a8 46bd 121f 213e b802 3fbd
000001c0: cff5 8b3d 2b44 97bd fade 3dbd e0d7 1c3d
000001d0: 1755 ee3c ec20 6c3d 9b6b 0ebc c8e2 c0bd
000001e0: 5016 ce3d 1c7b 803d 33a0 1a3d f649 4fbc
000001f0: 5d20 03be b5ad 9e3c ada8 03bd 74e9 443d
00000200: eaca beba d065 05bd a821 ed3c 9dc6 a03b
00000210: b7f0 973b d5e6 c53c 7f2c acbd 45e4 d2bc
00000220: 0806 bcbd e813 84bd ee96 853d 555e 4f3d
00000230: dbd5 933d 3b4a 7dbd c06a c4bd 5fe4 6e3d
00000240: 5436 113c 4dad 8ebd 89bc 6c3d 791b c2bd
00000250: b467 193c 0041 31ba ddeb 913d 9d46 7b3c
00000260: 4728 993b 309f 863c 19fd abbc 0558 98bd
00000270: 694b 7f3d c76d 2f39 c2f6 fdbb ae2c 213a
00000280: 445b b3bc 9573 8c3d 93e8 42bd 584e 0f3b
00000290: 6699 81bc 119b 90bd 1d16 d6bc 11e1 ce3c
000002a0: b2ca b33c 544e 8c3d 85b9 a4bd adf9 113e
000002b0: a62a 783d 82cd 90bd 4fa0 393d 25ee da3c
000002c0: c66b 013e fb2b 5e3d 2f1a a8bc 819d a43d
000002d0: 8c3e 48bd d6c6 8f3c d82b 783d 7b98 553d
000002e0: 3b19 83bd a2c1 51bc af0b 223d b0ba 2a3c
000002f0: 9592 e8bc e8b2 3fbc 8efa 80bd 9ebb 81bc
00000300: 23c9 a23d c583 4dbd 57b4 54bd 9312 86bd
00000310: cdff ba3b 0be3 fcbc 0c9b 3cbc 8aa1 9ebc
00000320: 5372 6e3d b835 f9bc 94b1 2e3d a8d2 12bc
00000330: 97b8 593c 93c8 143e 0e97 8c3d fc6d c63d
00000340: 0a61 173d 0939 953d 4b70 b23c eb51 7c3d
00000350: 3693 2d3d c2a9 fa3c d701 1dbd 539e e93d
00000360: 2ceb 073d e8dc 713c cb43 a13c d66f 83bd
00000370: 7dcc ed3d 1f06 5dbd 03b8 46bd 65af b03d
00000380: 0142 5f3c c341 61bd f52a e93c ee37 46bc
00000390: 117c 02bb f9dd 9c3d 7871 7cbd b0e2 bcbd
000003a0: 4aa5 f63c 7f8d dfbd 817e 21bd 62ac 0c3d
000003b0: 08f4 c7bc 9c05 e93c ef38 f7bc 57fe f73c
000003c0: 5788 aa3b 220a 623d e761 8b3d dd44 513d
000003d0: 955c db3b c316 44bb 906a 98bd 3506 2d3c
000003e0: 8bf6 88bd 2d75 193c 24d0 143d 87dd 2bbd
000003f0: 4719 a1ba 5e93 003e 0890 263e 1c9d 453c
0.6157935 -1.1013747 -0.058047317 -0.0009866914 0.061606556 0.100580625 0.022988303 -0.009866793
0.17941104 -0.074418314 0.10647868 -0.07676929 0.1040088 -0.010012853 -0.06736281 0.02106719
-0.060301844 0.054375123 -0.01316229 -0.012411742 0.015233594 0.050412934 0.080345154 0.12220512
0.0020514915 -0.0006553154 -0.008840367 0.002980848 0.026560746 0.04595872 -0.0014337078 0.0051283306
-0.07606816 -0.035073183 -0.0004887375 0.037023783 -0.12182488 -0.06437556 -0.0059634876 -0.052640416
-0.073862225 0.055569213 0.0075914143 -0.027441598 0.104512304 -0.05434485 0.041706078 -0.07896498
-0.07767907 -0.057116445 -0.001622153 -0.022882545 0.008093423 -0.15077055 -0.029099828 -0.105497174
0.06801777 -0.06069595 -0.02187548 0.046427622 -0.075181305 0.012961052 0.15017025 0.018816667
0.036121953 -0.060496278 -0.0867732 -0.004973514 0.08203994 -0.08499239 -0.039628036 -0.05166007
-1.3731616e-05 -0.05934624 -0.053126518 -0.046791784 -0.045694746 0.055634286 -0.0016980116 0.06862536
0.04062694 -0.013324097 -0.040145926 0.025466459 -0.083392665 0.10746453 0.041341737 0.026873067
0.018908117 -0.10481806 -0.08100348 0.056628082 0.10388905 0.026386866 -0.007877351 -0.04386981
0.024712393 0.02060544 -0.044178937 -0.00471409 -0.012074405 0.036772907 0.00821804 0.05060582
-0.0030319197 0.066820696 0.039277043 -0.0046795844 0.08028168 -0.048500862 0.15734509 -0.046633452
0.06833994 -0.07386049 -0.046355225 0.038291812 0.029093308 0.057648584 -0.008692647 -0.09418255
0.100628495 0.06273481 0.037750434 -0.012651911 -0.12805314 0.01936994 -0.032143284 0.0480742
-0.0014556323 -0.0325678 0.028946713 0.004906489 0.0046368497 0.02415792 -0.084069245 -0.025743613
-0.09180838 -0.06449109 0.06522928 0.05062707 0.07218524 -0.06183837 -0.095906734 0.05832326
0.0088630505 -0.06966648 0.05779699 -0.09477896 0.009363104 -0.00067617 0.071250655 0.01533666
0.004673991 0.016433328 -0.02099471 -0.074386634 0.062327776 0.00016730196 -0.007750363 0.00061483204
-0.021894105 0.06857983 -0.04758508 0.0021866765 -0.015820216 -0.070608266 -0.026133591 0.025253804
0.021947239 0.068508774 -0.080431975 0.142554 0.060587548 -0.070704475 0.045318898 0.026724884
0.12638769 0.05424116 -0.020520298 0.08037854 -0.048887774 0.017550867 0.060588688 0.05214737
-0.06401297 -0.012802513 0.039561924 0.010420486 -0.028390208 -0.011700369 -0.062977895 -0.015836533
0.0794852 -0.050174493 -0.051929798 -0.065465115 0.0057067634 -0.030869981 -0.011511575 -0.019364137
0.058214497 -0.030421123 0.04264982 -0.008961357 0.013288639 0.14529638 0.06864749 0.096889466
0.036957778 0.07286269 0.021782061 0.06160156 0.04237672 0.030598525 -0.038331833 0.11407151
0.03318326 0.014762141 0.019685647 -0.064178154 0.11611269 -0.053960916 -0.04851533 0.08627204
0.013626576 -0.054994356 0.028462866 -0.012098296 -0.0019910375 0.076595254 -0.06163165 -0.09222925
0.030108113 -0.1091566 -0.039427284 0.034344085 -0.024408355 0.028445058 -0.030178515 0.030272646
0.0052042413 0.055185445 0.06805783 0.051091064 0.0066943862 -0.0029920794 -0.074422 0.010560562
-0.06687649 0.009366316 0.03633131 -0.04195931 -0.0012290858 0.12556216 0.16265881 0.012061384

rnn.bias_ih_l0 f4 [400]
00000000: 79cd 00bc 1524 cd3c 284a 71bd 3bee ffbc
00000010: 1500 a53d 4481 bdbd 1267 8bbd f28f af3d
00000020: 49d4 f83c d7ae c2bd b65b 513d 4c97 35bd
00000030: 5a0b c3bc 0e06 973d 6a5d 33bc 13fc 8bbd
00000040: e496 0abc 5e4f 7a3d 60a6 0a3d 1bda a13c
00000050: a409 433d 2f42 0abc 5eef 6abd b243 df3c
00000060: 8869 cf3c c9df 82bd bf9e 5ebc 7d16 19bd
00000070: 4f7a 2abd f9a9 043e 3f50 3c3d dd64 383d
00000080: 60db 5abe 76e8 083d 93d2 dbbc f8cd 2c3e
00000090: 7464 113d f51c 923d a022 c83c 171e 2fbd
000000a0: adcd c23d 4c64 23bd b9ce 0b3d 5c96 213d
000000b0: 456b 4abb bc26 eebb b196 433c 90f7 9fbd
000000c0: 8583 373d a846 f93c 5f26 b93d de86 1b3d
000000d0: 1259 0c3d 6159 323d 4425 bdbb 5e3d db3d
000000e0: e28a ec3c a04f 3a3d 222e 0a3d 8993 b0bc
000000f0: 1c8d 68bd 2aea dc3c cb2c 72bb 12ef 393d
00000100: 0dc0 833a 51b6 a1bd de1e 183e 60fc 54bc
00000110: 17a9 d2bc d310 2b3d 0518 b1bc 75de d3bd
00000120: e50c 373d 3710 953b fe7a b33b 34b8 3ebd
00000130: b743 15be 5458 59bd 3b72 5dbd 1c32 20bd
00000140: 7211 9bbc 322a 8ebd 96ed cfbd 9712 84bc
00000150: b338 f53c 3f90 033e c015 233c 9e4f a93c
00000160: c4b7 eb3d 1fcb cf3d e4b7 903c 1ea2 b43c
00000170: ec91 b93c 9987 bfbc fbf3 083d 58f5 88bc
00000180: bcb6 c7bc b6f3 1b3d 8f7a 673c bae7 793d
00000190: 5ba5 bcbd 6403 0ebd bd57 04bd 21ef edbc
000001a0: 9c86 15bd f003 0cbd e517 ca3d 2200 03be
000001b0: 64f5 8fbc b887 debd 0ea1 10bd 3f3f ba3d
000001c0: 70b5 94bd 164c 36bd c57f a3bd 1da2 5b3d
000001d0: f9e4 85bd cecc a93d d1c1 d03d 1d37 20be
000001e0: 4a9c 72bd 76a0 113d 49f6 f23d fce4 cabb
000001f0: 67dd 6e3b 894c 113d 6a22 17bd 026a 9abc
00000200: 29d0 f43a f528 a7bd 4736 513d 45a5 9c3d
00000210: 8b3c 0dbd b5b9 dbbb dbc2 04be 6f10 803d
00000220: 1e62 3c3d 5a31 43bb fa54 133e 41bb 86bd
00000230: 1fcb b4ba 2144 20be d8ed 5d3c 200e d93d
00000240: d69e a0bd c478 36be 6443 4d3d 619d 3cbd
00000250: ee69 debd eb5f 6fbc 4e8d 963d 1363 96bd
00000260: c1a3 cdbd 8172 f9bd 5807 c53d 2f23 8e3d
00000270: a275 05be 70ad 213d c7e6 96bc 75fa a63d
00000280: 7564 26bd be26 4a3c b624 44bc faa1 e33c
00000290: 5724 c8bd ddaa 31be 4aaa 42bd a501 b33a
000002a0: bcd6 873c e43d 14bc b5aa 4c3d 91b7 abbc
000002b0: a627 053c 6235 a33c e038 6dbd e57a 043e
000002c0: caad bf3d 7a4a e53d 5986 623b 6e04 c4bd
000002d0: ce02 06bd c191 07be 18bd bd3d 577e efbc
000002e0: ecb1 52bc 9986 83bd 32c9 8e3d 5a96 e83c
000002f0: 8857 9fbd 7201 cebd aeb3 3f3d 589c 303d
00000300: 04b6 b23c cce0 b8bd 7c63 96bd b45d ed3b
00000310: c5c3 97bd 90be 4dbd 587e 59bd 6729 e23d
00000320: 308e 71bd 01fd 893d 48ac 5abd 287c 87bd
00000330: 51c3 003d 2135 95bd 0b38 e83c d60e bcbd
00000340: 8940 913c 7d52 6c3c b76c 723d 5ab0 9ebc
00000350: 2e13 d4bb 7b39 f93b 79df e43c 0194 343d
00000360: ac6f c53b a16b 073d d3cd 2e3d 053f afbc
00000370: 25fb 823d 099f cd3d 9953 f53b fe87 0fbd
00000380: 0615 1fbc 2464 38bd fb5a 8a3c 031f 60bd
00000390: a406 d03d fd03 4b3d 47e4 1d3d 25bb f73c
000003a0: ef39 553d 5e2d 2cbd aa81 b63d 4174 63bd
000003b0: 33f7 d03d 09b5 023d 2d89 4abb 1b98 c9bd
000003c0: 60fd 1a3c 0dcd 433d cb4e 80bc ab2b c3bd
000003d0: 3c92 b83c 90d4 903c df13 623c 891e b63d
000003e0: d1cc bbbd 2ca3 e6bb b0a3 cebd cdf5 073d
000003f0: 6fe1 efbc 3354 3e3d 97e9 8cbb 221c ef3d
-0.0078614885 0.02504162 -0.05890861 -0.031241527 0.08056656 -0.09253171 -0.068067685 0.08572377
0.030374663 -0.09506004 0.051112853 -0.04433374 -0.023809124 0.07374202 -0.010947565 -0.06835189
-0.008458827 0.061110847 0.033850074 0.019757321 0.047616616 -0.008438631 -0.057357185 0.02725396
0.025318876 -0.0639034 -0.013587653 -0.037374962 -0.04162055 0.12955464 0.045974966 0.045018066
-0.21372747 0.033424817 -0.026833808 0.16875446 0.03549619 0.07134429 0.024430573 -0.042753305
0.09511886 -0.039890572 0.034132693 0.039450034 -0.0030886692 -0.007267801 0.011937783 -0.07810891
0.04480316 0.0304292 0.09040522 0.037970416 0.03426463 0.04354227 -0.0057722647 0.10705064
0.028874818 0.045486093 0.033735402 -0.021554725 -0.056775197 0.026967127 -0.0036952968 0.04539401
0.0010051742 -0.07896102 0.14855525 -0.012999624 -0.025715394 0.04176409 -0.021617899 -0.10345165
0.04469003 0.004549052 0.0054773083 -0.04656239 -0.14576612 -0.053062752 -0.054064017 -0.039110288
-0.018929217 -0.06941642 -0.10152738 -0.016122146 0.029934263 0.12847994 0.009953916 0.020667847
0.1150966 0.10146164 0.01766581 0.02204996 0.022652589 -0.023380088 0.033435803 -0.016718552
-0.024379127 0.038074218 0.014128341 0.061012007 -0.092112266 -0.034671202 -0.032310236 -0.02904469
-0.036505327 -0.034183443 0.09867839 -0.1279302 -0.017573066 -0.1086573 -0.035309844 0.090940945
-0.07261169 -0.044506155 -0.079833545 0.0536214 -0.06537814 0.082910165 0.101932175 -0.15646024
-0.05923108 0.035553418 0.118633814 -0.006191848 0.0036447884 0.03547338 -0.036898054 -0.018849377
0.0018677759 -0.08162109 0.051077154 0.0764871 -0.034481566 -0.0067054876 -0.12964956 0.062531345
0.04599201 -0.0029784054 0.14387885 -0.065786846 -0.0013793445 -0.15650989 0.013545476 0.10598397
-0.078427956 -0.17819506 0.050113097 -0.046048526 -0.10860048 -0.014610271 0.073511705 -0.07343116
-0.10040999 -0.12180043 0.09620541 0.069403045 -0.13033155 0.039472044 -0.01842059 0.0815324
-0.040623147 0.012338338 -0.011971643 0.027787197 -0.09772556 -0.17350335 -0.04752568 0.0013657106
0.016581886 -0.009047959 0.049967486 -0.020961555 0.008127129 0.019922916 -0.05791557 0.12937506
0.093593195 0.11195846 0.003456494 -0.095711574 -0.03271752 -0.13239194 0.092645824 -0.029235048
-0.012859803 -0.06422157 0.06971969 0.028392006 -0.07780367 -0.100588694 0.046802215 0.04311785
0.021815307 -0.090272516 -0.07343194 0.0072438363 -0.07410387 -0.050230563 -0.053099006 0.11043053
-0.05897349 0.0673771 -0.053386956 -0.06615478 0.03143627 -0.07285524 0.028347036 -0.09182517
0.017730968 0.014423964 0.05918571 -0.0193712 -0.006472013 0.007605729 0.027938591 0.04408646
0.006025275 0.033061627 0.042676758 -0.021392355 0.06395558 0.10040099 0.0074867723 -0.0350418
-0.009709602 -0.045017377 0.016889086 -0.054717075 0.101575166 0.04956435 0.03854778 0.030240605
0.052057203 -0.042035453 0.0891145 -0.05553079 0.102033995 0.03191093 -0.0030904517 -0.09843465
0.009459823 0.047802974 -0.015662571 -0.095298134 0.022530667 0.017679483 0.013798683 0.08892543
-0.09169925 -0.0070384946 -0.10089815 0.0331934 -0.0292823 0.046467017 -0.004300307 0.11675288

rnn.bias_hh_l0 f4 [400]
00000000: 79cd 00bc 1524 cd3c 284a 71bd 3bee ffbc
00000010: 1500 a53d 4481 bdbd 1267 8bbd f28f af3d
00000020: 49d4 f83c d7ae c2bd b65b 513d 4c97 35bd
00000030: 5a0b c3bc 0e06 973d 6a5d 33bc 13fc 8bbd
00000040: e496 0abc 5e4f 7a3d 60a6 0a3d 1bda a13c
00000050: a409 433d 2f42 0abc 5eef 6abd b243 df3c
00000060: 8869 cf3c c9df 82bd bf9e 5ebc 7d16 19bd
00000070: 4f7a 2abd f9a9 043e 3f50 3c3d dd64 383d
00000080: 60db 5abe 76e8 083d 93d2 dbbc f8cd 2c3e
00000090: 7464 113d f51c 923d a022 c83c 171e 2fbd
000000a0: adcd c23d 4c64 23bd b9ce 0b3d 5c96 213d
000000b0: 456b 4abb bc26 eebb b196 433c 90f7 9fbd
000000c0: 8583 373d a846 f93c 5f26 b93d de86 1b3d
000000d0: 1259 0c3d 6159 323d 4425 bdbb 5e3d db3d
000000e0: e28a ec3c a04f 3a3d 222e 0a3d 8993 b0bc
000000f0: 1c8d 68bd 2aea dc3c cb2c 72bb 12ef 393d
00000100: 0dc0 833a 51b6 a1bd de1e 183e 60fc 54bc
00000110: 17a9 d2bc d310 2b3d 0518 b1bc 75de d3bd
00000120: e50c 373d 3710 953b fe7a b33b 34b8 3ebd
00000130: b743 15be 5458 59bd 3b72 5dbd 1c32 20bd
00000140: 7211 9bbc 322a 8ebd 96ed cfbd 9712 84bc
00000150: b338 f53c 3f90 033e c015 233c 9e4f a93c
00000160: c4b7 eb3d 1fcb cf3d e4b7 903c 1ea2 b43c
00000170: ec91 b93c 9987 bfbc fbf3 083d 58f5 88bc
00000180: bcb6 c7bc b6f3 1b3d 8f7a 673c bae7 793d
00000190: 5ba5 bcbd 6403 0ebd bd57 04bd 21ef edbc
000001a0: 9c86 15bd f003 0cbd e517 ca3d 2200 03be
000001b0: 64f5 8fbc b887 debd 0ea1 10bd 3f3f ba3d
000001c0: 70b5 94bd 164c 36bd c57f a3bd 1da2 5b3d
000001d0: f9e4 85bd cecc a93d d1c1 d03d 1d37 20be
000001e0: 4a9c 72bd 76a0 113d 49f6 f23d fce4 cabb
000001f0: 67dd 6e3b 894c 113d 6a22 17bd 026a 9abc
00000200: 29d0 f43a f528 a7bd 4736 513d 45a5 9c3d
00000210: 8b3c 0dbd b5b9 dbbb dbc2 04be 6f10 803d
00000220: 1e62 3c3d 5a31 43bb fa54 133e 41bb 86bd
00000230: 1fcb b4ba 2144 20be d8ed 5d3c 200e d93d
00000240: d69e a0bd c478 36be 6443 4d3d 619d 3cbd
00000250: ee69 debd eb5f 6fbc 4e8d 963d 1363 96bd
00000260: c1a3 cdbd 8172 f9bd 5807 c53d 2f23 8e3d
00000270: a275 05be 70ad 213d c7e6 96bc 75fa a63d
00000280: 7564 26bd be26 4a3c b624 44bc faa1 e33c
00000290: 5724 c8bd ddaa 31be 4aaa 42bd a501 b33a
000002a0: bcd6 873c e43d 14bc b5aa 4c3d 91b7 abbc
000002b0: a627 053c 6235 a33c e038 6dbd e57a 043e
000002c0: caad bf3d 7a4a e53d 5986 623b 6e04 c4bd
000002d0: ce02 06bd c191 07be 18bd bd3d 577e efbc
000002e0: ecb1 52bc 9986 83bd 32c9 8e3d 5a96 e83c
000002f0: 8857 9fbd 7201 cebd aeb3 3f3d 589c 303d
00000300: 04b6 b23c cce0 b8bd 7c63 96bd b45d ed3b
00000310: c5c3 97bd 90be 4dbd 587e 59bd 6729 e23d
00000320: 308e 71bd 01fd 893d 48ac 5abd 287c 87bd
00000330: 51c3 003d 2135 95bd 0b38 e83c d60e bcbd
00000340: 8940 913c 7d52 6c3c b76c 723d 5ab0 9ebc
00000350: 2e13 d4bb 7b39 f93b 79df e43c 0194 343d
00000360: ac6f c53b a16b 073d d3cd 2e3d 053f afbc
00000370: 25fb 823d 099f cd3d 9953 f53b fe87 0fbd
00000380: 0615 1fbc 2464 38bd fb5a 8a3c 031f 60bd
00000390: a406 d03d fd03 4b3d 47e4 1d3d 25bb f73c
000003a0: ef39 553d 5e2d 2cbd aa81 b63d 4174 63bd
000003b0: 33f7 d03d 09b5 023d 2d89 4abb 1b98 c9bd
000003c0: 60fd 1a3c 0dcd 433d cb4e 80bc ab2b c3bd
000003d0: 3c92 b83c 90d4 903c df13 623c 891e b63d
000003e0: d1cc bbbd 2ca3 e6bb b0a3 cebd cdf5 073d
000003f0: 6fe1 efbc 3354 3e3d 97e9 8cbb 221c ef3d
-0.0078614885 0.02504162 -0.05890861 -0.031241527 0.08056656 -0.09253171 -0.068067685 0.08572377
0.030374663 -0.09506004 0.051112853 -0.04433374 -0.023809124 0.07374202 -0.010947565 -0.06835189
-0.008458827 0.061110847 0.033850074 0.019757321 0.047616616 -0.008438631 -0.057357185 0.02725396
0.025318876 -0.0639034 -0.013587653 -0.037374962 -0.04162055 0.12955464 0.045974966 0.045018066
-0.21372747 0.033424817 -0.026833808 0.16875446 0.03549619 0.07134429 0.024430573 -0.042753305
0.09511886 -0.039890572 0.034132693 0.039450034 -0.0030886692 -0.007267801 0.011937783 -0.07810891
0.04480316 0.0304292 0.09040522 0.037970416 0.03426463 0.04354227 -0.0057722647 0.10705064
0.028874818 0.045486093 0.033735402 -0.021554725 -0.056775197 0.026967127 -0.0036952968 0.04539401
0.0010051742 -0.07896102 0.14855525 -0.012999624 -0.025715394 0.04176409 -0.021617899 -0.10345165
0.04469003 0.004549052 0.0054773083 -0.04656239 -0.14576612 -0.053062752 -0.054064017 -0.039110288
-0.018929217 -0.06941642 -0.10152738 -0.016122146 0.029934263 0.12847994 0.009953916 0.020667847
0.1150966 0.10146164 0.01766581 0.02204996 0.022652589 -0.023380088 0.033435803 -0.016718552
-0.024379127 0.038074218 0.014128341 0.061012007 -0.092112266 -0.034671202 -0.032310236 -0.02904469
-0.036505327 -0.034183443 0.09867839 -0.1279302 -0.017573066 -0.1086573 -0.035309844 0.090940945
-0.07261169 -0.044506155 -0.079833545 0.0536214 -0.06537814 0.082910165 0.101932175 -0.15646024
-0.05923108 0.035553418 0.118633814 -0.006191848 0.0036447884 0.03547338 -0.036898054 -0.018849377
0.0018677759 -0.08162109 0.051077154 0.0764871 -0.034481566 -0.0067054876 -0.12964956 0.062531345
0.04599201 -0.0029784054 0.14387885 -0.065786846 -0.0013793445 -0.15650989 0.013545476 0.10598397
-0.078427956 -0.17819506 0.050113097 -0.046048526 -0.10860048 -0.014610271 0.073511705 -0.07343116
-0.10040999 -0.12180043 0.09620541 0.069403045 -0.13033155 0.039472044 -0.01842059 0.0815324
-0.040623147 0.012338338 -0.011971643 0.027787197 -0.09772556 -0.17350335 -0.04752568 0.0013657106
0.016581886 -0.009047959 0.049967486 -0.020961555 0.008127129 0.019922916 -0.05791557 0.12937506
0.093593195 0.11195846 0.003456494 -0.095711574 -0.03271752 -0.13239194 0.092645824 -0.029235048
-0.012859803 -0.06422157 0.06971969 0.028392006 -0.07780367 -0.100588694 0.046802215 0.04311785
0.021815307 -0.090272516 -0.07343194 0.0072438363 -0.07410387 -0.050230563 -0.053099006 0.11043053
-0.05897349 0.0673771 -0.053386956 -0.06615478 0.03143627 -0.07285524 0.028347036 -0.09182517
0.017730968 0.014423964 0.05918571 -0.0193712 -0.006472013 0.007605729 0.027938591 0.04408646
0.006025275 0.033061627 0.042676758 -0.021392355 0.06395558 0.10040099 0.0074867723 -0.0350418
-0.009709602 -0.045017377 0.016889086 -0.054717075 0.101575166 0.04956435 0.03854778 0.030240605
0.052057203 -0.042035453 0.0891145 -0.05553079 0.102033995 0.03191093 -0.0030904517 -0.09843465
0.009459823 0.047802974 -0.015662571 -0.095298134 0.022530667 0.017679483 0.013798683 0.08892543
-0.09169925 -0.0070384946 -0.10089815 0.0331934 -0.0292823 0.046467017 -0.004300307 0.11675288
